ml-1m_default/SASRec.epoch=80.lr=0.001.layer=2.head=1.hidden=50.maxlen=200.pth (torch, 776502 bytes, 22 tensors)

item_emb.weight f4 [3417, 50]
00000000: 0000 0000 0000 0000 0000 0000 0000 0000
00000010: 0000 0000 0000 0000 0000 0000 0000 0000
00000020: 0000 0000 0000 0000 0000 0000 0000 0000
00000030: 0000 0000 0000 0000 0000 0000 0000 0000
00000040: 0000 0000 0000 0000 0000 0000 0000 0000
00000050: 0000 0000 0000 0000 0000 0000 0000 0000
00000060: 0000 0000 0000 0000 0000 0000 0000 0000
00000070: 0000 0000 0000 0000 0000 0000 0000 0000
00000080: 0000 0000 0000 0000 0000 0000 0000 0000
00000090: 0000 0000 0000 0000 0000 0000 0000 0000
000000a0: 0000 0000 0000 0000 0000 0000 0000 0000
000000b0: 0000 0000 0000 0000 0000 0000 0000 0000
000000c0: 0000 0000 0000 0000 57f1 183e d332 603e
000000d0: 6055 c1bd 1492 2d3d b188 c0bd 181b b43d
000000e0: 8285 073e 789d f9bd 098d b73d f5f1 0cbe
000000f0: 8f6c dd3d 671f bdbd 3ca4 143e 991d f2bc
00000100: d3cc d6bd ac68 66be f408 e1bd 39b4 3d3d
00000110: 9c38 5ebd 2202 a53d 4bfc ee3b 793a 0b3a
00000120: 0434 d1bc 5f29 093e 8c73 b1bd 70da c8bd
00000130: 0d08 6bbd 4dd7 bebc 9aa2 713e 5c31 dabd
00000140: c0d6 24be 1196 ddbc 9a6f 7a3c 91fa 71bd
00000150: fa19 d3bd 0283 a3bc 2531 23bd 0e19 2b3e
00000160: 1e8d 7ebe 3281 6ebd d566 393e 1d48 9dbd
00000170: cd4d 60bd 5c45 babc dced 543e b5ea 523c
00000180: b194 01bd 6748 93be 74c1 3fbd d161 d53d
00000190: f10c a93d 2f7f 6e3d 50e9 d7bc 41c2 20be
000001a0: 6070 4fbc 3747 fa3b a7cf 913c 62ef 72bc
000001b0: 2e81 0e3e 759e 07be bf0e a3bd 1b0c 923c
000001c0: 0cb0 993c 44de 04be 1b59 07bd 04dd 0bbe
000001d0: c156 b53c 21d0 14bd 107d 19be 1fe6 47bd
000001e0: d77e 833e c4a2 aabc 2a9e aaba 20ec 24bd
000001f0: 1945 14bd 0056 17be 8ecc 783d 76a2 adbd
00000200: d885 8cbd 9df9 eabb 682f 24be 1368 c6bd
00000210: 8c96 5dbc 898a 2a3d 5ad6 133c eaa8 efbd
00000220: dd7b 863d 3d68 83bd 16f3 043d 974e 913e
00000230: e23d 5cbc e380 72bd 2d93 1abd d686 04be
00000240: 7f13 4c3d cbe9 2cbe 40d1 39be c4f2 5bbc
00000250: 1da6 e63c dc4c e73d b62a 0c3e 7500 c0bd
00000260: 5367 7abd 4d7a d53d f843 0cbe a54c f53c
00000270: 468f 8e3d d01c 6ebd 362d 3e3d c7a1 28be
00000280: a99d 8bba 7c83 583d 6d57 de3d 7b0f 18bc
00000290: 54aa f63d a0b3 e0bc 90bc 723b 9681 7b3c
000002a0: bfa1 563d 0c11 70be 4e1f 1e3e 7813 07be
000002b0: 3302 cb3d fee2 743e 5f75 8e3b b421 00bd
000002c0: a322 edbd 7b78 7cbd c448 a13d 2811 40be
000002d0: b8c8 98bd 3e54 b9bd 9138 bdbb 7985 323d
000002e0: 40c1 aebd 7ac5 65bd fa81 d73b 2d10 f33c
000002f0: fc95 64be 34fc 103d 3097 863d 9cf2 123e
00000300: 00a0 c23d e567 cabd d65e 0a3e 77c0 3a3c
00000310: ee22 84bc 694e 8bbe d5c8 dbbd 7878 c83d
00000320: ac32 2a3e 5982 f03d 888f 6bbd 3e58 d1bb
00000330: b342 fab8 3a09 fe3d 59d9 cc3d 7235 e3bd
00000340: 2f17 3d3e f0cb f8bd 26b1 8f3d 8d5c a8bd
00000350: 8ac1 863d b95e d4bd f300 94bd 1ade fabd
00000360: 5d94 b4bd bddf 783d 6d53 efbc f166 56bd
00000370: 1818 9c3d fcb2 cbbd 7313 94bd 5c69 fa3d
00000380: 58b9 8bbd 2058 e23a e9af 29bd c3f6 7b3d
00000390: 408a 1c3e a9be 09be c78d 01be 67bf 40bd
000003a0: ed52 db3d d106 cf3c 37d3 98bd 1679 bcbd
000003b0: 303d c03d f0b9 ee3d 5a7e 02be d2ee 273c
000003c0: 1c19 023d f516 debd 56d8 e5bb 806f 1bbe
000003d0: de32 533e 4646 8e3c c069 16be 208c 6dbe
000003e0: fccc 0cbc 0472 763e cb3c 8d3d 18c6 993d
000003f0: f344 293e 8a61 013d 877e 00bd 2136 42bd
0.0 0.0 0.0 0.0 0.0 0.0 0.0 0.0
0.0 0.0 0.0 0.0 0.0 0.0 0.0 0.0
0.0 0.0 0.0 0.0 0.0 0.0 0.0 0.0
0.0 0.0 0.0 0.0 0.0 0.0 0.0 0.0
0.0 0.0 0.0 0.0 0.0 0.0 0.0 0.0
0.0 0.0 0.0 0.0 0.0 0.0 0.0 0.0
0.0 0.0 0.14935814 0.21894388 -0.09440112 0.04237564 -0.09401072 0.0879423
0.13234523 -0.12188238 0.08962447 -0.13764174 0.108117215 -0.09234505 0.14515775 -0.029555129
-0.10488286 -0.22500867 -0.10988036 0.04631445 -0.054253206 0.080570474 0.0072932593 0.00053111423
-0.025537498 0.13394688 -0.08664617 -0.09807289 -0.057380725 -0.023296023 0.23597184 -0.10653946
-0.16097546 -0.027049096 0.015285397 -0.05907685 -0.10307689 -0.01995993 -0.03984179 0.16708776
-0.2485852 -0.05822868 0.18105634 -0.0767977 -0.054761697 -0.022738151 0.20793861 0.012873341
-0.031635944 -0.28766176 -0.04681535 0.104190476 0.082544215 0.05822676 -0.02635637 -0.15699102
-0.01266107 0.007637884 0.017799212 -0.014827581 0.13916466 -0.1324404 -0.07961797 0.017828038
0.018760704 -0.12975413 -0.033043962 -0.1365853 0.022136094 -0.0363313 -0.14989114 -0.048803445
0.2568271 -0.020829566 -0.0013017107 -0.04026425 -0.03619871 -0.147789 0.060741954 -0.084782526
-0.06861466 -0.0071708695 -0.16033709 -0.09687819 -0.013524663 0.041636024 0.009023273 -0.1170214
0.06566594 -0.06416366 0.032458387 0.28380272 -0.013442488 -0.059204947 -0.037738014 -0.12942061
0.04982328 -0.1688606 -0.18146229 -0.013424579 0.02815538 0.11293957 0.13688168 -0.09375087
-0.061133694 0.10423718 -0.13697803 0.029943774 0.06960921 -0.058132946 0.046429835 -0.16467963
-0.0010651845 0.05285977 0.10856519 -0.009281035 0.12044206 -0.027429402 0.0037038662 0.01535072
0.052400347 -0.23444003 0.1544163 -0.1319102 0.09912529 0.23914716 0.004347488 -0.03128214
-0.11578872 -0.061638337 0.07875207 -0.18756545 -0.07460159 -0.09049271 -0.0057745655 0.04358432
-0.08532953 -0.05609653 0.0065767737 0.0296708 -0.2232284 0.03539677 0.065718055 0.1435036
0.09503174 -0.098830976 0.1351274 0.011398426 -0.016129937 -0.2720826 -0.10731665 0.097886026
0.16620892 0.11743612 -0.05750993 -0.006388693 -0.00011933353 0.124041036 0.10002393 -0.11094178
0.18465875 -0.12148273 0.0701621 -0.08220778 0.065798834 -0.103696294 -0.072267435 -0.12249394
-0.088173606 0.06076025 -0.029214585 -0.052344266 0.07621783 -0.09946248 -0.07230272 0.12227127
-0.06822461 0.0017268695 -0.041427527 0.061514627 0.15287113 -0.13451637 -0.1265174 -0.047057535
0.10709176 0.025271805 -0.07462161 -0.09202783 0.093866706 0.116565585 -0.12743512 0.01024981
0.031762227 -0.108442225 -0.0070143146 -0.15179253 0.20624873 0.017367493 -0.14688778 -0.23197985
-0.008593794 0.24066931 0.06896361 0.075084865 0.16530208 0.03158716 -0.031370666 -0.047414903

pos_emb.weight f4 [201, 50]
00000000: 0000 0000 0000 0000 0000 0000 0000 0000
00000010: 0000 0000 0000 0000 0000 0000 0000 0000
00000020: 0000 0000 0000 0000 0000 0000 0000 0000
00000030: 0000 0000 0000 0000 0000 0000 0000 0000
00000040: 0000 0000 0000 0000 0000 0000 0000 0000
00000050: 0000 0000 0000 0000 0000 0000 0000 0000
00000060: 0000 0000 0000 0000 0000 0000 0000 0000
00000070: 0000 0000 0000 0000 0000 0000 0000 0000
00000080: 0000 0000 0000 0000 0000 0000 0000 0000
00000090: 0000 0000 0000 0000 0000 0000 0000 0000
000000a0: 0000 0000 0000 0000 0000 0000 0000 0000
000000b0: 0000 0000 0000 0000 0000 0000 0000 0000
000000c0: 0000 0000 0000 0000 73e5 413d 956a 593d
000000d0: b624 8cbd c26b 6f3e 405d 04bd baeb 683e
000000e0: dca1 463e efa5 38be 99d3 4b3e 8e74 393d
000000f0: 4884 943d 3b71 773e 532a 493d b599 f5bc
00000100: c617 03bd a140 a23d c1cf d03d 429f 15bd
00000110: 6f76 2bbc a32e 5dbd ea66 043c 9f2a 8a3d
00000120: 6e8e 10be 333c f63d a04f 9abe 2def 883c
00000130: 7f7c 843d 1420 053d c2e6 023e 64a5 1e3d
00000140: 8c28 1d3d 6bc0 163e d19c 903d c5b6 5cbd
00000150: 4f64 2c3e 8eb9 9f3c 5854 933e e4ec 26be
00000160: 2306 1abe b568 173e bd8f e2bc b36d a6bd
00000170: 7335 563e f917 323c a7d6 8cbc d9b5 1a3c
00000180: 0366 9f3d ad57 9abd f874 31be 91ac 8e3d
00000190: 74cb 0c3b c40b 26bd 0572 5a3d 955a 31bd
000001a0: b077 eabb aabd cf3d c9ac a83d b8b8 3abd
000001b0: 0eb8 ee3d cf88 533e e0c1 893d c5c2 2b3e
000001c0: 1c28 82bd 8227 07be c8b8 d93d f47f 1bbc
000001d0: 0f13 053e 97c0 fa3a 1315 e43d dc10 0dbe
000001e0: e8f5 c03d eada 80bd 9945 c13c 4bce 83bd
000001f0: 05ff 13bd 9e8d cebb 3a6e 86bd 94b1 023e
00000200: e860 3a3d 3d66 ec3c b624 d73d c10c 393e
00000210: 8c61 bebb 1c42 95bd 3990 9cbd f293 fdb9
00000220: aac9 493e ab9c 00be 03e0 30be fb2c e73b
00000230: 6ef0 a5bd e841 ae3b 3775 483e f98c 213d
00000240: 0bbc 4dbd 7949 253d 3c3a b13d ff35 e6bd
00000250: a037 7fbe 8fb9 7a3d 63a0 05be 47c4 dc3a
00000260: 409f 163d ca89 db3d abf5 5abd 2221 2e3d
00000270: 65f7 d3bb 46c3 3dbe c1e2 353e e675 093e
00000280: 29d6 44bb 39a7 85bc 9ffd 223e d001 893d
00000290: 91e9 71be ae76 febd 0e40 013e da25 bcbd
000002a0: 1314 0d3d ffa3 8fbd aee7 403d 6faa 8abd
000002b0: 3658 d13d 7bd3 d93c ffa5 9abb 6ffd 10be
000002c0: 658d 143e 57d8 8e3d bec1 9d3d 7887 bd3d
000002d0: bb28 3f3e 7c54 f33c 3f44 bc3d 3993 743d
000002e0: 68a2 bc3d 5cb6 87bd ede4 c63d 2427 17be
000002f0: 7c87 58be a4a0 213e 1694 953d 5d09 f8bd
00000300: 0340 083e 0048 8ebd 4caf 99bd a4c7 b8bd
00000310: 9d0b 033d cefa 6cbd 2da6 cdbc 4969 3c3d
00000320: d06c 1abd ef79 8bbd b5d6 403a 59c5 953d
00000330: 8dd1 85bd 7976 5e3b 2dbf 8d3d bc71 953d
00000340: b637 0a3e f1fd fb3d 30ca 763c 53e7 c33d
00000350: c340 cf3d 8d8c e43c 1418 fbbc 1498 4ebd
00000360: 3e7e fb3d 2f94 c0bc ab0a 8bbb a6e3 bebd
00000370: 8af4 a73c 4c6d e43b f935 843d d713 bf3d
00000380: ba29 b3bd 8536 20bd 62bd a53d 0a11 123e
00000390: e30d a1bc a73f 253e efe7 aebc 79d7 e03d
000003a0: dd1d 6c3d d7c2 d43d 4a8d 0f3e dbb4 84bb
000003b0: 63b7 203e 2a26 42be 91b7 b1bd 5de5 f43d
000003c0: 8a0b 3d3c 0f47 2b3d d31a 3f3e bab2 543c
000003d0: 6961 bfbd 789e d53d 03f8 093e b917 a83d
000003e0: 7ab1 9abd f412 15bd 1795 86bd 71cd 40bd
000003f0: 0264 cabd 7c9f 043d 50fa 32bd 8634 8a3d
0.0 0.0 0.0 0.0 0.0 0.0 0.0 0.0
0.0 0.0 0.0 0.0 0.0 0.0 0.0 0.0
0.0 0.0 0.0 0.0 0.0 0.0 0.0 0.0
0.0 0.0 0.0 0.0 0.0 0.0 0.0 0.0
0.0 0.0 0.0 0.0 0.0 0.0 0.0 0.0
0.0 0.0 0.0 0.0 0.0 0.0 0.0 0.0
0.0 0.0 0.04733796 0.05308016 -0.068429396 0.2338095 -0.032315493 0.22746173
0.19397682 -0.18032049 0.19904937 0.04527717 0.07251793 0.24164288 0.04911263 -0.02998052
-0.032005094 0.07922483 0.10195876 -0.036528833 -0.0104652485 -0.053999554 0.008081177 0.067464106
-0.14116833 0.12023201 -0.30138874 0.01671561 0.06469058 0.032501295 0.1278334 0.038731948
0.038368747 0.14721839 0.0706116 -0.05388524 0.1683514 0.019497659 0.28775287 -0.16301304
-0.15041403 0.14786036 -0.02765643 -0.08126392 0.20918827 0.010869973 -0.017192198 0.00944277
0.07783129 -0.07536254 -0.17329776 0.06966508 0.0021483572 -0.040538564 0.053331394 -0.043299276
-0.007155381 0.101435974 0.08236081 -0.045586318 0.116561994 0.20657657 0.06726432 0.16773517
-0.063553065 -0.13198665 0.10630947 -0.009490956 0.12995552 0.0019130883 0.11136832 -0.13775963
0.09421903 -0.062917545 0.023592757 -0.06435832 -0.036131877 -0.006303503 -0.06563993 0.12763053
0.045502573 0.028857345 0.10505049 0.18071271 -0.0058099683 -0.07288 -0.07644696 -0.00048366148
0.19705835 -0.12559764 -0.17272954 0.0070549226 -0.08102499 0.005317915 0.19575964 0.039441083
-0.05022816 0.040353272 0.086536855 -0.11240768 -0.24923563 0.06121212 -0.13049464 0.0016843163
0.036772966 0.107196406 -0.053456943 0.042512067 -0.0064687007 -0.18531522 0.17762281 0.13423881
-0.0030034876 -0.01631509 0.15917061 0.06689799 -0.23624255 -0.1242498 0.12622091 -0.09186907
0.034442972 -0.07013702 0.047095947 -0.06770789 0.10221903 0.0265901 -0.0047194953 -0.14159177
0.14507063 0.06974857 0.07702969 0.09254354 0.18667881 0.029703371 0.091927044 0.059710715
0.09210664 -0.06626579 0.09711633 -0.14761025 -0.21145433 0.15783936 0.07303636 -0.12111161
0.13305669 -0.06947327 -0.07504138 -0.090224534 0.031993497 -0.057856373 -0.025103653 0.045998845
-0.037701428 -0.06810366 0.00073562126 0.07313032 -0.06534109 0.0033945127 0.069212295 0.07297084
0.13497815 0.12304295 0.015062854 0.09565606 0.10119774 0.027899051 -0.03065113 -0.050438
0.12279938 -0.02350816 -0.004243215 -0.09320764 0.020502347 0.006971037 0.06455607 0.09329956
-0.08748193 -0.039114494 0.080927625 0.14264312 -0.019659942 0.16137563 -0.021350829 0.10978598
0.057645667 0.10388725 0.14018741 -0.00404988 0.15694956 -0.18959871 -0.08677591 0.1195781
0.011538396 0.041815814 0.18662576 0.012982065 -0.093447514 0.10430616 0.13473515 0.0820765
-0.07553382 -0.03639503 -0.065714054 -0.047070924 -0.09882356 0.03237866 -0.043695748 0.06748299

model.Layernorm.weight f4 [25]
00000000: 0a8e 8a3f dbbb 803f 46a2 853f 2b84 7f3f
00000010: e6e0 883f 1a56 983f 9e38 813f b3b5 853f
00000020: 2782 813f 50b3 5e3f 5c97 643f ce4f 823f
00000030: bd34 833f 5d5d 813f 76ee 7e3f 9381 803f
00000040: 7b88 5a3f 86fc 823f 2ad4 833f fb5d 7f3f
00000050: bca7 633f 2da6 803f f3f0 8e3f 49f0 753f
00000060: b42e 823f
1.0824597 1.0057329 1.0440147 0.9981105 1.0693634 1.1901276 1.0095403 1.0446075
1.0117844 0.8699236 0.89293456 1.0180604 1.025047 1.0106617 0.9958261 1.0039543
0.853645 1.0233314 1.0299122 0.9975278 0.8892782 1.0050713 1.1167282 0.9606977
1.0170503

model.Layernorm.bias f4 [25]
00000000: 1b67 10be b985 f93d 1169 e3bc ecfd 3dbd
00000010: 8823 df3d cbe8 3b3d c868 153e 8fb6 45bd
00000020: 3f55 043e cec8 d5bc e394 73bd 9800 0c3e
00000030: 1668 2abd af0e 1fbe cc7e eabc 1bfd 59bd
00000040: 687f e83d cc00 b8bb 2e34 9d3d d1bf efb9
00000050: cdfa dabc 6cc5 e9bc 10f9 94bd f92b d7bb
00000060: 3a76 c0bd
-0.14101832 0.12183709 -0.02776006 -0.046384737 0.10895449 0.045876306 0.14590752 -0.048269805
0.12923144 -0.026096728 -0.05946816 0.13672101 -0.04160317 -0.15532945 -0.028624915 -0.053219896
0.11352426 -0.0056153294 0.07675968 -0.00045728547 -0.02673092 -0.02853652 -0.072740674 -0.0065665212
-0.0939755

model.w_q.0.weight f4 [25, 25]
00000000: d6b1 85be f32e 083d 8b94 cb3c b16c ae3c
00000010: 0a88 bcbe 559e 233e 94ed dbbb 2a75 0a3e
00000020: 5863 00bd b818 ba3e e0ef c7be 123c 5a3b
00000030: 5ef4 013e 0a5e 34bf 7646 82bd c3d3 713e
00000040: 8eef 9b3d 6177 79bb 2903 a7be 9666 a3be
00000050: b58f 00bd 0071 bf3c 9064 583f 397f 663d
00000060: d994 0abe 0c0a abbe 19a1 053f 9c6c fb3d
00000070: 8022 a2be dd75 46be 3ecf 1c3e e52c 52be
00000080: dafa bbbe a3db b73c 091f eebe 0358 b3be
00000090: 9ef4 0c3f 39fa 9f3e 8d41 b9be 205f 343e
000000a0: c99c 373e 765e cd3e 075c ed3d 7b7f 473e
000000b0: 7a23 a03c 22d0 983d b4df b4be d2cd 2e3e
000000c0: 9999 003c 96f9 abbc f84d 20bf 6f7b dbbd
000000d0: 440a 98be a21c 703c 2226 0f3f 4407 313e
000000e0: f751 123e 17ac 1bbe 3110 043e 49a7 d8be
000000f0: 4366 24be f092 36be 07d8 bf3d 7290 6d3d
00000100: 1cb4 023d ff75 5a3e b12b 393e 32af 0dbf
00000110: 62d6 d83e 2f93 9f3e 2d7e 24bf ef13 1c3e
00000120: e7b3 a0be 3848 4abe da7f c9be 2288 d5bc
00000130: 10e2 61be 40d8 0ebf b1c1 22be ddd6 613e
00000140: 0371 3e3d 04b7 97be fc11 8abe 8444 21be
00000150: ef3e c4bd 9f5c 28be cd14 9b3e 6165 56be
00000160: 36da 993e e65d 963e bcf8 dabe d044 ea3e
00000170: 4821 cf3d 65e3 173e 4b20 e53e ceaa e93e
00000180: 5b56 0bbf 4bfc e5bc 074b 8cbe b87b ef3c
00000190: 9dfe 103e 8236 5d3e 6371 a53e 0860 e5be
000001a0: b23c 13be 96c0 f3bd 5959 7e3e ff86 c73e
000001b0: 6c82 0fbe be56 1bbe 61b0 c63d 804d b0be
000001c0: aaf5 7d3e f2c5 083f d027 febe dbe6 893d
000001d0: f707 5fbe 445b ddbd c610 19bf 73b4 8dbd
000001e0: ba95 1f3f 3ed0 df3e 7447 a9be 226c 2c3e
000001f0: b807 383f cef8 9e3e 9d08 d3be 05f7 b4bd
00000200: 5375 79be 8546 77bd 04e0 3fbe 2683 983e
00000210: 214c 3e3e 67ba 853e 5980 a73d 8d0e babe
00000220: b50f bdbc e759 493e 5c8f fdbe 781e 813d
00000230: b375 e9be 1bfd 793e 06d8 633e 5f99 cf3e
00000240: 6fcb c93e 4df9 4fbd ff7f 05be ed87 b8bd
00000250: 39e8 f7bc be11 803e eefe 9e3e f493 55be
00000260: cf49 e2be 4761 1dbe b84f 1a3e 4768 deba
00000270: 0d22 4a3e 0939 a9be cdf5 323d 8da3 5f3d
00000280: 4116 f23d 58ad 973e 5a0a 1e3e 1f2a 8ebd
00000290: c2ae 9ebd b08a 4ebe 5cf0 08be 6ebe 8cbe
000002a0: 15df 11bf 69a4 963d 6cf7 243e 1a14 fa3d
000002b0: a625 9f3c 3d67 b93d 5e8d 563e c3e2 943e
000002c0: eca4 0cbf e49f 09be 4355 ac3d e305 bbbd
000002d0: 8bbd 61bd 6c22 10bf 1ddf 973e 7f83 093e
000002e0: 9b66 e5be 7da8 4e3c 27de a9bd e3f7 1cbe
000002f0: a251 7dbe 8dbf dbbc 1872 a4bd 668b 703e
00000300: 67e1 743d a03a 21be c37f 6f3d 62d0 343e
00000310: 3ffe 5a3e 0c6a f13e 3282 7c3d 5afb b23e
00000320: c35b 7bbd 5581 b2bb 10f1 323d 6e4e 823d
00000330: 150f d8be 460f 29bd c86f fdbe c012 9b3c
00000340: 0e26 00bf e1d7 ddbe cde6 bb3d fe4f 3cbf
00000350: 0d53 c83e 50d4 f13e 8708 2a3d 588c 3ebe
00000360: 09bf f9be da02 f8be ee71 1ebe 6fc3 f7bd
00000370: daa4 12bf 390d de3e be9b 393f 043f 41be
00000380: 489c fa3e 49d4 e6bd 4665 203e 60a9 143e
00000390: 9f61 003e fb3d 6f3c 8e5a f03c 0016 a0bd
000003a0: e98c 8cbc 785c 813e 1e00 21be 2bda aebc
000003b0: b4da 7fbe 192b c13e 60b9 c53e b920 28be
000003c0: 629f f23d f034 38bf 0e47 ce3d 87d7 ad3e
000003d0: a6fa 02be a610 be3d 928f 28be 3b56 22bf
000003e0: 84f6 283e 7f7d 33bd 3660 74be 3bdc 1dbd
000003f0: 189d 823e d43b cabd 0544 b03e 8815 153e
-0.2611224 0.0332479 0.024851104 0.021292062 -0.3682254 0.15978368 -0.006711671 0.13521257
-0.03134474 0.36346984 -0.39050198 0.0033299965 0.12690875 -0.7045599 -0.063610956 0.23615937
0.07614051 -0.003806554 -0.32619599 -0.31914204 -0.03138705 0.023369312 0.84528446 0.056273673
-0.13533343 -0.33406103 0.5219894 0.12276575 -0.31666946 -0.19380899 0.15313432 -0.20524938
-0.36714822 0.022443598 -0.46508053 -0.35028085 0.55060756 0.31245592 -0.36182824 0.17614412
0.17930903 0.4011113 0.115898184 0.19482224 0.019548167 0.07461573 -0.35326922 0.17070702
0.007849121 -0.020993035 -0.6261897 -0.107169025 -0.29695332 0.014655264 0.5591756 0.17287928
0.1428908 -0.15202366 0.12896802 -0.42315128 -0.16054635 -0.1782949 0.09367376 0.057999082
0.031910047 0.21334074 0.18083073 -0.5534545 0.4235106 0.3116698 -0.6425503 0.15241979
-0.31387255 -0.19754112 -0.39355356 -0.02606589 -0.22058892 -0.5579872 -0.158942 0.2205462
0.046494495 -0.29631817 -0.26966846 -0.15748793 -0.09582316 -0.16441582 0.30289307 -0.2093711
0.30049294 0.29368514 -0.42767894 0.45755625 0.1011377 0.14832838 0.447512 0.45638126
-0.54428643 -0.028074404 -0.2740099 0.029233798 0.14159627 0.21602824 0.3231307 -0.4479983
-0.14378622 -0.11901967 0.24838771 0.3897018 -0.14014596 -0.15169808 0.0970161 -0.34434128
0.24800745 0.5342704 -0.4963975 0.06733485 -0.21780382 -0.10808423 -0.5979122 -0.069191836
0.6233784 0.43713564 -0.33062327 0.16838124 0.7188678 0.31049198 -0.4121751 -0.08836178
-0.24361162 -0.060369987 -0.18737799 0.29787558 0.18583728 0.26118776 0.08178777 -0.36339226
-0.023078779 0.19663201 -0.49523437 0.063046396 -0.4559761 0.24412958 0.22250375 0.405467
0.3941302 -0.05077486 -0.13037108 -0.09010301 -0.0302621 0.25013536 0.3105387 -0.20857221
-0.44196936 -0.1536914 0.15069473 -0.0016968333 0.19739552 -0.33051327 0.043691445 0.054599334
0.11820651 0.29624438 0.15433636 -0.06941628 -0.07748176 -0.20170093 -0.1337294 -0.27489036
-0.5698102 0.073555775 0.16110009 0.12210865 0.019427132 0.09052894 0.20952365 0.29079255
-0.5493915 -0.134399 0.084147 -0.09131982 -0.055112403 -0.56302524 0.2966241 0.13429068
-0.44804844 0.012613413 -0.08294325 -0.15328936 -0.24738172 -0.026824737 -0.08029574 0.23490676
0.059785273 -0.1574502 0.058471452 0.17657617 0.2138605 0.4715122 0.0616476 0.3495739
-0.061366808 -0.0054475465 0.043686926 0.063626155 -0.42199007 -0.04127433 -0.49499345 0.01892984
-0.50058067 -0.43328765 0.09174881 -0.7355956 0.39125863 0.47232294 0.04151204 -0.18608224
-0.4877856 -0.48439676 -0.15473148 -0.12097823 -0.57282794 0.43369463 0.7250327 -0.18871695
0.48947358 -0.11270959 0.15663633 0.14517736 0.1253724 0.01460218 0.029340055 -0.07816696
-0.017157035 0.2526586 -0.15722701 -0.021344265 -0.24985772 0.37728193 0.38617992 -0.16418733
0.11846806 -0.71955776 0.10072146 0.33953497 -0.12790927 0.09280519 -0.16461018 -0.6341283
0.16500288 -0.043820854 -0.23864827 -0.038540106 0.25510478 -0.098746926 0.34426895 0.14558995

model.w_q.1.weight f4 [25, 25]
00000000: 6f77 5cbe 8065 f1bd 8f51 d53e 79b7 123e
00000010: 735e 35bf 6285 563f 7f1d 0d3c 1984 c5bd
00000020: 20f0 053e ed77 a33e 1372 b03d 6837 60be
00000030: 4f5a d93d c338 a8be fb36 06be b575 0cbd
00000040: e810 4f3d 19fd 97be 6fb0 16be d346 3abe
00000050: 473b cebd dd06 ab3e 289f 793e fb08 1d3e
00000060: 7ddb a8bd ffc2 81be bc76 b63e e8cd 2b3e
00000070: becd 04bf 8016 6d3e 0d9f 743e c30d b63e
00000080: 2561 4abd e4d4 b43e 727e 95bd c52a 863d
00000090: 5865 003f 77a5 9a3b 0e04 4bbe 4ee2 f93d
000000a0: 7f43 bc3d 00c4 dbbb 766f 22be 26ff eebb
000000b0: e3a0 583e aca9 bf3e 67be 27bf 490e a63d
000000c0: 20dc 72be da3a 5cbe 461c 53be b914 803d
000000d0: 41e0 11bf 9c5a 8abe 81f1 dd3e ceff 753e
000000e0: 7b59 19be d3d3 8d3d f519 873e c31b a1be
000000f0: 8276 1cbf 37eb dd3e 8d2d bc3d a293 1dbd
00000100: a00f de3d e4b6 4fbe 828d 77be 63e3 8ebe
00000110: b0d6 173f 4242 953e 470a 753e dc23 5cbe
00000120: 8679 d3be 9585 b83d 6b79 9dbe 4a21 d5be
00000130: d23a 1fbe b335 98bd c187 60be d612 923e
00000140: a433 09be 134d bc3d c153 7fbc e473 8a3d
00000150: 880a a93d 4f08 aabe 2f3d 043f ff98 57be
00000160: ceac d83d f9ec 66be c5d8 49be 4433 0d3e
00000170: be26 58be e3e1 883e 05fd f13d 8e6c 603e
00000180: a0ad 3fbe ebbd bd3e 0e88 2f3e 16b3 34be
00000190: 7e80 86be 42fe a13e e21f 123e 34c3 4cbe
000001a0: 3c71 85bc e8d9 1ebf 374e cb3d 91ad cf3d
000001b0: 1e7f 793e f516 12be b4f8 093f 37d7 d3be
000001c0: a7a1 093f 1531 fb3e 37f4 fc3d 3a2e 53be
000001d0: cbea b5bc faf9 cd3c 2249 4f3d ebf8 d73d
000001e0: 8526 193f a919 7a3e a0a3 693e 2eb1 cdbe
000001f0: 2480 fb3e 56fa 9cbe 538e 13bf 532c 00bd
00000200: d51e 823e 7b06 983e f435 d53d 9565 b93e
00000210: 65a2 f3be b680 923e 2c3a 5cbe 0369 1dbf
00000220: 0541 333e 56d6 9c3e afca 19bd 101e 903d
00000230: c67c 32be 734c b63d e09b a03d 45ad 223e
00000240: 6c5c 4ebe 274a b23e 5468 00be ec18 debc
00000250: 2de7 1fbd ef50 893d 4442 c13e 94d0 8c3e
00000260: 89a9 dd3d 839d a2bc 97d5 36be 59b7 d6bd
00000270: f2bb ed3c a146 0fbe 580f e3bd fa7d 003f
00000280: 9790 893e 4c59 34be 854e 86be 3f8a 873c
00000290: 1152 0d3e ca1e 7c3e bb61 0cbf 257a b1be
000002a0: bf7a 0bbf 9c01 d5bd c2c2 873e 1006 68be
000002b0: 10c0 93bd bd33 a53e c12f fbbe f310 173e
000002c0: ff80 a4be dba3 133c 2090 5a3d 789a 8e3e
000002d0: 7c16 b4bd a8d6 6ebe 1cb7 593e be7f 61be
000002e0: 7205 8bbe f570 c1be 0c87 48be c433 a6be
000002f0: d4d3 e7bc bc28 3cbd f6e0 fe3e 0a35 083f
00000300: 027c e83d 224b adbe fdd1 e63d c892 f73d
00000310: 6946 323e a11b a53b 3949 fa3e 391e 4e3f
00000320: 55eb c93e 7651 fdbe 637d 96be f7e8 16bd
00000330: 0f8e 96be 399b 103e 8e0c febe feaa d93e
00000340: 5860 88be ca9e c5be 49ef a43e 8c26 b6be
00000350: 515b 4cbe 1b09 673e daa4 8cbe 7d7e e73b
00000360: 3be3 133e 126e 29bd 9e22 42bf 84f1 14bd
00000370: 2b57 3ebe 709f cf3e ee5c 6b3f b988 a2be
00000380: 073b 2f3f 7ba8 933c 67d2 e13e d59c 443e
00000390: 61d8 2e3d 7389 8abd b30f 51bd 4744 843e
000003a0: 4413 d0bd de50 233e 4ace 58be f7be 2e3d
000003b0: 6279 79bc 0875 eabd 50e2 83be eb61 ffbe
000003c0: 73b6 153f b62b 01be 0bc0 fdbd 1649 6ebe
000003d0: cfb1 cb3d 714e 1dbd 688d c63d 2ed0 f3bd
000003e0: 3a53 9b3d 80d2 d93e 1d33 b6bd b39a cfbd
000003f0: 41d0 233e c5f4 553c 1079 a63e b9c0 1e3e
-0.21529935 -0.11786938 0.41663787 0.14327802 -0.70847243 0.83797276 0.008612989 -0.09644336
0.13079882 0.31927434 0.08615508 -0.21896136 0.10612928 -0.32855806 -0.13106911 -0.03429194
0.050553232 -0.29685286 -0.14715742 -0.1819108 -0.100699 0.33403674 0.2437712 0.15335457
-0.08244989 -0.25344083 0.35637462 0.16777766 -0.5187644 0.23153114 0.23888798 0.35557374
-0.04940905 0.35318673 -0.07299508 0.065511264 0.5015464 0.004719432 -0.19825765 0.12201367
0.09192561 -0.0067067146 -0.15862831 -0.0072935997 0.21155123 0.37434137 -0.65524906 0.081081934
-0.23716784 -0.21506825 -0.20616254 0.062539525 -0.5698281 -0.27022254 0.43348315 0.24023363
-0.1497554 0.06925168 0.2638699 -0.31466493 -0.6111833 0.43343517 0.091883756 -0.03847087
0.10842824 -0.20284611 -0.24175075 -0.27907857 0.5931196 0.29152113 0.23929702 -0.21498054
-0.41303653 0.09009854 -0.30756697 -0.4162696 -0.15549782 -0.07432117 -0.21926786 0.28529996
-0.13398606 0.09194388 -0.015583933 0.06760386 0.08253962 -0.33209464 0.5165586 -0.21054457
0.10579835 -0.22551335 -0.19711597 0.13789088 -0.21108529 0.26734838 0.11815838 0.2191641
-0.18718576 0.37058958 0.17141744 -0.17646441 -0.26269907 0.31639296 0.14269975 -0.19996339
-0.016289346 -0.6205125 0.09927028 0.10140527 0.24364898 -0.1426657 0.53895116 -0.41375133
0.53762287 0.49060884 0.12351268 -0.20623103 -0.022206685 0.025143612 0.050606854 0.10545524
0.598244 0.24423851 0.22816324 -0.4017424 0.491212 -0.3065974 -0.57639045 -0.03129227
0.25414148 0.29692444 0.10410681 0.36210313 -0.47584835 0.28613824 -0.21506566 -0.6148836
0.17505272 0.30632275 -0.03754681 0.07036984 -0.1743041 0.089013 0.07842231 0.1588641
-0.20152444 0.348222 -0.12539798 -0.027111493 -0.039038826 0.0670489 0.3774587 0.27502882
0.10823352 -0.019850498 -0.17854916 -0.104841895 0.029020283 -0.13991787 -0.11086911 0.50192225
0.26868126 -0.17612189 -0.2623178 0.016545413 0.13800837 0.2462112 -0.54836625 -0.346635
-0.5448417 -0.104006976 0.26515776 -0.22658563 -0.072143674 0.32266036 -0.4905987 0.1475256
-0.32129666 0.009011234 0.053360105 0.27852225 -0.08793351 -0.23324072 0.21261257 -0.22021386
-0.27152592 -0.37781492 -0.19582766 -0.3246137 -0.02829925 -0.045937285 0.49781007 0.5320593
0.113517776 -0.33846384 0.11270521 0.12088543 0.17409672 0.005038694 0.4888399 0.80514866
0.39437357 -0.49476212 -0.29392537 -0.036843266 -0.29405257 0.14121713 -0.49618953 0.4251327
-0.26636004 -0.3859771 0.3221381 -0.35576284 -0.1995671 0.22562067 -0.27469522 0.007064639
0.1444215 -0.041364737 -0.7583407 -0.03636314 -0.1858794 0.4055133 0.91938674 -0.31744936
0.68449444 0.018024674 0.44105837 0.19200452 0.042686824 -0.067644976 -0.051040363 0.2583334
-0.101599246 0.15948817 -0.21172443 0.042662587 -0.015226694 -0.11448103 -0.257586 -0.49879393
0.5848152 -0.1261433 -0.12390145 -0.23270068 0.09946024 -0.038404886 0.0969494 -0.119049415
0.075842336 0.4254341 -0.08896468 -0.101369284 0.15997411 0.013058846 0.32514238 0.15503205

model.w_q.2.weight f4 [25, 25]
00000000: a1c1 3bbe 86be aebb 6e34 4ebf 0d7c cdbe
00000010: 8f45 e43e 0093 98bd 1222 0cbf fd25 033c
00000020: 51df 28be 0835 823e 4706 8f3e 32f6 053e
00000030: 5557 e63e 384e 1ebe 2d1d 9dbc 9883 dcbe
00000040: c38e e13e 935b d33d c081 5a3e 9574 86bd
00000050: e346 993d ff66 c73e a668 4f3e 705a 0c3f
00000060: be20 09be fea1 dd3d 264f af3e de83 693e
00000070: c8ad a73e 008d a1bb 5327 29be 5608 1c3d
00000080: 1d8e bfbe 1c03 063e a89b 773e a33b a7bd
00000090: 675c c53e 8675 dfbe 1a05 9c3e a28f 6cbd
000000a0: ed26 4e3e f340 ba3e be8e 1a3d 8aa2 003e
000000b0: a4d5 873e 9f73 6abd f14b 05bf 51df 1cbe
000000c0: aa91 56be efb8 b5be 1d61 f8be ef7d c4be
000000d0: 8c6b 2abe 605e 483e 9f29 df3e 34c9 5f3e
000000e0: 7358 693d a302 8abe 7c7e 7f3e 536e 023e
000000f0: 9494 4e3e bc2c b8bd faeb 1dbd 50ba cc3e
00000100: 4857 c93e d2cf 8fbd f5ad 0c3e c163 35bd
00000110: 376e a23e e472 3fbd 9b31 4fbd ee14 3bbf
00000120: 2768 12be ad34 183d 5879 68be fce8 953c
00000130: db20 0bbf 1949 8bbd 8ad1 033e 0e27 9f3e
00000140: cf80 6d3c 2b00 cfbc b344 c93d 7862 853e
00000150: b51c b43e 2f76 f83d 67df b1bd ec9e f33c
00000160: b441 6abe 149b babd 94a6 b23e 84ab 54be
00000170: 7fc1 52be e5ef b2bd 0135 cdbc 846a fb3c
00000180: d78f 0abe b87f 413e 6703 95bd 5341 0a3c
00000190: cab2 96be a4aa 253e 7a69 89be a093 6dbf
000001a0: 2c9f 4c3e acbd 50be a4de 093e a8a6 8f3e
000001b0: 83b8 d73d 5021 92be 1bc2 0d3f e1b0 c43e
000001c0: 906e fb3e b0e0 90be a3c6 c03e 028c ea3e
000001d0: 2704 a83d d5d7 35be 2cb3 5d3c 811e c0be
000001e0: 2772 483e 98a0 ce3e 65b7 98bc 4868 1cbe
000001f0: 0a24 0ebd 6caf c13d cc27 e0be 3120 11be
00000200: 83ea 433e 96b1 10be ecd9 293f 2d45 3dbf
00000210: 47a5 963e 3f8b 61bc b60a 403e d9a3 42bd
00000220: ec05 c3bb abb8 ef3e 552d 503e a5c2 173f
00000230: 18c5 19bf 9136 04bf e82f 683d b3f8 c63e
00000240: d1a9 873e 128a b73b e98a da3e 0abd 183f
00000250: 9563 073e 9f05 fc3d cec0 963d 38db 35be
00000260: 9f3c f2be e065 35bf 3a68 53be 8d89 c53d
00000270: d01d 8dbf 8963 913e debe 3ebf b358 85bd
00000280: bfc0 7fbe 9462 043f 5d28 103e 9b7d 8fbe
00000290: d9a6 933d 04ee df3e 5608 0cbf abfe 733d
000002a0: d3dd c3bd a0e4 4bbe e956 3f3e 22c9 3a3f
000002b0: 09b2 f63e 6ade 163e 53e6 523e 424c 9b3c
000002c0: 6324 52be 1574 903e 5fdc e1bd 84a9 ed3e
000002d0: fcff ae3e ea4d ce3c d4b6 7b3d 4cb1 a33e
000002e0: 9d5c c2be 97b1 0b3d 42f9 54be cd08 42be
000002f0: 5a2a 593e 7321 843e 6983 033f 82a1 7cbe
00000300: 533b 193e ae18 833c e4bd e8be 49ee 103e
00000310: a2bd e2be 2caa e5bd 6928 20be 0caa 6fbe
00000320: ebdc c0bd 1536 0b3f bd47 823a 84f8 f93d
00000330: e8e5 31be 0973 6abe 7c69 023f 7e4c 903d
00000340: 3fbf c33e 4b8e 6abe f0fe d13e 41fa ca3d
00000350: 63ce 9ebe b788 ea3e 5a9a 00be 94b8 943d
00000360: f76c bc3e 9943 063e a3c0 6dbd 3632 f9be
00000370: 3eb5 623e a5f4 dfbb cdd7 bbbe 486b 68ba
00000380: 3991 493e a9ec ffbe 6bc4 af3e 772c 483f
00000390: 4b9a 023e 2fa3 b53d 0509 c3be dd6f 9e3f
000003a0: ac6b 04bf 7fe8 5c3f f341 b63e 63ad 18be
000003b0: 775f d5bd 3e2f a4bd fceb cdbd ea22 f93c
000003c0: cdb5 e8be d3ef 923d d162 bb3d 8503 583b
000003d0: 87a5 3fbe dea6 d0be ccbd 39bf b9d5 01bf
000003e0: 418d 4abc 08f6 833e 9e73 373e ad80 ac3e
000003f0: 10d8 613d b128 92be bc37 e43d 1a2c d13b
-0.18335582 -0.0053327708 -0.8054875 -0.40133706 0.4458432 -0.07449913 -0.5473949 0.008004663
-0.16491438 0.25431085 0.27934477 0.13082197 0.44988504 -0.15459526 -0.019178951 -0.43069148
0.4405423 0.10320201 0.21338558 -0.06565205 0.07484224 0.38945767 0.20254764 0.54825497
-0.13391396 0.10821913 0.34240073 0.2280421 0.32749772 -0.0049301386 -0.16518907 0.038093887
-0.3741311 0.13087124 0.24180472 -0.08165672 0.3854706 -0.4364435 0.30472642 -0.057754166
0.20132037 0.36377677 0.037733786 0.12562004 0.26530182 -0.05723917 -0.52069 -0.15319563
-0.20954004 -0.35492656 -0.48511592 -0.3837733 -0.16642588 0.19567251 0.43586442 0.21854097
0.056969117 -0.26955137 0.24950594 0.12737398 0.20173866 -0.089929074 -0.038555123 0.39985895
0.39324403 -0.070220605 0.13738234 -0.044284586 0.31724712 -0.046740428 -0.050584417 -0.7307881
-0.14297543 0.03715961 -0.22702539 0.018299572 -0.5434701 -0.06801052 0.12872902 0.31084484
0.014496042 -0.025268635 0.098275565 0.26051688 0.35178152 0.12131917 -0.08685189 0.029738866
-0.22876626 -0.0911161 0.34892714 -0.20768553 -0.20581625 -0.087371625 -0.025049688 0.030690439
-0.13531433 0.18896377 -0.072760396 0.008438426 -0.2943328 0.16178375 -0.26838285 -0.9280338
0.19982594 -0.20384854 0.13463837 0.28056836 0.1053324 -0.2854104 0.55374306 0.38416198
0.4910779 -0.28296423 0.37651548 0.45809942 0.08203917 -0.17758115 0.013531487 -0.37523273
0.19574796 0.40356898 -0.018642137 -0.15274155 -0.03470234 0.09457287 -0.43780363 -0.14172436
0.19132428 -0.14130244 0.6634815 -0.7393368 0.29422972 -0.013766109 0.18754086 -0.04751954
-0.0059516337 0.46820578 0.20329793 0.5928138 -0.60066366 -0.5164576 0.056686312 0.38861617
0.26496747 0.005601176 0.42684105 0.5966345 0.13221581 0.1230576 0.07360993 -0.17759407
-0.47311875 -0.70858574 -0.20645228 0.09645376 -1.1024723 0.28396252 -0.7450999 -0.06511059
-0.2497587 0.5171292 0.14077897 -0.28025517 0.07209558 0.4373628 -0.5470022 0.059569042
-0.09563794 -0.19911432 0.18685497 0.72963154 0.48182705 0.14733282 0.20595674 0.018957261
-0.20521693 0.28213564 -0.110283606 0.46418393 0.34179676 0.025183637 0.061453655 0.31971204
-0.37961283 0.03410491 -0.2079821 -0.1894867 0.21207562 0.2580677 0.5137239 -0.24670985
0.14964037 0.01600298 -0.45457375 0.14153399 -0.44285303 -0.11214098 -0.15640415 -0.23404711
-0.09417137 0.543794 0.0009939593 0.12205604 -0.17372859 -0.22895445 0.50942206 0.0704584
0.38231847 -0.22905843 0.41014814 0.099110134 -0.31016836 0.4580743 -0.1255888 0.07261768
0.36801884 0.13111724 -0.05804504 -0.4867112 0.22139451 -0.006834584 -0.3668808 -0.0008866084
0.19684304 -0.49985245 0.34329543 0.7819285 0.1275417 0.088690154 -0.3809282 1.2377888
-0.51726794 0.8629226 0.3559719 -0.14909892 -0.10418599 -0.08016823 -0.10054776 0.030412156
-0.45451203 0.07174649 0.09149707 0.0032961082 -0.18715487 -0.4075231 -0.7255523 -0.5071674
-0.012362779 0.25773644 0.17915198 0.33691922 0.055137694 -0.2854667 0.11143443 0.006383431

model.w_q.3.weight f4 [25, 25]
00000000: c997 d0be 6fd1 4cbd d4e6 2fbe 7377 b3bd
00000010: 52b8 a3be 2486 84be 758d 343e 718e 6bbe
00000020: 27f0 f63e aace 273f f288 843d 2ea5 b3bc
00000030: 88a7 3b3e 0ced cfbd 653c 96be c864 4dbd
00000040: 23e2 81bd 4680 92be 0b1e d03e 4637 0fbc
00000050: 13f4 24bf 0c9a e7bd 0a6b 493e 5200 e23c
00000060: 3f56 c13d 03d9 99bd d497 ec3e d1ca 283e
00000070: da4c 1fbf d0e1 cebd 2ceb 94bd 870a 413d
00000080: 6e4c fd3c afeb 8cbd d241 bebd ff97 163f
00000090: bbe6 cc3e 0cd6 0dbe 0237 5e3e 4a40 fcbe
000000a0: 1239 c2bc 8ec0 fd3e 1a23 9bbe bbcd c7bc
000000b0: 13c2 253e 089b 3f3e 015e b7be 3bbf 353e
000000c0: a30d 46be 9bdd abbd 4f8d 443d 57b6 efbb
000000d0: 6d75 5a3d 6f5d 8b3c 1935 c83e 52ef e03d
000000e0: b842 acbe b487 2fbe 60d3 dc3d 9379 b2be
000000f0: 5367 6dbd 0e1e 893e 9a1e 983e 0495 28be
00000100: f928 603e 973f b5bd 8351 b5be 09e6 c2be
00000110: bb03 b13e be75 2c3f 24b3 dcbb 374e 08bf
00000120: c953 e2be b827 c0be 8b6c 88be 44e5 89be
00000130: 87ec 483d d8eb aabe 1495 abbd 8be6 863e
00000140: 6031 9c3c 2574 6f3e 596b bebc d0f6 bcbe
00000150: e886 56bd 552b 463e b227 0bbe fed3 91be
00000160: e593 98bd a240 9cbd 0dba aebe 9fbf c5bd
00000170: 93ef 623e 9d7a 993d 92b5 5c3e a80f 8c3e
00000180: 5736 113e 19cb dfbe 5999 d3bc 60d4 253e
00000190: a47f 163e e523 9b3e 2d3f ed3e af2d 733e
000001a0: ea40 95bd 70a9 f5be bca9 2c3d 78cc a43d
000001b0: c5f9 923e 8580 3e3d b4b1 9f3e 1612 e6be
000001c0: 3e77 063f 7a8f 50bc d370 99bd 4030 52bd
000001d0: 7184 b9bd 6944 84be 8846 91bc 4d70 803c
000001e0: 8181 e43e 5cba 493e 0f89 e4be 5c22 a6be
000001f0: c7b8 a33e ff08 93be 8eb7 c7bd 7040 95be
00000200: 6e32 2fbd 7235 8b3e c6bc ab3e 30fc 58bd
00000210: 65d1 3a3e d7a7 033e b5b3 b1be 24cd f3be
00000220: f749 d53e 9b1a b83e 1f44 07be 14e2 eb3e
00000230: 5e00 b7be b044 afbe 25cb b0bd e2f1 db3e
00000240: 090e 433d 0bb7 b03c 2cb2 b5bc da44 cf3e
00000250: fee9 d23e 8208 0cbf 3d1f a63e 7e25 bc3e
00000260: 2d94 e6bd 7eae 1cbd 59ae bebd 3799 16bf
00000270: 8ca4 8f3d e6cf de3d 08ca f8bd 4c47 db3e
00000280: 3bde db3e b619 d13c 5837 90be 9235 e93d
00000290: 2492 a33b 51dc 133d 4c10 b2bd df70 cfbe
000002a0: a93c 5fbf 3351 7abe bfab 4cbc 0696 e9bc
000002b0: 9f18 483e a870 c0bd 86a2 11be eac8 31be
000002c0: 005c aabd cdd7 50be 4c1e 693e 5336 2fbe
000002d0: d41f a5bd b6bb 833e dc05 d6be ee7e 01be
000002e0: 7779 81be a811 893e ef1d 9fbc 0d7c 8cbe
000002f0: 3a8e 7c3e f7cd ca3e ac27 92bd 6f64 d1be
00000300: 97f8 1c3f 6bc7 88be 2268 c43e f245 013e
00000310: 6cb3 913e feed 3bbd 7584 493e 609f c53e
00000320: a202 9fbc 74bb b53e 16c7 1a3e 4318 debe
00000330: 9bd7 d03d c559 72be 689d c23e 274e a2be
00000340: 5b2a 1ebc f5b0 08bf d5ed aa3e 7f61 8b3d
00000350: 7658 393e 75c5 cc3e 53c0 35be b1ef 553e
00000360: 412c ff3e 2b6c f7be 0391 80be 55a3 c4be
00000370: 71a2 f3bd 78c1 d3bd c12a e3bc cf29 21bd
00000380: a050 db3d ad41 29be 0213 fdbc a991 0e3d
00000390: d18a 723e a152 0cbc 7032 0a3d 9938 343b
000003a0: abaa 893e 0509 13bd 8cf8 093e 628e cebd
000003b0: 21d8 163e 18a1 dd3e e02a 823c 1335 14bd
000003c0: 58fb 043d 6006 01bd c930 3e3e 3dea 963e
000003d0: 9d4c fdbb 2b42 583d 527b 07bf 793c b9bd
000003e0: e710 d73e abb0 ad3d 35f2 2a3e cf91 313e
000003f0: fd65 993e d822 c5be cc8e 27be 7873 ac3c
-0.40740803 -0.05000442 -0.17177898 -0.087630175 -0.31976563 -0.2588359 0.17632087 -0.23003556
0.48230097 0.6554972 0.06471433 -0.02192935 0.18325627 -0.10152635 -0.29342952 -0.05014494
-0.0634196 -0.2861349 0.4064792 -0.008741206 -0.6443493 -0.11308679 0.19669738 0.027588043
0.09440278 -0.07512095 0.46209586 0.16483618 -0.6222664 -0.10101664 -0.07271418 0.04712918
0.030920234 -0.068808906 -0.09289898 0.5882568 0.40019783 -0.13851184 0.21700671 -0.492678
-0.023708854 0.4956097 -0.30300218 -0.024390092 0.16187315 0.18711483 -0.35813907 0.1774873
-0.1934114 -0.08391877 0.047986325 -0.007315438 0.053334642 0.017012326 0.3910301 0.10983147
-0.33644652 -0.1714161 0.10782504 -0.3485838 -0.057959866 0.26780742 0.29710847 -0.16463095
0.2189063 -0.088500194 -0.3541375 -0.38066128 0.3457316 0.6736716 -0.0067352224 -0.53244346
-0.44204548 -0.37530303 -0.26645312 -0.26932728 0.049053695 -0.3338306 -0.08378044 0.26347765
0.019066513 0.2338415 -0.023244547 -0.36907053 -0.05237475 0.19352467 -0.13589361 -0.2848205
-0.07450084 -0.07629515 -0.3412632 -0.096556894 0.22161703 0.0749409 0.21553639 0.27355695
0.14180885 -0.4370964 -0.025829958 0.16194296 0.14697129 0.30300823 0.46337262 0.23747896
-0.07287772 -0.47980833 0.04215406 0.08046812 0.28706184 0.046509285 0.31190264 -0.44935673
0.525257 -0.01272952 -0.07492223 -0.051315546 -0.09058464 -0.25833443 -0.017733827 0.01567855
0.44630054 0.19699997 -0.44635817 -0.3244809 0.3197691 -0.287178 -0.09751807 -0.29150724
-0.042772703 0.27189213 0.3354246 -0.05297488 0.1824394 0.12856995 -0.34707418 -0.47617447
0.41657993 0.35957798 -0.1320958 0.4607092 -0.35742468 -0.34232092 -0.08632497 0.4295798
0.047620807 0.021571657 -0.022179686 0.40482217 0.41194147 -0.5470048 0.32445708 0.36747354
-0.11258731 -0.038252346 -0.09310598 -0.5882754 0.07013807 0.10879497 -0.121479094 0.42827833
0.42942986 0.025524955 -0.28167224 0.11387171 0.0049917866 0.036098782 -0.08694515 -0.405158
-0.87201935 -0.24445038 -0.012492119 -0.02851392 0.19540642 -0.093964875 -0.14222154 -0.17361799
-0.08318329 -0.20394821 0.22765464 -0.17110567 -0.08062711 0.2572915 -0.41801345 -0.12646076
-0.25287983 0.26771283 -0.019423453 -0.27438393 0.2466363 0.39610264 -0.07136473 -0.40896937
0.6131682 -0.26714644 0.38360697 0.12624338 0.284572 -0.045881264 0.19679435 0.38598156
-0.019410435 0.35494578 0.15115008 -0.43377885 0.101973735 -0.23667057 0.38010716 -0.3170025
-0.009653653 -0.53395015 0.33384576 0.06805705 0.18100151 0.39994398 -0.17749147 0.20892216
0.4983845 -0.48324713 -0.25110635 -0.38405862 -0.118962176 -0.103396356 -0.027730348 -0.039346512
0.107087374 -0.1652896 -0.030892853 0.03480688 0.23685767 -0.008564622 0.033739507 0.0027499555
0.26888022 -0.035897274 0.1347372 -0.10085751 0.14730884 0.43286967 0.015889585 -0.036183428
0.032466263 -0.03150022 0.18573298 0.29475585 -0.0077300803 0.052797478 -0.52922547 -0.09044737
0.42005083 0.08480962 0.16693957 0.17340778 0.29960623 -0.38503146 -0.16363066 0.021051154

model.w_q.4.weight f4 [25, 25]
00000000: d533 44bf 6201 333e 0788 16bf b164 66bd
00000010: a097 9ebd fb5e f93d c1ad d5be 1157 563f
00000020: 07ae f3be eee4 ed3d fc19 9a3e 3d11 563d
00000030: 800b b83e a70e b7be 1bb3 063f 3a36 76be
00000040: fc4c 023e 6024 993e a504 2dbc 3cfb 01bf
00000050: 811b d63d 0cf9 bf3e d9e7 d73c b287 84bc
00000060: 9ae1 6b3d 1c52 d8bd 60c3 a8be 8857 933e
00000070: 1164 313b e1d3 153e 0923 533d 9677 e83e
00000080: 34af 3bbd 80f1 293d 59e4 0bbe ea15 943e
00000090: 1904 ea3e da26 b5be eb78 c63d bbbf 4bbe
000000a0: 0526 343e e442 863d b78e fc3d d994 8dbe
000000b0: 4565 423e 8f21 46be b20d 42be 6759 bbbe
000000c0: 36f2 0bbe c46f b7bd d457 f9bc 6d6b bfbe
000000d0: 6f69 283d 425e ed3e adcd 68bd 471f 993e
000000e0: 4e0e 2dbe dfaf d53c 621b 80be aebf 4abe
000000f0: ac39 4cbd b246 dc3e fd96 ea3d a200 25be
00000100: 6746 813e 05ec 30be 3699 94bc 3cd6 b43e
00000110: 9618 c1be 8b4b 4ebb c534 53be 9adc 53be
00000120: 474c be3c 3698 d7be 3fae 47be 3078 93be
00000130: c5ba 39bd ffb5 203e 3bd3 883e ecc2 523e
00000140: 0daa b3be 6440 da3d 2e0f f4be b58e d73e
00000150: 4a50 2a3e 0ded b63d 1f8e fa3d a83c 0c3e
00000160: 3a7a 91be 5962 0a3f 17c8 b53e eae0 0e3d
00000170: c467 c6be 516c 5c3d 64ba d73e 18d6 8ebd
00000180: c2d5 8dbe db4c 83be d950 cb3d ab16 d2bd
00000190: 2ab2 3abe fb47 d3be c3f0 1dbd 6b79 1e3e
000001a0: bd72 0d3f e30a dd3e 5ea1 f9be 908a 6b3b
000001b0: 4a7d bfbd cbac 8dbe 2c43 54bd f1fb d5bd
000001c0: 722c 153f 68bb abbd e1cf 723f 5e32 dbbd
000001d0: faca debe 8563 dfbd 60d5 ebbd 4b39 c93d
000001e0: b83b 28bd 10f0 0abd 6a25 353e 56ab 293f
000001f0: 0e06 763e 4e4a 1d3f ac5a 2bbd 4478 59be
00000200: 83fd 09bf 07ae ebbc 98c5 a03e 30fd 80bf
00000210: dc25 80be 6a2d 01bf bb33 dd3e 744f c6be
00000220: f058 743e bc7c 343f 344e 073f 6bfa cd3e
00000230: 94c4 8abe 4215 9b3a 4000 28be ce19 153e
00000240: a263 a73b f9e3 5a3f 5e12 eb3e f9bc 813e
00000250: c696 9b3d bd50 cebe 58b3 cabe 098e 76be
00000260: 4c36 0fbf 8f07 5fbf ab56 1bbb 52df ad3e
00000270: 1af5 1ebf 549b 823d 9744 18bf 0978 38be
00000280: 427e b1be 5ca4 f33d 1de6 a53e cdfb 993d
00000290: ce71 1c3f e848 a8bd c534 6b3e 9401 5bbd
000002a0: c71e 35bd aa10 56be 46ca 843e 34b8 ff3e
000002b0: a706 383f 5c52 b23e 5f28 c13e 7b8d 93be
000002c0: b01f 76be ad68 ab3d ae71 2e3f a7bc 103d
000002d0: 8b8f 3cbe 4602 d73e b4a1 42be bc88 0d3f
000002e0: c2bf 7dbe 77a7 83be 690e 4c3d 8b5d 88be
000002f0: 8515 a0bd dfc5 7cba 8f7a babe 91fe a1bc
00000300: 0109 5abd 3734 72be 6ec9 783d 5905 c9be
00000310: 945f 2a3e 4afa 38be 8766 2bbe a43a 75bc
00000320: a5e7 b33d 088c 36bd 4649 983e fd37 2cbe
00000330: 613e ccbc d245 efbd b84f f43e 9e9f 97be
00000340: 38ef 2a3d cfec 1dbd 581f 8c3e a47d 64bd
00000350: 4adf 29bf 7263 edbd 57ca a9be ca70 713e
00000360: 7c5a 043f 551d 503e c081 8c3d d928 f4be
00000370: 7ef9 613d b9fc 2dbe 4e86 0bbf 7154 41be
00000380: 4c1b 06bc 4645 0abf 334c 8f3e 83a4 cb3e
00000390: 0f69 5c3f a17b 15be 38d9 22bf 0406 403f
000003a0: 3377 09bf d763 fe3e 4c12 3cbe 643c 843e
000003b0: 9608 83be 6cf3 1fbf 55dd 70be d75d e8be
000003c0: fd16 9b3c 787d 69be 1e62 213d e40b 27be
000003d0: 5ac3 a03e 258f 5dbf ff05 59bf 0d9d a9be
000003e0: 1951 3bbf e305 d03e 21b8 ca3b 7f4a 7c3d
000003f0: 885c 85bc c90c 00bf 9818 77be c38e a6bd
-0.7664159 0.17480996 -0.5880131 -0.05624837 -0.07743764 0.12176319 -0.41734126 0.837266
-0.4759371 0.116159305 0.3009795 0.052262533 0.35946274 -0.35753366 0.52617043 -0.24044123
0.1272468 0.29910564 -0.010560189 -0.5077398 0.10454465 0.37494695 0.02635567 -0.016177986
0.057588197 -0.10562536 -0.3296156 0.2877772 0.00270677 0.14631607 0.051547084 0.45403737
-0.045821384 0.041490078 -0.13661326 0.2892297 0.4570625 -0.35381204 0.09691032 -0.19897358
0.17592628 0.06555727 0.12331908 -0.27652624 0.18983944 -0.19348739 -0.18950537 -0.36591646
-0.13666615 -0.089568645 -0.030437388 -0.37386647 0.041116174 0.46360976 -0.056836773 0.29906675
-0.16899988 0.026084838 -0.2502089 -0.19799682 -0.049859688 0.43022686 0.1145458 -0.16113523
0.25249025 -0.17277534 -0.018139463 0.35319698 -0.3771407 -0.0031478133 -0.20625599 -0.20689622
0.023229731 -0.42108315 -0.19500063 -0.28802633 -0.045344133 0.15694426 0.26723656 0.2058217
-0.35090676 0.10656813 -0.4766783 0.42101064 0.1663219 0.089319326 0.12234139 0.13695014
-0.28413564 0.54056317 0.3550422 0.034882464 -0.38751042 0.053814236 0.42134392 -0.06974429
-0.27702147 -0.25644574 0.0992753 -0.1025823 -0.18232027 -0.41265854 -0.038559686 0.15476005
0.552532 0.43172368 -0.48755926 0.0035940744 -0.09350069 -0.27670893 -0.051821873 -0.10448445
0.58270943 -0.08385354 0.9484845 -0.10702966 -0.43514234 -0.10907654 -0.115153074 0.09825381
-0.041072577 -0.033920348 0.17690054 0.6627706 0.24025747 0.61441505 -0.04183452 -0.21237284
-0.53902453 -0.028769506 0.31400752 -1.0077267 -0.25028884 -0.5045992 0.4320353 -0.38732493
0.23862052 0.7050283 0.52853703 0.40230116 -0.27103102 0.0011831897 -0.16406345 0.14560625
0.0051083127 0.8550411 0.4591245 0.25339487 0.07597117 -0.40295973 -0.39589953 -0.2407762
-0.55942225 -0.8712091 -0.0023702781 0.33959442 -0.62092745 0.06377283 -0.5947966 -0.1801454
-0.3466664 0.118965834 0.32402125 0.0751873 0.6111115 -0.08217031 0.22969349 -0.053468302
-0.044218805 -0.20904794 0.25935572 0.49945223 0.7188515 0.3482846 0.37726113 -0.2881888
-0.24035525 0.08369575 0.6814221 0.035336163 -0.18414132 0.41993922 -0.19006997 0.55286765
-0.24780181 -0.25713703 0.04981843 -0.26633868 -0.078166045 -0.0009642522 -0.3642163 -0.019774707
-0.053231243 -0.23652731 0.060738973 -0.39261892 0.16638023 -0.18064228 -0.1673833 -0.014967594
0.08784417 -0.044567138 0.29743403 -0.16818233 -0.024932088 -0.11683239 0.4771707 -0.29613966
0.041732043 -0.038555916 0.27367663 -0.055783883 -0.6635634 -0.11591233 -0.33162186 0.23578182
0.5170057 0.2032369 0.06860685 -0.47687414 0.055169575 -0.16990937 -0.5450181 -0.18879868
-0.008185219 -0.5401195 0.27987823 0.3977395 0.86097807 -0.14597942 -0.636127 0.7500918
-0.5369751 0.49685547 -0.18366355 0.25827324 -0.25592488 -0.6248081 -0.23521931 -0.45384094
0.01893186 -0.22801769 0.039400212 -0.1631313 0.3139904 -0.86546546 -0.84774774 -0.33127633
-0.7317062 0.4062949 0.0061865007 0.061594483 -0.016279474 -0.5001951 -0.24130476 -0.081326984

model.w_q.5.weight f4 [25, 25]
00000000: b4e8 91be b4f5 293f d6c2 263e e8a2 a13d
00000010: 654e e5bd 840c c7be 32b9 063f 3569 98be
00000020: 2a68 9a3e aa3d 3e3f e1e6 173f 9f76 a13e
00000030: 20e3 25bd 664f 1e3e 52c2 79bd d1c5 603e
00000040: f3fa dd3e 9e96 efbd 4f29 953e 2a5c b0be
00000050: 1268 30be 6a27 1e3f 771a 873e 4169 3e3e
00000060: d0e4 953e 753f 34bd 1510 ee3d cf34 c63e
00000070: 090a 7abd ec23 773e 0f75 c43d 2762 da3e
00000080: 8e4b 2ebe ed6a 873d 8872 95be ffd5 913d
00000090: 1fcf f23e b060 b4be c69e 023f 03a1 f73e
000000a0: d2bf 5f3e ab78 44be 01e2 313e 41de 14bc
000000b0: 544c 64bc 3ba9 273e cef6 943e 444b 893d
000000c0: ebf9 b3bd db3f 06bf 8427 0cbf bfb8 ff3e
000000d0: 975b 9a3e 2e33 383f 997d 6d3e 3a40 c23e
000000e0: 832a e43c d81a 873e e226 6b3e e5a6 f33e
000000f0: 2f3a 963c 02ba 893e fae3 fabc bf3f cfbd
00000100: f03a e23e 419d 1c3e caac cebd 591b 853e
00000110: 53b4 9fbe f80d 03bd 869c fe3d a085 22be
00000120: 4637 b6be 3e07 16be efc7 473e 3286 6bbd
00000130: 3343 1bbc 8f24 3e3f b919 bb3d cbe2 94be
00000140: c690 eebc a65b 873e 773f 99be 5080 083f
00000150: 784e 9a3d c3ae c3bb ee8d a93e fed1 163e
00000160: 8414 78bc d5a8 68bd 67c7 41bc b85f 163e
00000170: e17a b1bd 450c 9d3e 0a82 a73e 9798 83bd
00000180: 768d 14be 24dd 0abe 8ad2 6abe 533d b43e
00000190: 421c 82bc b848 42be 5816 113e f079 6d3e
000001a0: 1f3d b4bd 0a68 17be fd91 17bd 7551 0abe
000001b0: 320b 04bf 46e4 123e d534 27be ba31 c8bd
000001c0: 7dfe 073f 2b78 63be 2ba1 4c3e e4c4 a1be
000001d0: 266c 11be e942 02bf 42bc f33e 43e6 203e
000001e0: c447 a33e 1110 0f3f 559d 0cbe cc08 823e
000001f0: 1649 853f fc1d 7c3e b5f3 97be 3858 27bf
00000200: c63d 6a3c 7e4f a43d a4a3 edbd 612b 87be
00000210: d178 0abe f829 39bf 974f 3e3e ff28 443d
00000220: 7f28 81be f73e 1a3f 34d4 983c 2bcd 9c3d
00000230: 42eb f93e ce65 c9bd 6a73 1dbf 9f89 983e
00000240: 8961 e83d 280a 293f d200 a83d 1eac 873e
00000250: 4d09 f33d 5c38 15be a551 e2be cf70 d6bd
00000260: f125 6bbe 3ba7 79be 9cf6 88be 10e9 b7bd
00000270: f0a2 29be 0aa7 a1be b526 b7be b5f6 f8bd
00000280: 3a4c 9c3e ae36 4c3e a953 263f 3a72 c93c
00000290: d7fd 323e d517 6c3d 809d c43d f970 e2be
000002a0: 5885 733e 8eb6 833d d9e4 393e 4619 fd3e
000002b0: 050e 203e f132 20bc 6f27 853e a57e bebe
000002c0: 613b 823e b5f1 18be 80f2 0cbe 4f33 a73d
000002d0: 714c 613e e873 063f c44f babe 3003 a13e
000002e0: e4f6 c5be 8187 4bbf 7a1d 7e3c 040b b93d
000002f0: b56e 9abd 2a50 19bf e078 6bbe 4781 45bf
00000300: b034 803e 40fd dc3e d324 433d 080a de3e
00000310: 9542 a6be a8a0 a3be 862c d0bb 4282 5dbe
00000320: c01b 84be 8d5d b03e 5268 cbbd 41f0 25be
00000330: 188a 19be 3e02 31bf 387b 87bd a553 e2bd
00000340: 1900 7bbb 9d03 9dbd 0e61 073f 1bdd 0a3f
00000350: b52d 31bf 6894 483d 20ce 76be 208d 923d
00000360: 6131 1f3d b318 a03e 09e0 483e 141f 613e
00000370: 4b26 b6be b8c7 9bbe 65d0 e3be 4da6 d6be
00000380: dc74 f13e 9cc1 933e 7890 b23e 8bcc 963d
00000390: c152 98be d253 8cbe 6b09 763e 735a 083f
000003a0: 0a74 3cbe cb9c 283f 5611 493e 714d cf3c
000003b0: c24a 64be f00c 52bf 67ea 203e d30d c5bd
000003c0: 29be cc3e 09c8 783e 4648 4d3f a201 533d
000003d0: 7737 d7be 7f86 dcbe e842 67bf 9c7b a2be
000003e0: 320b 17bf 61e8 6f3e 3729 14be 2f2c 13bf
000003f0: a722 9cbe 28de bdbe c794 72bd a65d 1d3e
-0.2849785 0.6639054 0.16285262 0.078924 -0.11196593 -0.38876736 0.52626336 -0.29767767
0.30157596 0.7431284 0.5933667 0.31535813 -0.040499806 0.15459976 -0.060976334 0.21950461
0.43355522 -0.1169865 0.29133078 -0.34445316 -0.172272 0.6177889 0.2638738 0.18594839
0.29276133 -0.04400583 0.11624161 0.38712165 -0.061044727 0.24134797 0.0959264 0.4265301
-0.1702101 0.06612191 -0.29188943 0.07120895 0.47423646 -0.35230017 0.5102352 0.4836503
0.21850517 -0.19186656 0.1737137 -0.009086193 -0.013934214 0.1637315 0.29094547 0.06703809
-0.087879024 -0.52441186 -0.54747796 0.49945638 0.30148003 0.71953094 0.23192443 0.37939626
0.027852302 0.26387668 0.22964051 0.47588268 0.018338291 0.26899725 -0.030626286 -0.101195805
0.4418559 0.15294363 -0.10091551 0.25997427 -0.31192264 -0.031995744 0.12432198 -0.15871286
-0.35589045 -0.146512 0.19509862 -0.057501025 -0.009476471 0.74274534 0.091357656 -0.2907928
-0.029121768 0.2643711 -0.29931232 0.5332079 0.07534498 -0.005971761 0.33116096 0.14728543
-0.01514161 -0.056801636 -0.011827326 0.14684951 -0.086660154 0.30673423 0.327164 -0.064255886
-0.14507088 -0.13560921 -0.22931877 0.35203037 -0.015882615 -0.18973053 0.1416868 0.23191047
-0.088007204 -0.14785782 -0.03700446 -0.13507636 -0.5157958 0.14344892 -0.16328748 -0.097751096
0.53122693 -0.22213809 0.19983356 -0.31595528 -0.14201412 -0.50883347 0.47604567 0.15712838
0.3189069 0.5588389 -0.13731892 0.25397336 1.0412929 0.24620813 -0.2967812 -0.65368986
0.0142969545 0.080229744 -0.116034776 -0.26400283 -0.1352265 -0.72329664 0.18585049 0.04789066
-0.2522621 0.60252327 0.018655874 0.0765632 0.488123 -0.09833871 -0.6150423 0.29792497
0.11346728 0.6603112 0.082032815 0.26498502 0.11867008 -0.1457228 -0.44202915 -0.10470735
-0.22963692 -0.243802 -0.26750648 -0.0898 -0.16566062 -0.31572753 -0.3577172 -0.12156431
0.30526906 0.19942734 0.64971405 0.0245906 0.17479645 0.057639915 0.09600353 -0.44226816
0.23781335 0.06431304 0.18153705 0.49433345 0.15630348 -0.00977777 0.26006648 -0.37205997
0.25435928 -0.14935954 -0.13764381 0.08164083 0.22001816 0.5252061 -0.3638898 0.31447744
-0.38664925 -0.7950364 0.015509957 0.09035304 -0.07540647 -0.59887946 -0.22995329 -0.77150387
0.25040197 0.43161964 0.04764254 0.43367028 -0.32472673 -0.31958508 -0.006352964 -0.2163172
-0.25802422 0.34446374 -0.09932007 -0.16204931 -0.14994085 -0.69144046 -0.06615299 -0.1105111
-0.0038299619 -0.07666705 0.5288247 0.5424363 -0.6921037 0.048969656 -0.24102068 0.07155824
0.03886545 0.31268844 0.19616713 0.21984512 -0.3557609 -0.3042581 -0.4449493 -0.41923752
0.4715947 0.2885865 0.34875846 0.07363232 -0.29750636 -0.274077 0.2402703 0.53263015
-0.1840364 0.6586425 0.1963552 0.025305482 -0.22294143 -0.8205099 0.15714417 -0.096217774
0.3998883 0.24295057 0.80188406 0.05151523 -0.42034504 -0.43071362 -0.90336466 -0.3173493
-0.5900146 0.2342849 -0.14468847 -0.57489294 -0.30495188 -0.37083554 -0.059223916 0.15367755
