ml-1m_default/SASRec.epoch=60.lr=0.001.layer=2.head=1.hidden=50.maxlen=200.pth (torch, 776502 bytes, 22 tensors)

item_emb.weight f4 [3417, 50]
0	0x00000000	0.0
1	0x00000000	0.0
2	0x00000000	0.0
3	0x00000000	0.0
4	0x00000000	0.0
5	0x00000000	0.0
6	0x00000000	0.0
7	0x00000000	0.0
8	0x00000000	0.0
9	0x00000000	0.0
10	0x00000000	0.0
11	0x00000000	0.0
12	0x00000000	0.0
13	0x00000000	0.0
14	0x00000000	0.0
15	0x00000000	0.0
16	0x00000000	0.0
17	0x00000000	0.0
18	0x00000000	0.0
19	0x00000000	0.0
20	0x00000000	0.0
21	0x00000000	0.0
22	0x00000000	0.0
23	0x00000000	0.0
24	0x00000000	0.0
25	0x00000000	0.0
26	0x00000000	0.0
27	0x00000000	0.0
28	0x00000000	0.0
29	0x00000000	0.0
30	0x00000000	0.0
31	0x00000000	0.0
32	0x00000000	0.0
33	0x00000000	0.0
34	0x00000000	0.0
35	0x00000000	0.0
36	0x00000000	0.0
37	0x00000000	0.0
38	0x00000000	0.0
39	0x00000000	0.0
40	0x00000000	0.0
41	0x00000000	0.0
42	0x00000000	0.0
43	0x00000000	0.0
44	0x00000000	0.0
45	0x00000000	0.0
46	0x00000000	0.0
47	0x00000000	0.0
48	0x00000000	0.0
49	0x00000000	0.0
50	0x3e2377f2	0.15963724
51	0x3e5d0c81	0.21586801
52	0xbdb8809e	-0.09008907
53	0x3d2ed4eb	0.042683523
54	0xbe06e22c	-0.13172215
55	0x3e03c697	0.12868725
56	0x3dfd4eb5	0.12368528
57	0xbdd62be4	-0.1045759
58	0x3d976881	0.073929794
59	0xbe11e3b4	-0.14247018
60	0x3e00352e	0.12520286
61	0xbd91cf76	-0.07119648
62	0x3e1bd2c2	0.15217116
63	0x3c082bc6	0.008311218
64	0xbdb4bfe5	-0.088256635
65	0xbe519b50	-0.20469403
66	0xbe181ca6	-0.14854679
67	0x3cd915cd	0.026499653
68	0xbd5838f0	-0.052788675
69	0x3da489ea	0.080341175
70	0x3d1a4264	0.03766097
71	0xbcd932b9	-0.026513444
72	0xbb78e853	-0.0037980273
73	0x3e2d68ea	0.16934553
74	0xbdbd57b0	-0.09245241
75	0xbdbc6f13	-0.09200873
76	0xbda4a428	-0.08039123
77	0xbcc24b5b	-0.023717573
78	0x3e5830b5	0.2111233
79	0xbdc9ea1f	-0.09859108
80	0xbdf46651	-0.11933578
81	0xbd3300cb	-0.043701928
82	0x3ae1f07a	0.0017237805
83	0xbd5d9210	-0.054094374
84	0xbd6a2df0	-0.057172716
85	0xbc6ef726	-0.014585292
86	0xbd1adab8	-0.037806243
87	0x3e1d24ef	0.1534612
88	0xbe8221f0	-0.25416517
89	0xbd521591	-0.0512901
90	0x3e252663	0.16127925
91	0xbdb943c5	-0.09046129
92	0xbd93f092	-0.072236195
93	0xbd899fd6	-0.067199394
94	0x3e4ee7f6	0.20205674
95	0x3d3b2ace	0.04569512
96	0xbd15b421	-0.036548737
97	0xbe871f49	-0.26391056
98	0xbd467358	-0.048449844
99	0x3db84c4b	0.08998927
100	0x3da8c667	0.08240967
101	0x3d359799	0.044334028
102	0xbd11e196	-0.035615526
103	0xbe05bbdb	-0.13059942
104	0x39b20ab6	0.00033958786
105	0xbcb19487	-0.021677269
106	0x3d24476c	0.040107176
107	0xbc7f513f	-0.015583335
108	0x3e039797	0.12850796
109	0xbdf5c2b8	-0.1200003
110	0xbd95e01a	-0.073181346
111	0x3d267f79	0.04064891
112	0x3ce9e1a9	0.028549986
113	0xbdedf089	-0.11618144
114	0xbb881aa0	-0.0041535646
115	0xbe0d8fbe	-0.13824365
116	0x3c2fbaca	0.010725686
117	0xbd245f4a	-0.040129937
118	0xbe1ba3f3	-0.1519926
119	0xbd834f7e	-0.06411646
120	0x3e69687a	0.22793761
121	0xbd183b7e	-0.03716611
122	0xbc7b4d5b	-0.015338267
123	0xbbca14c0	-0.0061670244
124	0xbc43cafb	-0.01195025
125	0xbe2621ca	-0.16223827
126	0x3ce3972b	0.027782043
127	0xbd9f6599	-0.0778305
128	0xbd9fbe29	-0.07799942
129	0x3c29b2e1	0.010357589
130	0xbe25d087	-0.16192828
131	0xbdc9b244	-0.098484546
132	0xbd0d7bf0	-0.034542024
133	0xbc581e8e	-0.013190879
134	0x3d099ae3	0.033594977
135	0xbdf16ac9	-0.11787946
136	0x3d70c090	0.058777392
137	0xbd88d3a9	-0.06680996
138	0x3c956c73	0.01824019
139	0x3e7e4aab	0.24833171
140	0xbba64747	-0.005074415
141	0xbcd746e1	-0.026278915
142	0xbc93bf9a	-0.018035699
143	0xbd9db477	-0.077004366
144	0x3d1830a9	0.03715578
145	0xbe210194	-0.15723258
146	0xbe15e6c2	-0.14638808
147	0xbcae411d	-0.021271283
148	0x3d1c4054	0.038147286
149	0x3ddcd11a	0.107820705
150	0x3e12f399	0.14350738
151	0xbdb5f9f4	-0.088855654
152	0xbd15843f	-0.036503073
153	0x3dd3531d	0.10318587
154	0xbdfdef05	-0.12399105
155	0x3cfdcf24	0.030982561
156	0x3d6cd7df	0.05782306
157	0xbd565d23	-0.052334916
158	0x3d73289c	0.0593649
159	0xbe149bdb	-0.14512579
160	0x3c74524c	0.014912199
161	0x3d2850e0	0.041092753
162	0x3dfc2f3a	0.12313695
163	0xbd0aa6a0	-0.033850312
164	0x3ddbbb6e	0.10729109
165	0xbc75b5c3	-0.014996949
166	0x3cb35e7c	0.02189564
167	0x3ca6d58a	0.020365495
168	0x3d5da058	0.054107994
169	0xbe6cf885	-0.23141678
170	0x3e185caf	0.14879106
171	0xbdd14257	-0.102177314
172	0x3d8e8241	0.06958438
173	0x3e846ee7	0.25865862
174	0xbb5b1b8e	-0.0033433172
175	0xbcd1a33a	-0.025590528
176	0xbdfa9d80	-0.12237072
177	0xbd23a9f6	-0.03995701
178	0x3d81e7ea	0.06343062
179	0xbe54d8e0	-0.20785856
180	0xbd4db56e	-0.050221853
181	0xbd94b8b9	-0.072617956
182	0x3cee49ec	0.029087983
183	0x3d086af5	0.033305127
184	0xbd8ae853	-0.067825936
185	0xbd897fa8	-0.067138016
186	0x3c2924b7	0.010323695
187	0x3c9a2dfe	0.018820759
188	0xbe5ee165	-0.21765669
189	0x3d2e0b38	0.042491168
190	0x3d8f41e0	0.069949865
191	0x3dec2fe9	0.11532576
192	0x3d4641d6	0.04840263
193	0xbdf31c94	-0.11870685
194	0x3e0877f0	0.13327003
195	0x3c2b02eb	0.010437707
196	0xbcfd95a5	-0.030955145
197	0xbe898540	-0.26859474
198	0xbdd45be7	-0.103690915
199	0x3dc4298a	0.095782354
200	0x3e202823	0.15640311
201	0x3dcbf001	0.099578865
202	0xbd11b38c	-0.03557162
203	0xbc4031ed	-0.011730653
204	0xbc0bece2	-0.008540364
205	0x3df77891	0.12083543
206	0x3ddde1d7	0.10834091
207	0xbdc694dd	-0.09696362
208	0x3e3d110b	0.18463533
209	0xbdd2cfad	-0.10293517
210	0x3d8efdbc	0.0698199
211	0xbdbceac0	-0.092244625
212	0x3d0b32d6	0.033984028
213	0xbd9bc49f	-0.07605862
214	0xbd84acf3	-0.064783
215	0xbdfd16b5	-0.12357847
216	0xbde962d8	-0.11395806
217	0x3d0fc17a	0.035096623
218	0xbc6bf028	-0.014400519
219	0xbd818b57	-0.06325405
220	0x3dacb2e1	0.08432556
221	0xbdfbdd04	-0.12298015
222	0xbdce6e86	-0.100796744
223	0x3deae778	0.114699304
224	0xbd7808f3	-0.06055541
225	0xbccd7e7d	-0.025084728
226	0xbd72e907	-0.059304263
227	0x3dae86ae	0.08521782
228	0x3defd103	0.11709788
229	0xbdcbc627	-0.09949904
230	0xbe153661	-0.14571525
231	0xbcf0664f	-0.02934566
232	0x3dc230c9	0.09481961
233	0x3cbe6083	0.02323938
234	0xbd43c817	-0.047798242
235	0xbd6dacd6	-0.058026157
236	0x3d9f98f1	0.07792843
237	0x3def0228	0.11670333
238	0xbde5391e	-0.11192535
239	0x3c2df488	0.010617383
240	0x3b5fdbec	0.0034158183
241	0xbdd5f7c5	-0.10447649
242	0x3c0e47a4	0.008684073
243	0xbe3fd8d5	-0.18735059
244	0x3e438016	0.1909183
245	0x3cd40ba1	0.025884451
246	0xbe033a70	-0.12815261
247	0xbe70a86e	-0.23501751
248	0xbc8adf3b	-0.016952148
249	0x3e608ab8	0.21927917
250	0x3daa7856	0.083237335
251	0x3dafd755	0.08585993
252	0x3e178ea9	0.14800514
253	0xbb726a99	-0.0036989807
254	0xbbcf6040	-0.0063286126
255	0xbbf7867a	-0.0075538727

pos_emb.weight f4 [201, 50]
0	0x00000000	0.0
1	0x00000000	0.0
2	0x00000000	0.0
3	0x00000000	0.0
4	0x00000000	0.0
5	0x00000000	0.0
6	0x00000000	0.0
7	0x00000000	0.0
8	0x00000000	0.0
9	0x00000000	0.0
10	0x00000000	0.0
11	0x00000000	0.0
12	0x00000000	0.0
13	0x00000000	0.0
14	0x00000000	0.0
15	0x00000000	0.0
16	0x00000000	0.0
17	0x00000000	0.0
18	0x00000000	0.0
19	0x00000000	0.0
20	0x00000000	0.0
21	0x00000000	0.0
22	0x00000000	0.0
23	0x00000000	0.0
24	0x00000000	0.0
25	0x00000000	0.0
26	0x00000000	0.0
27	0x00000000	0.0
28	0x00000000	0.0
29	0x00000000	0.0
30	0x00000000	0.0
31	0x00000000	0.0
32	0x00000000	0.0
33	0x00000000	0.0
34	0x00000000	0.0
35	0x00000000	0.0
36	0x00000000	0.0
37	0x00000000	0.0
38	0x00000000	0.0
39	0x00000000	0.0
40	0x00000000	0.0
41	0x00000000	0.0
42	0x00000000	0.0
43	0x00000000	0.0
44	0x00000000	0.0
45	0x00000000	0.0
46	0x00000000	0.0
47	0x00000000	0.0
48	0x00000000	0.0
49	0x00000000	0.0
50	0x3d4d91f2	0.050188012
51	0x3ceffd70	0.029295653
52	0xbd8ca66a	-0.068676785
53	0x3e42e7e8	0.19033778
54	0xbd02ee39	-0.031965468
55	0x3e4cd0d8	0.20001543
56	0x3e40f708	0.18844235
57	0xbe1c94ef	-0.15291189
58	0x3e345050	0.17608762
59	0x3d368809	0.044563327
60	0x3ddd7c86	0.108147666
61	0x3e81ca4d	0.25349656
62	0x3cfb4118	0.030670688
63	0xbccb00a6	-0.024780583
64	0xbc212563	-0.009835574
65	0x3d65e440	0.05612588
66	0x3ddade58	0.1068694
67	0xbc918374	-0.017762877
68	0x3b610881	0.0034337344
69	0xbd18f4df	-0.037342902
70	0x3b639453	0.003472586
71	0x3d6136b7	0.05498382
72	0xbde8fda7	-0.11376505
73	0x3e06c9bc	0.13162893
74	0xbe9479ea	-0.28999263
75	0x3cae4c93	0.021276748
76	0x3d2a2cfd	0.04154681
77	0x3cc908a7	0.024540259
78	0x3ddb851c	0.10718748
79	0x3bd8948f	0.0066095064
80	0x3cef0103	0.029175287
81	0x3dfacd1e	0.12246154
82	0x3dcb2695	0.09919468
83	0xbd9ce8e0	-0.07661605
84	0x3e467889	0.19381918
85	0x3cb3f901	0.02196932
86	0x3e90eb93	0.2830473
87	0xbdee1051	-0.11624206
88	0xbe02aac6	-0.12760457
89	0x3e2451d4	0.1604684
90	0xbcda9867	-0.026684
91	0xbdd671e6	-0.10470943
92	0x3e23df8f	0.1600325
93	0x3c3153b4	0.010823179
94	0xbbb54237	-0.005531575
95	0x3d4ac31c	0.049502477
96	0x3da48a26	0.08034162
97	0xbda79662	-0.0818298
98	0xbe0ce900	-0.13760757
99	0x3da3b779	0.07993979
100	0x3c86ddf9	0.016463267
101	0xbd2742bd	-0.04083513
102	0x3da3c1ad	0.07995925
103	0xbd5a6e49	-0.053327832
104	0xbce5f981	-0.028073074
105	0x3d979589	0.074015684
106	0x3d999f69	0.07501108
107	0xbd2a17a3	-0.041526448
108	0x3ddcb901	0.10777474
109	0x3e56c3c4	0.20973116
110	0x3d72123c	0.05909942
111	0x3e03844a	0.12843433
112	0xbd906283	-0.070500396
113	0xbdfc425c	-0.123173445
114	0x3ddc3f05	0.107542075
115	0xbc342671	-0.010995493
116	0x3dc7ae92	0.097500935
117	0xbc5f7f17	-0.01364114
118	0x3da4d001	0.08047486
119	0xbe0525d6	-0.13002715
120	0x3dbdef23	0.09274127
121	0xbdd57915	-0.10423485
122	0x3ccde7f6	0.025135022
123	0xbd982952	-0.07429756
124	0xbc3bd1b2	-0.0114635695
125	0x3b871157	0.00412194
126	0xbd66de39	-0.05636427
127	0x3dc17767	0.09446602
128	0x3d35174a	0.044211663
129	0x3cb7cff9	0.022438036
130	0x3dc02c45	0.09383444
131	0x3e26510f	0.16241859
132	0x3c78c256	0.015183052
133	0xbd98919b	-0.07449647
134	0xbda5dc06	-0.08098607
135	0xbca8dfed	-0.020614589
136	0x3e30f987	0.17282687
137	0xbdec21a0	-0.11529851
138	0xbe12d869	-0.14340366
139	0x3ca5c1fb	0.020234099
140	0xbdb8c32a	-0.090215996
141	0xbb497460	-0.003073953
142	0x3e37fb52	0.17966965
143	0x3c7bd6c1	0.015371026
144	0xbd3d84d7	-0.046269264
145	0x3d8dac5f	0.06917643
146	0x3d8dc20a	0.06921776
147	0xbdcf5bff	-0.10124969
148	0xbe87f18a	-0.26551467
149	0x3d833c93	0.06408038
150	0xbdcb281a	-0.09919758
151	0x3bc3685d	0.005963369
152	0x3d2c7e71	0.04211277
153	0x3dc5be69	0.096554585
154	0xbd1f5b7f	-0.038905617
155	0x3d933708	0.07188231
156	0xbcc2dabb	-0.02378594
157	0xbe121f34	-0.14269716
158	0x3e2e6e8f	0.17034362
159	0x3e08075f	0.13284062
160	0x3c7691e3	0.015049431
161	0xbd18812f	-0.037232574
162	0x3e2de452	0.16981629
163	0x3d1d37cc	0.03838329
164	0xbe554558	-0.20827234
165	0xbdd45d59	-0.10369367
166	0x3dd06e6e	0.10177313
167	0xbdbbb134	-0.09164658
168	0x3d32750a	0.04356865
169	0xbd36a4c9	-0.044590745
170	0x3d3e1351	0.04640514
171	0xbdb32e83	-0.08749106
172	0x3d977a65	0.07396392
173	0x3c9d495d	0.019200021
174	0xbcd20f18	-0.025641963
175	0xbdd8a54d	-0.105784036
176	0x3d96dcab	0.07366308
177	0x3d608195	0.05481108
178	0x3dada424	0.08478573
179	0x3da201ac	0.07910475
180	0x3e3a975f	0.18221806
181	0xbc36f9f0	-0.011167988
182	0x3d94ac45	0.0725942
183	0x3d50942f	0.05092257
184	0x3d819293	0.06326785
185	0xbdb73e62	-0.089474455
186	0x3db669af	0.08906876
187	0xbe12706d	-0.143007
188	0xbe43405a	-0.19067517
189	0x3e2bc932	0.16775969
190	0x3d8522e9	0.06500799
191	0xbdffb66f	-0.12485968
192	0x3e0c4849	0.1369945
193	0xbd76a9b9	-0.060220454
194	0xbd93239b	-0.071845256
195	0xbdf74b2f	-0.12074887
196	0x3b78abd3	0.0037944212
197	0xbd041211	-0.032243792
198	0xbcb46b9e	-0.022023972
199	0x3d64d6f4	0.055869058
200	0xbd055342	-0.032550104
201	0xbdd9f48e	-0.10642348
202	0x3bca9880	0.00618273
203	0x3d9518a6	0.07280092
204	0xbda12fc0	-0.07870436
205	0x3cf3d298	0.029763505
206	0x3db266ed	0.08711038
207	0x3da26eef	0.07931315
208	0x3e11494b	0.14188115
209	0x3dec3413	0.1153337
210	0x3d309c64	0.043117896
211	0x3dc23a62	0.09483792
212	0x3de270d6	0.11056678
213	0x3d66551e	0.056233518
214	0xbab61622	-0.0013892094
215	0xbc8322dd	-0.016007835
216	0x3e104adc	0.14091057
217	0xbccee3a8	-0.02525504
218	0x3c8da877	0.017292244
219	0xbd8e259c	-0.06940767
220	0x3cc01fca	0.023452658
221	0x3a2a5b36	0.0006498577
222	0x3d5acc00	0.053417206
223	0x3d9c37d2	0.076278344
224	0xbdd09b8c	-0.10185918
225	0xbd3980a2	-0.04528869
226	0x3da85a9c	0.08220407
227	0x3dc65b46	0.09685378
228	0xbce74ff7	-0.028236372
229	0x3e25fa90	0.16208863
230	0xbc2d12ee	-0.010563595
231	0x3dc1f9d8	0.09471482
232	0x3da16fa6	0.078826234
233	0x3da27318	0.07932109
234	0x3e094a9e	0.1340737
235	0x3bba6a1b	0.0056889183
236	0x3e352e25	0.17693384
237	0xbe230f11	-0.15923716
238	0xbd7b44e3	-0.061344992
239	0x3e0ae403	0.13563542
240	0x3d243a04	0.04009439
241	0x3d0f2c65	0.034954447
242	0x3e3e1dc2	0.18566039
243	0x3c10339a	0.008801365
244	0xbd9644f8	-0.073373735
245	0x3dd6224f	0.104557626
246	0x3dff21de	0.124576315
247	0x3d749a0b	0.05971722
248	0xbd9cec5d	-0.0766227
249	0xbc1205b5	-0.0089124935
250	0xbd237268	-0.03990403
251	0xbd43d6be	-0.047812216
252	0xbdd2ae84	-0.102871925
253	0x3d9f3f6f	0.07775771
254	0xbcae03f0	-0.021242112
255	0x3d967b67	0.07347756

model.Layernorm.weight f4 [25]
0	0x3f8ba999	1.0911132
1	0x3f7e4ca3	0.9933569
2	0x3f853176	1.0405719
3	0x3f7ed1ca	0.9953886
4	0x3f8bf08e	1.0932786
5	0x3f92d38b	1.1470808
6	0x3f840fcb	1.031732
7	0x3f85fd5d	1.0467945
8	0x3f81d9fc	1.0144649
9	0x3f648fc1	0.8928185
10	0x3f63c970	0.88979244
11	0x3f802298	1.0010557
12	0x3f8698e6	1.0515411
13	0x3f81ae41	1.0131303
14	0x3f7e6a09	0.99380547
15	0x3f7efe5b	0.99606866
16	0x3f56be90	0.83884525
17	0x3f87bb7c	1.0604091
18	0x3f815469	1.0103885
19	0x3f828b24	1.0198712
20	0x3f6697b3	0.90075225
21	0x3f76248e	0.9614953
22	0x3f8f7a7e	1.1209257
23	0x3f71e681	0.94492346
24	0x3f7edab3	0.9955246

model.Layernorm.bias f4 [25]
0	0xbdd3ed44	-0.10347989
1	0x3dd283f0	0.10279071
2	0xbd002541	-0.031285528
3	0xbd95406f	-0.0728768
4	0x3db2b36b	0.087256275
5	0x3d1ec1b2	0.03875894
6	0x3df98055	0.121826805
7	0xbd35bc3b	-0.044368964
8	0x3dd20031	0.10253943
9	0xbcb53c7f	-0.022123573
10	0xbd5a208b	-0.05325369
11	0x3e06afb3	0.13152961
12	0xbc0c608c	-0.00856794
13	0xbdc3d5db	-0.09562274
14	0xbb8ea7fe	-0.0043535223
15	0xbd5f3efb	-0.054503422
16	0x3dc249ee	0.09486757
17	0xbd169f28	-0.036772877
18	0x3d94f517	0.0727331
19	0x3ce4df8c	0.027938627
20	0xbc81d904	-0.015850551
21	0xbd0683d3	-0.03284056
22	0xbd964a73	-0.07338419
23	0x3bded269	0.006799985
24	0xbd93cc53	-0.07216706

model.w_q.0.weight f4 [25, 25]
0	0xbe87bf82	-0.26513296
1	0x3d90ca7f	0.07069873
2	0x3d746c78	0.059673756
3	0x3d18f0d8	0.03733906
4	0xbe9f8e7c	-0.31163394
5	0x3dee57e2	0.11637856
6	0xbd4cb9bb	-0.049981814
7	0x3dc6942b	0.096962295
8	0xbcc0ebbd	-0.023549909
9	0x3ebd0f08	0.3692553
10	0xbebfaf2f	-0.37438342
11	0x3b76c7dc	0.0037655747
12	0x3e192c66	0.14958343
13	0xbf2aeeef	-0.66770834
14	0xbd896539	-0.0670876
15	0x3e7a9362	0.24470285
16	0x3d2aa2ce	0.04165917
17	0xbd25f5bb	-0.04051755
18	0xbea2389b	-0.31683812
19	0xbea0df07	-0.31420156
20	0xbc9a8bfd	-0.01886558
21	0xbaf90a4c	-0.0019000261
22	0x3f456193	0.7710201
23	0x3d91e34a	0.0712343
24	0xbe17d603	-0.14827733
25	0xbe9a57e9	-0.30145195
26	0x3eeb4439	0.45950487
27	0x3debcddf	0.11513876
28	0xbe81b7eb	-0.2533563
29	0xbe17a9f8	-0.14810932
30	0x3e2ec986	0.17069063
31	0xbe8169de	-0.25276083
32	0xbe954e9d	-0.2916154
33	0x3d75e2ed	0.060030866
34	0xbed6755f	-0.41886422
35	0xbecd71a5	-0.40125766
36	0x3f14c742	0.58116543
37	0x3eb2c4dc	0.34915817
38	0xbea242f8	-0.31691718
39	0x3e40fa85	0.18845566
40	0x3e1fefd7	0.15618835
41	0x3eb9fbcb	0.36324915
42	0x3dfaaefb	0.12240406
43	0x3e543726	0.20724162
44	0xbd1d5416	-0.03841027
45	0x3da396c5	0.079877414
46	0xbebdac9f	-0.37045762
47	0x3da83943	0.08214047
48	0x3ceb61ff	0.028733252
49	0xbcfeec72	-0.031118605
50	0xbf194840	-0.5987587
51	0xbe001042	-0.12506202
52	0xbea10a06	-0.3145296
53	0xbd47b1a4	-0.048753396
54	0x3f1a2f5d	0.6022852
55	0x3e653a26	0.22385463
56	0x3e16bd4a	0.14720646
57	0xbe0af51b	-0.13570063
58	0x3e04664a	0.12929645
59	0xbed4b49f	-0.41544053
60	0xbe2dabfc	-0.16960138
61	0xbe16d1ea	-0.14728513
62	0x3daaf150	0.08346808
63	0x3d855aac	0.06511435
64	0x3da49e12	0.08037962
65	0x3e601060	0.21881247
66	0x3e7a49d0	0.2444222
67	0xbf0b0f2f	-0.54320043
68	0x3ee2b2ab	0.44276938
69	0x3e9ec457	0.3100917
70	0xbf17b0ca	-0.59254134
71	0x3e06ca08	0.13163006
72	0xbe893feb	-0.26806578
73	0xbe3307b8	-0.17483413
74	0xbeab18f7	-0.33417484
75	0xbc0798cd	-0.008276177
76	0xbe1b0ce0	-0.1514163
77	0xbf174b83	-0.59099597
78	0xbde5f3d2	-0.11228146
79	0x3e8eac24	0.27865708
80	0x3d84789f	0.06468319
81	0xbea07e7e	-0.31346506
82	0xbe690f90	-0.22759843
83	0xbe3a55af	-0.18196748
84	0xbdaf13e8	-0.08548719
85	0xbe34d505	-0.17659386
86	0x3e96a2cc	0.2942108
87	0xbe4acff2	-0.19805887
88	0x3e8ce624	0.27519333
89	0x3e89ae02	0.2689057
90	0xbed5cc9c	-0.41757667
91	0x3ef58e97	0.4796035
92	0x3da2c5e6	0.079479024
93	0x3e182aa4	0.14860016
94	0x3ed22ecc	0.41051328
95	0x3ebefcdb	0.37302288
96	0xbf01dee4	-0.5073073
97	0x3cdfc66e	0.027316298
98	0xbe7866b6	-0.24257931
99	0xbc33d9f7	-0.01097726
100	0x3e3bc87a	0.18338194
101	0x3e71717e	0.2357845
102	0x3e9bb515	0.30411592
103	0xbedc2091	-0.42993596
104	0xbdb4610f	-0.08807575
105	0xbdba443b	-0.09095045
106	0x3e438c3c	0.19096464
107	0x3ed84f14	0.42247832
108	0xbdcfdda9	-0.101497
109	0xbe41b26e	-0.18915722
110	0x3e1f3096	0.15545878
111	0xbeb5dd19	-0.35520247
112	0x3e5a30f4	0.21307737
113	0x3f14fbd8	0.58196783
114	0xbef30f7c	-0.4747275
115	0x3e12c3be	0.14332482
116	0xbe5dae64	-0.21648556
117	0xbdbba12a	-0.09161599
118	0xbf171403	-0.5901491
119	0xbd4f5475	-0.050617654
120	0x3f283c90	0.6571741
121	0x3ef46ccd	0.47739258
122	0xbea0e06b	-0.31421217
123	0x3e1cb8a3	0.15304808
124	0x3f3766f6	0.7164148
125	0x3e9311e2	0.2872458
126	0xbeb82c00	-0.3597107
127	0xbc1d3453	-0.009594995
128	0xbe830dfa	-0.255966
129	0xbc5f281a	-0.013620401
130	0xbe2cd203	-0.16876988
131	0x3eacc39b	0.33742985
132	0x3e4922d1	0.19642188
133	0x3e934e40	0.28770638
134	0x3dc28470	0.09497917
135	0xbea15649	-0.31511143
136	0xbbc92858	-0.0061388426
137	0x3e06ad40	0.13152027
138	0xbf03eef8	-0.5153651
139	0x3cef14da	0.029184747
140	0xbee1eea9	-0.44127396
141	0x3e72fd1f	0.2372937
142	0x3e5459c4	0.20737368
143	0x3ec4bfaf	0.38427493
144	0x3ed84075	0.42236677
145	0xbc934271	-0.017976018
146	0xbe126c39	-0.14299096
147	0xbd2df3bd	-0.042468775
148	0xbc80fb68	-0.01574488
149	0x3da5e39a	0.08100052
150	0x3eb5c07b	0.35498413
151	0xbe1ddfbc	-0.15417379
152	0xbf0158b7	-0.50525993
153	0xbd894f4a	-0.06704576
154	0x3e194e0b	0.14971177
155	0xbd55b7b7	-0.052177157
156	0x3e0e63d2	0.13905266
157	0xbea980ec	-0.33106172
158	0xbd31c042	-0.043396242
159	0x3da6182b	0.081100784
160	0x3db7c963	0.08973958
161	0x3e8fc5a3	0.28080472
162	0x3df2295d	0.11824296
163	0xbdb1b121	-0.08676363
164	0xbdc8d0c6	-0.098054454
165	0xbe3d7025	-0.18499811
166	0xbe36325d	-0.1779265
167	0xbe6193a8	-0.22028983
168	0xbf1dfb4b	-0.6171157
169	0x3d52b8b9	0.051445697
170	0x3e075f17	0.13219868
171	0x3e4a1b2f	0.19736932
172	0x3cd39344	0.025827058
173	0x3bef2326	0.007297891
174	0x3e73f266	0.23822936
175	0x3e5a7580	0.21333885
176	0xbf07cdba	-0.5304829
177	0xbe09a93a	-0.13443461
178	0x3d81a379	0.06330008
179	0xbe13e890	-0.14444184
180	0xbc9b06a5	-0.018924067
181	0xbf0118e3	-0.504286
182	0x3ea90ac8	0.33016038
183	0x3e11ef3e	0.1425142
184	0xbeb37b2b	-0.35054907
185	0x3ce8345f	0.028345285
186	0xbd4e6ae2	-0.0503949
187	0xbdc91816	-0.09819047
188	0xbe5630d5	-0.20917065
189	0xbce82428	-0.028337553
190	0xbdd4d70d	-0.1039258
191	0x3e52c227	0.20581876
192	0x3db3aa0c	0.08772668
193	0xbdeab7b0	-0.11460817
194	0x3dbf7f10	0.09350407
195	0x3e06f058	0.13177621
196	0x3e315541	0.17317678
197	0x3ea5df6d	0.32397023
198	0x3db24f4c	0.08706531
199	0x3ea19860	0.31561565
200	0xbdad7244	-0.0846906
201	0x3cf46e2c	0.02983769
202	0x3d92d16c	0.0716885
203	0x3cd311a4	0.025765248
204	0xbee70383	-0.45119867
205	0xbe00fd39	-0.12596597
206	0xbefeb4a2	-0.49747187
207	0x3d56bd0f	0.052426394
208	0xbefede8f	-0.49779174
209	0xbeab89fc	-0.3350371
210	0x3dbf6798	0.09345931
211	0xbf320ffa	-0.6955563
212	0x3ec0c3c2	0.3764935
213	0x3f02d7e8	0.51110697
214	0x3d6b134c	0.05739145
215	0xbdf27b6a	-0.118399456
216	0xbf03a432	-0.5142242
217	0xbec6f901	-0.3886185
218	0xbe05af65	-0.13055189
219	0xbe07def0	-0.13268638
220	0xbf0ec26b	-0.5576541
221	0x3eeab6c6	0.4584257
222	0x3f19ece5	0.601271
223	0xbe29f889	-0.16598715
224	0x3ee8b477	0.45450184
225	0xbda6c863	-0.081436895
226	0x3e1013be	0.14070031
227	0x3e10b49e	0.141314
228	0x3dcc7c7b	0.0998468
229	0x3cbc143f	0.022958873
230	0x3cb06b37	0.021535499
231	0xbd9c48df	-0.076310866
232	0xbd8b8b50	-0.06813681
233	0x3e7e3b33	0.2482727
234	0xbe2b1f50	-0.16711164
235	0xbc9658bc	-0.018352859
236	0xbe8a3755	-0.2699534
237	0x3ed2c782	0.41167837
238	0x3ecabe20	0.3959818
239	0xbe3b62bb	-0.18299381
240	0x3dcb8e2f	0.09939229
241	0xbf2223e5	-0.6333602
242	0x3e054fc5	0.13018711
243	0x3eb296e0	0.34880733
244	0xbe12d928	-0.14340651
245	0x3de36214	0.11102691
246	0xbe30fed5	-0.1728471
247	0xbf1e0322	-0.6172353
248	0x3e1ca63a	0.15297785
249	0xbd43f2d2	-0.047838993
250	0xbe78c2df	-0.24293087
251	0xbcdfb813	-0.027309453
252	0x3e66d0ed	0.22540636
253	0xbe0264f6	-0.12733826
254	0x3eae57ec	0.34051454
255	0x3df52401	0.11969758

model.w_q.1.weight f4 [25, 25]
0	0xbe5c8ec1	-0.21538831
1	0xbdc91d5a	-0.098200515
2	0x3eda1f4a	0.42601997
3	0x3e1958fd	0.14975353
4	0xbf294f16	-0.661363
5	0x3f4ca2bb	0.79935807
6	0xbc669bf6	-0.01407527
7	0xbdd59b8b	-0.10430058
8	0x3e065fc4	0.13122469
9	0x3e9af9f4	0.30268824
10	0x3dc6ef9f	0.09713673
11	0xbe6f412b	-0.23364703
12	0x3d94fbf0	0.07274616
13	0xbe916971	-0.28400758
14	0xbdce656b	-0.10077938
15	0xbd56ff97	-0.052489843
16	0x3c573894	0.013136048
17	0xbe9c4dcf	-0.30528113
18	0xbdf4d623	-0.11954906
19	0xbe27342b	-0.16328494
20	0xbdd72997	-0.105059795
21	0x3ea6a74e	0.32549518
22	0x3e478d0d	0.194874
23	0x3e6426ce	0.22280428
24	0xbdc1a3ca	-0.094550684
25	0xbe7fbfdf	-0.24975537
26	0x3ea74b6e	0.32674736
27	0x3e010b94	0.12602073
28	0xbefc74db	-0.49307904
29	0x3e827e76	0.25487107
30	0x3e859907	0.26093313
31	0x3ead7f42	0.33886153
32	0x3b59014d	0.0033112348
33	0x3e96021f	0.29298493
34	0xbd4143a5	-0.04718365
35	0x3d89ac5f	0.0672233
36	0x3f068882	0.52552044
37	0xbbb2150d	-0.0054346384
38	0xbe1e3cf8	-0.15452945
39	0x3e226eb3	0.15862541
40	0x3d9900ce	0.074708566
41	0xbbd449c5	-0.0064785206
42	0xbdfcbf37	-0.12341159
43	0x3c457bb1	0.012053416
44	0x3e47d9ca	0.19516674
45	0x3e7c9ee8	0.24669993
46	0xbf23f1b4	-0.64040685
47	0x3c9d1ea4	0.01917965
48	0xbe553d00	-0.20824051
49	0xbe6877a9	-0.22701897
50	0xbe5404fa	-0.20705023
51	0x3cd7e5f2	0.026354764
52	0xbf034028	-0.5126977
53	0xbeaf09ce	-0.34187168
54	0x3ee59be0	0.44845486
55	0x3e62ef6b	0.22161643
56	0xbdf439f8	-0.11925119
57	0x3d2a7b74	0.04162164
58	0x3e9bc379	0.3042257
59	0xbea426ea	-0.3206094
60	0xbf18fa1e	-0.5975665
61	0x3eebcb49	0.46053532
62	0x3dd1a298	0.102360904
63	0xbcf56811	-0.02995685
64	0x3dca7b3a	0.09886785
65	0xbe613049	-0.21991076
66	0xbe68a1a8	-0.22717917
67	0xbeaaaf77	-0.33336994
68	0x3f1ae6ab	0.6050822
69	0x3e7d137f	0.24714468
70	0x3e61b857	0.22042976
71	0xbe64cd02	-0.2234383
72	0xbec78189	-0.38966015
73	0x3e29ebf4	0.16593915
74	0xbea973e3	-0.33096227
75	0xbeba8c1f	-0.3643503
76	0xbe0024e2	-0.1251407
77	0xbddd8c95	-0.108178295
78	0xbe233e2c	-0.15941685
79	0x3eb4f9f8	0.3534696
80	0xbdcc4a4e	-0.0997511
81	0x3d88bc51	0.066765435
82	0xbd0d08d2	-0.03443224
83	0x3c36a181	0.011146904
84	0x3ddf664b	0.10908183
85	0xbe9d3810	-0.30706835
86	0x3efe5a94	0.4967848
87	0xbe176de9	-0.14788021
88	0x3dbd43b7	0.09241431
89	0xbe862b3c	-0.2620486
90	0xbe38497a	-0.17996779
91	0x3e2eeee2	0.17083314
92	0xbe5b5dd9	-0.21422519
93	0x3e9034e2	0.28165346
94	0x3d54e48b	0.051975768
95	0x3e0c6ff1	0.13714577
96	0xbe3cb4ca	-0.1842834
97	0x3eb16384	0.34646237
98	0x3e533286	0.20624742
99	0xbe82d648	-0.2555411
100	0xbe5572e6	-0.20844612
101	0x3eb43ef6	0.35204285
102	0x3d3147ac	0.043281242
103	0xbe4bfa77	-0.19919764
104	0x3d3cd8ee	0.046105318
105	0xbf02be76	-0.5107187
106	0x3dbda27f	0.09259509
107	0x3d9a2b43	0.07527783
108	0x3e5df2f7	0.21674715
109	0xbde56436	-0.11200754
110	0x3f149ee8	0.5805497
111	0xbeda0d24	-0.4258815
112	0x3f063791	0.5242854
113	0x3efea85b	0.4973782
114	0x3dcdfa74	0.10057536
115	0xbe2c7b3c	-0.16843885
116	0xbbe14f51	-0.0068759103
117	0x3ce7e4be	0.028307315
118	0x3af86bcc	0.0018953024
119	0x3e103dc1	0.14086057
120	0x3f0b152a	0.5432917
121	0x3e4b4400	0.19850159
122	0x3e5c07f2	0.21487406
123	0xbed6c1ed	-0.4194483
124	0x3f01f687	0.50766796
125	0xbe98d69e	-0.2985124
126	0xbf0551ff	-0.5207824
127	0x3c3e00c5	0.011596863
128	0x3e597b65	0.21238478
129	0x3eb0a461	0.3450041
130	0x3d7b28b4	0.061318114
131	0x3e9b2dad	0.30308285
132	0xbeeb3f4f	-0.45946738
133	0x3e80b9b1	0.2514167
134	0xbe6913db	-0.2276148
135	0xbf09184b	-0.53552693
136	0x3e53ca6e	0.2068269
137	0x3e91efc5	0.28503242
138	0xbc558a41	-0.013033451
139	0x3d9badbc	0.076014966
140	0xbe063bcb	-0.13108747
141	0x3df52516	0.11969964
142	0xbb67fcb5	-0.0035398428
143	0x3e22885a	0.15872326
144	0xbe55fa24	-0.20896202
145	0x3eced00a	0.40393096
146	0xbdb4d0f1	-0.08828915
147	0x3d18cce1	0.037304763
148	0xbdd5ad2a	-0.10433419
149	0xba8d51f9	-0.0010781876
150	0x3ea8044a	0.32815772
151	0x3e9cdd44	0.30637562
152	0x3d49e06f	0.049286302
153	0x3c00cefa	0.007861847
154	0xbe29066b	-0.16506355
155	0xbdd83c53	-0.10558381
156	0x3db4426a	0.0880173
157	0xbe3c3fd6	-0.18383726
158	0xbe15179d	-0.14559789
159	0x3ef7cf06	0.48400134
160	0x3e46ccec	0.19414109
161	0xbe15a4c3	-0.14613633
162	0xbe81fb78	-0.25387168
163	0xbd38e138	-0.04513666
164	0x3e043e72	0.12914446
165	0x3e6e16d0	0.2325089
166	0xbf02f417	-0.511537
167	0xbe808b46	-0.25106257
168	0xbf067f65	-0.5253814
169	0xbddca8f3	-0.10774412
170	0x3e760e30	0.2402885
171	0xbe4c0842	-0.19925025
172	0xbdbd945a	-0.092568114
173	0x3ea60939	0.3242891
174	0xbef1608c	-0.47143972
175	0x3dea4012	0.11438002
176	0xbe9a3e72	-0.30125767
177	0xbc83abef	-0.016073195
178	0x3df0596a	0.117358044
179	0x3e8f3a3b	0.27974114
180	0xbd3aaefb	-0.04557703
181	0xbe75ad9b	-0.23992006
182	0x3e89f43c	0.2694415
183	0xbe905c18	-0.28195262
184	0xbe153925	-0.1457258
185	0xbebe13e9	-0.37124565
186	0xbe38ee9a	-0.1805977
187	0xbe94651e	-0.28983396
188	0x3c9273ea	0.017877538
189	0xbd62fad3	-0.055414986
190	0x3f06378b	0.524285
191	0x3f115c7f	0.5678176
192	0x3e1fc123	0.1560102
193	0xbeb4d6da	-0.3532017
194	0x3dbea6ce	0.09309159
195	0x3dc6b397	0.09702223
196	0x3e4116b5	0.18856318
197	0xbc061012	-0.008182542
198	0x3ec85d6b	0.39133772
199	0x3f3af370	0.73027706
200	0x3ec06ecf	0.3758454
201	0xbef29357	-0.47378036
202	0xbe8822c1	-0.26589015
203	0xbcd1d406	-0.025613796
204	0xbe71949d	-0.23591848
205	0x3dd1573b	0.10221716
206	0xbf066592	-0.52498734
207	0x3ee582c5	0.44826332
208	0xbe732543	-0.23744683
209	0xbe808d72	-0.25107914
210	0x3e910558	0.2832439
211	0xbea48ba4	-0.32137787
212	0xbe4c0769	-0.19924702
213	0x3e8abfe5	0.2709953
214	0xbe89df2c	-0.2692808
215	0x3daeb1bf	0.08529996
216	0x3e005907	0.12533961
217	0xbba0d12d	-0.004907748
218	0xbf3e316d	-0.7429417
219	0xbdbe5491	-0.092934735
220	0xbe49bd0a	-0.19701019
221	0x3ecab34a	0.39589912
222	0x3f5fd613	0.87436026
223	0xbe881695	-0.2657973
224	0x3f1f05fb	0.621185
225	0x3d0b324f	0.033983525
226	0x3ebb8464	0.36624444
227	0x3e573ae2	0.21018556
228	0x3d183205	0.037157077
229	0xbe00c20c	-0.12574023
230	0xbcc48036	-0.023986917
231	0x3e8a12ff	0.26967618
232	0xbda039e0	-0.07823539
233	0x3e2d3323	0.16914038
234	0xbe5179c6	-0.20456609
235	0x3cc04778	0.023471579
236	0xbd1d65e2	-0.03842724
237	0xbdfea761	-0.12434269
238	0xbe809807	-0.25115988
239	0xbef5d404	-0.48013318
240	0x3f0d0efa	0.5510098
241	0xbd175368	-0.036944777
242	0xbe17e808	-0.14834607
243	0xbe688353	-0.22706346
244	0x3dbce2b0	0.09222925
245	0xbcb79c83	-0.022413498
246	0x3db30969	0.08742029
247	0xbe056711	-0.13027598
248	0x3d8a394c	0.0674921
249	0x3ee17449	0.4403403
250	0xbda40e03	-0.08010485
251	0xbde0bce2	-0.109735265
252	0x3e215e00	0.15758514
253	0xbbd1064b	-0.006378924
254	0x3ebf2b22	0.37337595
255	0x3e1c0d36	0.15239415

model.w_q.2.weight f4 [25, 25]
0	0xbe3d604e	-0.18493769
1	0x3c5f0244	0.01361138
2	0xbf4ca7bb	-0.79943436
3	0xbee5a5b3	-0.4485298
4	0x3eee721b	0.4657143
5	0xbd1f98e8	-0.038964182
6	0xbf0be96f	-0.54653066
7	0xbd4fc703	-0.0507269
8	0xbe10ef36	-0.14153752
9	0x3e7ba40c	0.24574298
10	0x3ea0b5f0	0.31388807
11	0x3e120b2a	0.14262071
12	0x3eefbdd1	0.46824506
13	0xbe13f93d	-0.14450546
14	0x3c781210	0.015141025
15	0xbee28695	-0.44243303
16	0x3eaa97f8	0.33319068
17	0x3d4c6b98	0.049907297
18	0x3e6bdc2e	0.2303321
19	0xbe245d82	-0.16051295
20	0x3bd002d3	0.006347993
21	0x3ebb1f5c	0.36547363
22	0x3e58aadb	0.21158926
23	0x3f163982	0.586815
24	0xbde892ae	-0.11356102
25	0x3c4af1b0	0.012386724
26	0x3eb0a041	0.34497264
27	0x3e66fecb	0.22558133
28	0x3e91a6ab	0.2844747
29	0xbd24c693	-0.040228438
30	0xbe2d1383	-0.16901974
31	0x3da2ddfb	0.07952496
32	0xbed29aee	-0.41133827
33	0x3e0b50b8	0.1360501
34	0x3e502979	0.2032832
35	0xbdc7ee73	-0.097622775
36	0x3ed98cc5	0.4249021
37	0xbeea94bf	-0.4581661
38	0x3e9a20a2	0.30103022
39	0x3c90c1df	0.01767057
40	0x3e40386f	0.18771528
41	0x3ea7534d	0.3268074
42	0x3d939b49	0.07207353
43	0x3e13db3a	0.14439097
44	0x3e98c4d9	0.29837683
45	0xbd453376	-0.04814478
46	0xbf088a83	-0.5333635
47	0xbe12951d	-0.14314695
48	0xbe850da7	-0.25986978
49	0xbeaba296	-0.3352248
50	0xbef22840	-0.47296333
51	0xbeb142fa	-0.34621412
52	0xbe423364	-0.18964916
53	0x3df31c8b	0.118706785
54	0x3ed85d2c	0.42258584
55	0x3e481edf	0.19543026
56	0x3d47f557	0.04881796
57	0xbea61fb9	-0.32446077
58	0x3e957928	0.29193997
59	0x3e0700d1	0.13183905
60	0x3e330a57	0.17484413
61	0xbd867ff4	-0.06567374
62	0xbccaec1b	-0.024770787
63	0x3ebdda59	0.3708065
64	0x3ecedcf2	0.40402943
65	0xbd9fa3c1	-0.077949055
66	0x3e396607	0.18105327
67	0xbd12832d	-0.03576963
68	0x3eb1c4ec	0.34720552
69	0xbd3a2de2	-0.045453914
70	0xbde18eb4	-0.110135466
71	0xbf28c273	-0.65921706
72	0xbe17ed4a	-0.14836612
73	0x3df8b117	0.12143152
74	0xbe85418d	-0.26026574
75	0x3d616c28	0.055034786
76	0xbf00790a	-0.5018469
77	0xbce5a36c	-0.028032027
78	0x3e1ca4d2	0.15297249
79	0x3ea90c50	0.33017206
80	0x3b86f835	0.004118944
81	0x3ce9000a	0.028442401
82	0x3ddf05b8	0.10889763
83	0x3e94d20d	0.29066506
84	0x3e99510d	0.2994465
85	0x3e21a5b0	0.15785861
86	0xbdca02d3	-0.0986382
87	0xbd65ebdd	-0.05613314
88	0xbe752788	-0.23940861
89	0xbdbb9e87	-0.09161096
90	0x3e99707a	0.29968625
91	0xbe57c580	-0.21071434
92	0xbe394404	-0.18092352
93	0xbd86eaeb	-0.06587776
94	0xbb97abed	-0.0046286494
95	0x3d1eec4d	0.038799573
96	0xbde6e548	-0.11274201
97	0x3e2c96aa	0.16854349
98	0xbdcab826	-0.09898405
99	0x3a44fddd	0.0007514635
100	0xbe8475de	-0.25871176
101	0x3e43cd46	0.19121274
102	0xbe8c8bc9	-0.27450398
103	0xbf67dc02	-0.9057008
104	0x3e4817c2	0.19540313
105	0xbe3918a9	-0.18075813
106	0x3dd8065e	0.105480894
107	0x3ea4c1bf	0.32179067
108	0x3dcbad81	0.099452026
109	0xbe87746b	-0.26456007
110	0x3f1896a1	0.5960484
111	0x3ec734d3	0.3890749
112	0x3ef7fe05	0.4843599
113	0xbea2845e	-0.31741613
114	0x3eb6db0a	0.3571399
115	0x3ecb8a60	0.3975401
116	0x3d29daa7	0.04146829
117	0xbe4b93c1	-0.19880582
118	0xbcca8e36	-0.024726015
119	0xbea9ff22	-0.33202463
120	0x3e51f223	0.20502524
121	0x3ebd5472	0.3697849
122	0xbcbfdb2b	-0.023419937
123	0xbe28862d	-0.16457434
124	0xbc4f9b9e	-0.012671379
125	0x3e0a12b6	0.134837
126	0xbee12ff4	-0.43981898
127	0xbe469329	-0.19392075
128	0x3dfe4bff	0.12416839
129	0xbda34b21	-0.07973314
130	0x3f2f0a25	0.68374854
131	0xbf35463f	-0.7081031
132	0x3ea2ee91	0.31822637
133	0xb9f5eaad	-0.0004690489
134	0x3e64262b	0.22280185
135	0xbd8cf752	-0.0688311
136	0xbc1b4a5e	-0.00947818
137	0x3efcf4f0	0.49405622
138	0x3e49d281	0.19709207
139	0x3efc5545	0.49283805
140	0xbf1a6954	-0.6031697
141	0xbef5f7a5	-0.480405
142	0x3d7b60e2	0.06137169
143	0x3eb59cac	0.35471094
144	0x3e673996	0.22580561
145	0x3aab9603	0.0013090972
146	0x3eeb9e0d	0.4601902
147	0x3f1988c2	0.599743
148	0x3e28b455	0.16475041
149	0x3dccdcfb	0.10003086
150	0x3d277d16	0.040890776
151	0xbdbbd0fd	-0.09170721
152	0xbedca528	-0.43094754
153	0xbf27a9e0	-0.65493584
154	0xbdfb378a	-0.122664526
155	0x3e45e549	0.19325747
156	0xbf8631fc	-1.0484004
157	0x3e909470	0.2823825
158	0xbf3725ab	-0.7154185
159	0xbd84c171	-0.064822085
160	0xbe88c120	-0.26709843
161	0x3ef04c46	0.46933192
162	0x3e2d38c9	0.16916193
163	0xbe9769f8	-0.29573035
164	0xbce5b4d0	-0.02804032
165	0x3ec48e4f	0.38389823
166	0xbf1a48bd	-0.6026724
167	0x3da05f69	0.07830698
168	0xbe05b38e	-0.13056776
169	0xbe5eccda	-0.21757832
170	0x3e881d4b	0.2658485
171	0x3f45b1c3	0.7722437
172	0x3ef5168c	0.47868764
173	0x3e3c6792	0.18398884
174	0x3e906b3e	0.2820682
175	0x3ccf3e89	0.025298374
176	0xbde70136	-0.11279528
177	0x3ea365b6	0.31913537
178	0xbda46a5f	-0.08028101
179	0x3ee8b024	0.45446885
180	0x3eab6dd5	0.33482233
181	0x3d18f3bc	0.03734182
182	0x3dedf75c	0.11619446
183	0x3eaf82b4	0.34279406
184	0xbea67576	-0.3251149
185	0x3d4ade4f	0.049528416
186	0xbe253684	-0.16134077
187	0xbe6aa481	-0.22914316
188	0x3e8b7697	0.27238914
189	0x3e932f5c	0.2874707
190	0x3f01628b	0.5054099
191	0xbe5c3429	-0.21504273
192	0x3e03e250	0.128793
193	0x3d2ef383	0.0427127
194	0xbecb46a1	-0.39702323
195	0x3e2c196d	0.16806574
196	0xbecbf7f9	-0.39837626
197	0xbdeaf0ce	-0.11471711
198	0xbe8df536	-0.27726144
199	0xbe7d5e4d	-0.24743004
200	0xbd804537	-0.06263202
201	0x3f0d8942	0.55287564
202	0x3cb20422	0.021730486
203	0x3e0f9b04	0.14023978
204	0xbe1cc643	-0.15310006
205	0xbe69f904	-0.22848898
206	0x3f0b875a	0.54503405
207	0x3df9fd20	0.12206483
208	0x3eab2d02	0.33432776
209	0xbe762775	-0.24038489
210	0x3ec86646	0.39140528
211	0x3e0f7585	0.14009674
212	0xbe9a5996	-0.30146474
213	0x3ee7defa	0.45287305
214	0xbda4017a	-0.08008094
215	0x3dfaa4d6	0.12238471
216	0x3ed5625f	0.41676614
217	0x3df8e2ad	0.1215261
218	0xbd553df6	-0.052061044
219	0xbef497f5	-0.47772184
220	0x3e35dfff	0.17761229
221	0x3d34f9fe	0.044183724
222	0xbea543fd	-0.32278433
223	0x3c95d079	0.018287884
224	0x3e2b3471	0.16719224
225	0xbec62c32	-0.38705593
226	0x3eab428e	0.33449215
227	0x3f5bcc08	0.858582
228	0x3de2cfbf	0.11074781
229	0x3d28beb3	0.04119749
230	0xbeed9ff0	-0.46411085
231	0x3f9aeddc	1.2103839
232	0xbefa8550	-0.48929834
233	0x3f586c38	0.8454013
234	0x3eca03a8	0.39455914
235	0xbdb422f9	-0.08795733
236	0xbc8cb62a	-0.017176706
237	0xbda9c79c	-0.082900256
238	0xbdaacc89	-0.08339793
239	0x3d60e87b	0.05490921
240	0xbe9fc775	-0.3120686
241	0x3d3297b1	0.043601695
242	0x3db71516	0.08939569
243	0x3d09dca1	0.033657674
244	0xbe514685	-0.20437057
245	0xbef2303c	-0.47302425
246	0xbf39d665	-0.72592765
247	0xbf02fbb8	-0.5116534
248	0xbd47544a	-0.04866437
249	0x3e771166	0.2412773
250	0x3e28f63c	0.16500181
251	0x3ea9f3b0	0.3319373
252	0xbbcb22bb	-0.0061992086
253	0xbe7a8649	-0.24465288
254	0x3d155e34	0.036466792
255	0x3ba09a2c	0.004901191

model.w_q.3.weight f4 [25, 25]
0	0xbeb65f84	-0.35619748
1	0xbd51e957	-0.05124792
2	0xbe889ad1	-0.26680616
3	0xbe0b53a9	-0.13606133
4	0xbe999cc0	-0.30002403
5	0xbe9c8109	-0.30567196
6	0x3df87455	0.121315636
7	0xbe73a032	-0.23791578
8	0x3ed148b4	0.4087578
9	0x3f124bb7	0.5714678
10	0x3da81e77	0.08208936
11	0xbd95a930	-0.073076606
12	0x3e153d8b	0.14574258
13	0xbd381495	-0.044941504
14	0xbe95cd71	-0.29258302
15	0xbdb41d7e	-0.08794688
16	0xbde0d3ec	-0.10977921
17	0xbe9e89cc	-0.30964506
18	0x3ec8c1d3	0.39210376
19	0x3b421130	0.0029612295
20	0xbf1cb21f	-0.6120929
21	0xbdec9ff3	-0.115539454
22	0x3e5d18c9	0.21591486
23	0x3d8e6f16	0.06954782
24	0x3d1355e6	0.03597059
25	0xbde4a078	-0.111634195
26	0x3ecfc06d	0.40576497
27	0x3e024f62	0.12725595
28	0xbf23224c	-0.6372421
29	0xbdf3a152	-0.11896004
30	0xbcf34eeb	-0.029700717
31	0x3cc203f4	0.023683526
32	0x3d2bdb4d	0.04195719
33	0xbd8179c8	-0.06322056
34	0xbdbdd5ad	-0.09269271
35	0x3f0d7796	0.552606
36	0x3eb2cf4c	0.3492378
37	0xbe137569	-0.14400257
38	0x3e798de8	0.24370539
39	0xbee53e22	-0.44773966
40	0xbd5b9fc1	-0.05361915
41	0x3efb8da5	0.49131504
42	0xbea26ef5	-0.31725278
43	0xbc7c2398	-0.015389346
44	0x3e3b12e8	0.18268931
45	0x3e07b0cd	0.13251038
46	0xbec2e2ae	-0.38063568
47	0x3e1f488e	0.15555021
48	0xbe18f891	-0.1493857
49	0xbe17796e	-0.14792415
50	0x3d9fcb3a	0.07802434
51	0xbd42b3ce	-0.047534756
52	0xbd2293e7	-0.039691832
53	0xbbc6802f	-0.006057761
54	0x3ed658a3	0.418645
55	0x3e10e21f	0.14148758
56	0xbea5d1dc	-0.32386672
57	0xbe3ee73e	-0.186429
58	0x3e09d493	0.13459997
59	0xbec02ad3	-0.37532672
60	0xbdc579cc	-0.096423715
61	0x3e6e2116	0.23254809
62	0x3e91481b	0.28375325
63	0xbe4e4d63	-0.20146708
64	0x3e23e8ce	0.16006777
65	0xbdde2e95	-0.108487286
66	0xbe70b0be	-0.23504922
67	0xbebbe524	-0.36698258
68	0x3ea6a85e	0.3255033
69	0x3f22470c	0.6338966
70	0xbd405eb6	-0.046965323
71	0xbee4b2c6	-0.44667643
72	0xbece00d5	-0.4023501
73	0xbec5f5a4	-0.3866397
74	0xbe5a2f83	-0.21307187
75	0xbe91f052	-0.28503662
76	0x3d710dc5	0.058851022
77	0xbeb04c12	-0.34433037
78	0xbda3912c	-0.07986674
79	0x3e9aacf6	0.30210084
80	0x3d4b5a03	0.04964639
81	0x3e55b012	0.20867947
82	0xbd137cc4	-0.036007658
83	0xbeb01d13	-0.34397182
84	0x3c489724	0.012243066
85	0x3e1834c6	0.14863881
86	0xbe25b6a9	-0.1618296
87	0xbeb395a4	-0.35075104
88	0xbdb96756	-0.09052913
89	0xbe1aefff	-0.15130614
90	0xbeaff436	-0.34366006
91	0xbdb0713c	-0.08615348
92	0x3e566a8e	0.20939085
93	0x3debdf8d	0.11517248
94	0x3e449c27	0.19200192
95	0x3e6587b3	0.22415046
96	0x3e359eb4	0.17736322
97	0xbedee174	-0.43531382
98	0xbcdd4c1c	-0.02701383
99	0x3e3ba180	0.18323326
100	0x3e3f4122	0.1867719
101	0x3e99ff5b	0.30077633
102	0x3ec7774b	0.389582
103	0x3e8a0153	0.26954135
104	0xbdaafbae	-0.08348785
105	0xbefc3ece	-0.49266666
106	0xbd66f6b3	-0.056387614
107	0x3dab7926	0.083727166
108	0x3e74f273	0.23920612
109	0x3dff5a21	0.124683626
110	0x3ea3e39b	0.32009587
111	0xbee2dc8f	-0.44308898
112	0x3f08050c	0.531327
113	0xbd4a712c	-0.049424335
114	0xbdafd877	-0.08586209
115	0xbdb83c94	-0.08995929
116	0xbe15a3b1	-0.14613225
117	0xbe850421	-0.25979713
118	0xbd2da085	-0.04238941
119	0x3d209ee6	0.039214037
120	0x3edefdeb	0.435531
121	0x3e50a425	0.20375116
122	0xbedcb1e7	-0.4310448
123	0xbeb15aba	-0.3463953
124	0x3e8b309e	0.2718553
125	0xbe88417d	-0.26612464
126	0xbe21d31c	-0.15803188
127	0xbeb2dd27	-0.3493435
128	0xbcfd38a1	-0.030910792
129	0x3e853d76	0.26023453
130	0x3eb247a9	0.34820297
131	0xbdac32d2	-0.08408131
132	0x3e7e72f5	0.2484854
133	0x3dad8fe3	0.0847471
134	0xbe97a00f	-0.29614303
135	0xbef5541c	-0.47915733
136	0x3ebd4973	0.369701
137	0x3e94036f	0.2890887
138	0xbe0a6586	-0.1351529
139	0x3ecdd6c3	0.40202913
140	0xbeaf9979	-0.34296778
141	0xbea0c483	-0.31399927
142	0xbdc09a08	-0.09404379
143	0x3ee116ce	0.4396271
144	0x3d619654	0.055075005
145	0xbd2caf5b	-0.04215942
146	0xbcef6d0a	-0.029226799
147	0x3eec0951	0.46100858
148	0x3eda49e7	0.42634508
149	0xbf0ab2bc	-0.54178977
150	0x3ea4bfe6	0.32177657
151	0x3e97fe96	0.2968642
152	0xbe21d66a	-0.15804449
153	0xbdb6fd69	-0.08935053
154	0xbdb7ea50	-0.089802384
155	0xbf08f7e3	-0.53503245
156	0x3ae27d43	0.0017279763
157	0x3deb7bba	0.11498208
158	0xbe2a7cb1	-0.16649128
159	0x3eec5247	0.46156523
160	0x3ec0a7bf	0.3762798
161	0x3ca3c841	0.01999295
162	0xbe349423	-0.17634635
163	0x3df64a67	0.1202591
164	0x3cd9e306	0.026597511
165	0xbc839817	-0.016063733
166	0xbdcf9eb6	-0.101376936
167	0xbedde303	-0.4333726
168	0xbf68469c	-0.9073274
169	0xbe6f1948	-0.23349488
170	0xbcb4ecc1	-0.02208555
171	0xbc7ea665	-0.015542601
172	0x3e61b1ec	0.22040528
173	0xbd60bd51	-0.054868046
174	0xbcef8ef7	-0.029242976
175	0xbe06b9e2	-0.13156846
176	0xbd2c7ff0	-0.0421142
177	0xbe3a70a7	-0.18207036
178	0x3e6aa48d	0.22914334
179	0xbe2a9e11	-0.1666186
180	0xbdec36ef	-0.11533915
181	0x3e4bf623	0.19918112
182	0xbee779c8	-0.452101
183	0xbdec03ea	-0.11524184
184	0xbe467d6a	-0.19383779
185	0x3e8e3c25	0.27780262
186	0x3c149f07	0.009071118
187	0xbe621e56	-0.22081885
188	0x3e845ff9	0.2585447
189	0x3ed51154	0.41614783
190	0xbd45b25c	-0.0482658
191	0xbebf14a2	-0.3732043
192	0x3f097a9d	0.5370272
193	0xbe8584cf	-0.26077887
194	0x3eb3b98f	0.35102507
195	0x3e0e35d5	0.13887723
196	0x3e80cc32	0.2515579
197	0xbdd321a9	-0.103091545
198	0x3e0912fd	0.1338615
199	0x3eb84960	0.3599348
200	0xbd82234a	-0.06354387
201	0x3e994df4	0.29942286
202	0x3e0bf323	0.13666968
203	0xbedcb7f0	-0.43109083
204	0x3def7963	0.116930746
205	0xbe6a2a5c	-0.22867721
206	0x3eab7223	0.33485517
207	0xbeab088b	-0.33404955
208	0xbb8c8bbf	-0.00428912
209	0xbef2dd48	-0.4743445
210	0x3eb044bd	0.34427443
211	0x3ced9ff5	0.029006938
212	0x3e4dead2	0.20109108
213	0x3efce413	0.49392757
214	0xbdde7edd	-0.10864041
215	0x3e890d65	0.26768032
216	0x3ee5d84b	0.4489158
217	0xbeebef76	-0.46081132
218	0xbe9fc0fd	-0.31201926
219	0xbecf5a46	-0.4049856
220	0xbdffb018	-0.12484759
221	0xbdddf0da	-0.108369544
222	0x3b26da57	0.002545973
223	0xbc2ac870	-0.010423765
224	0x3dfbc066	0.122925565
225	0xbe424de1	-0.18975021
226	0x3d2160a7	0.039398815
227	0x3d4a859c	0.049443826
228	0x3e6dec02	0.23234561
229	0x3cadcde2	0.021216337
230	0x3c992957	0.01869647
231	0x3d06f25e	0.032945983
232	0x3e8e83ce	0.27834934
233	0x3ad3a3b0	0.0016146805
234	0x3df7232e	0.12067257
235	0xbdd4fb0a	-0.103994444
236	0x3e2dc8da	0.1697115
237	0x3ec78ce8	0.3897469
238	0x3cb50e65	0.02210159
239	0xbc6ef063	-0.01458368
240	0x3d5f2c12	0.054485388
241	0x3d269662	0.04067076
242	0x3e8d50ed	0.27600804
243	0x3ec2452c	0.379434
244	0xbd28f159	-0.041245792
245	0x3e05124c	0.12995261
246	0xbeff8c48	-0.49911714
247	0xbda1dc25	-0.07903317
248	0x3ee19feb	0.4406732
249	0x3d1021d9	0.03518853
250	0x3e542a1f	0.20719193
251	0x3e506e6a	0.2035462
252	0x3e79e78c	0.24404734
253	0xbeb74f20	-0.35802555
254	0xbe141774	-0.14462072
255	0x3d26e205	0.040742893

model.w_q.4.weight f4 [25, 25]
0	0xbf3bac8e	-0.7331017
1	0x3e40cb51	0.18827559
2	0xbf17dd10	-0.5932169
3	0xbe4115a0	-0.18855906
4	0xbccdc235	-0.02511702
5	0x3e11cfd1	0.14239432
6	0xbeadcb5d	-0.33944216
7	0x3f4d5aa8	0.80216455
8	0xbede9b52	-0.43477875
9	0x3e1fcf16	0.15606341
10	0x3eb08be5	0.3448173
11	0x3dc8294f	0.09773504
12	0x3edfc270	0.43703032
13	0xbeb6eb90	-0.35726595
14	0x3efdce66	0.49571532
15	0xbe7f41aa	-0.24927393
16	0x3d00e173	0.031465005
17	0x3e828fd7	0.25500366
18	0x3d3f3861	0.046684626
19	0xbf03047a	-0.51178706
20	0x3e27a6ad	0.16372176
21	0x3ec1621d	0.37770167
22	0x3d2c26aa	0.04202906
23	0x3bf4e308	0.0074733533
24	0x3d5ac3dd	0.053409446
25	0xbdd2f333	-0.10300293
26	0xbe9be387	-0.30447027
27	0x3e902c09	0.28158596
28	0x3d248d1b	0.04017363
29	0x3e11b8a4	0.14230591
30	0x3c8cc834	0.017185308
31	0x3eef9e5d	0.4680051
32	0xbd5558f5	-0.05208679
33	0xbc467bcc	-0.012114476
34	0xbde3c650	-0.111218095
35	0x3e90f866	0.28314513
36	0x3ef0c70b	0.47026858
37	0xbeb89d74	-0.36057627
38	0x3d703077	0.05863997
39	0xbe6fef2c	-0.2343108
40	0x3e30a970	0.17252135
41	0x3d0831d4	0.033250645
42	0x3e16d117	0.14728199
43	0xbe0e8956	-0.13919577
44	0x3e549c59	0.20762767
45	0xbe496c8a	-0.1967031
46	0xbe34d38a	-0.17658821
47	0xbead3c90	-0.33835268
48	0xbdffcee9	-0.12490637
49	0xbc453e1e	-0.012038736
50	0xbc920c04	-0.017827995
51	0xbea961a0	-0.33082294
52	0x3c108afa	0.008822197
53	0x3f02de6e	0.5112065
54	0xbdaec7e6	-0.08534221
55	0x3e62caa0	0.22147608
56	0xbe144fa6	-0.14483508
57	0xbc869fcd	-0.01643362
58	0xbe6ca5a7	-0.23110066
59	0xbe43737c	-0.19087023
60	0xbd845f91	-0.0646354
61	0x3ec4f0d9	0.38465002
62	0x3dd08402	0.101814285
63	0xbe2e862b	-0.17043369
64	0x3e452c27	0.19255124
65	0xbe39f1f2	-0.18158701
66	0x3b94c591	0.0045401533
67	0x3e9d7e12	0.30760247
68	0xbea32218	-0.3186195
69	0x3cd89b65	0.026441285
70	0xbe5658e5	-0.20932348
71	0xbe2167a7	-0.15762196
72	0x3c2c0eb0	0.010501549
73	0xbec99caf	-0.39377353
74	0xbe6d0f70	-0.2315042
75	0xbe84e8cc	-0.2595886
76	0xbc76c6d0	-0.015062049
77	0x3d95ac0e	0.073082075
78	0x3e49d668	0.19710696
79	0x3e56224e	0.20911524
80	0xbebfa8a6	-0.37433356
81	0x3d839796	0.06425397
82	0xbee96987	-0.45588323
83	0x3ebe2e8c	0.37144887
84	0x3e0379da	0.12839451
85	0x3db8fce1	0.09032608
86	0x3e010222	0.1259847
87	0x3d934863	0.07191541
88	0xbeb0d202	-0.34535223
89	0x3ee44924	0.44587052
90	0x3eb9844a	0.3623374
91	0xbc56bc78	-0.013106458
92	0xbeb5842f	-0.3545241
93	0x3d8e7cd2	0.06957401
94	0x3edb8f00	0.42882538
95	0xbd4dab8d	-0.05021243
96	0xbe7df927	-0.24802075
97	0xbe82e9e1	-0.2556906
98	0x3dcd3ddf	0.100215666
99	0xbdbfbc61	-0.09362102
100	0xbe42b569	-0.19014515
101	0xbec13a2a	-0.37739688
102	0xbdba6f67	-0.091032796
103	0x3d9f4145	0.07776121
104	0x3f0ebcfe	0.5575713
105	0x3ee3f80a	0.44525176
106	0xbf02118e	-0.50808036
107	0x3d36b5fe	0.044607155
108	0xbdd8dc89	-0.10588939
109	0xbe937cb2	-0.28806072
110	0xbd788fff	-0.0606842
111	0xbdfa106f	-0.12210166
112	0x3f147e4a	0.580052
113	0xbe050f68	-0.12994158
114	0x3f5d72a7	0.8650307
115	0xbdb1b097	-0.0867626
116	0xbef6aed6	-0.48180264
117	0xbdfab93f	-0.12242364
118	0xbdea90e4	-0.11453417
119	0x3dfe4634	0.12415734
120	0xbc7ed2a9	-0.015553155
121	0xbcb40a64	-0.02197761
122	0x3e4a2883	0.19742016
123	0x3f303824	0.68835664
124	0x3e9c4f93	0.3052946
125	0x3f1efa28	0.6210046
126	0xbd91f18f	-0.07126152
127	0xbe288317	-0.16456257
128	0xbf0742d2	-0.52836335
129	0x3c72063e	0.014771996
130	0x3edf358a	0.43595535
131	0xbf7f80c7	-0.99805874
132	0xbe2a0bab	-0.16606013
133	0xbf01abb1	-0.50652605
134	0x3eda2387	0.4260523
135	0xbed1e65f	-0.40996072
136	0x3e57cb26	0.21073589
137	0x3f37292a	0.71547186
138	0x3f006c01	0.501648
139	0x3ec620af	0.3869681
140	0xbe898e68	-0.2686646
141	0xbd500d88	-0.050794154
142	0xbde6c05c	-0.112671584
143	0x3dbd10ca	0.09231718
144	0xbd4a07cb	-0.04932384
145	0x3f5b537c	0.8567426
146	0x3ef5d5d4	0.480147
147	0x3e936de9	0.28794792
148	0x3dc8eda6	0.09810953
149	0xbebeccf5	-0.37265745
150	0xbeb27c9b	-0.3486069
151	0xbe688da5	-0.22710283
152	0xbf174241	-0.5908547
153	0xbf634bda	-0.88787615
154	0x3d313df1	0.043271963
155	0x3ec53f97	0.38525078
156	0xbf1abde4	-0.60446
157	0x3df9236a	0.12164958
158	0xbf22832d	-0.6348141
159	0xbe6540fa	-0.22388068
160	0xbeb593a9	-0.35464218
161	0x3e0860c9	0.1331817
162	0x3ec631e0	0.38709927
163	0x3b028add	0.0019919195
164	0x3f039ff6	0.51415956
165	0xbd42138e	-0.04738193
166	0x3e4f0ead	0.20220442
167	0xbd1d6acf	-0.03843194
168	0xbd48e7a8	-0.04904905
169	0xbe5a0f7f	-0.21294974
170	0x3e8be969	0.27326515
171	0x3efcdf47	0.49389097
172	0x3f320160	0.6953335
173	0x3ebf00ca	0.3730529
174	0x3ede2d83	0.43394098
175	0xbeaf5993	-0.34248027
176	0xbe39e2d0	-0.18152928
177	0x3d6ab07a	0.057297207
178	0x3f0fb5b3	0.56136626
179	0xbc4defbc	-0.012569364
180	0xbe81a951	-0.2532449
181	0x3ec80596	0.39066762
182	0xbe4eb6e8	-0.2018696
183	0x3f0c1e3a	0.5473362
184	0xbe72313c	-0.23651594
185	0xbe6f0ed5	-0.23345502
186	0x3cf8d41d	0.030374581
187	0xbe7d948a	-0.24763694
188	0xbda76c29	-0.08174927
189	0x3b0ba81d	0.002130992
190	0xbea3383e	-0.31878847
191	0x3d50ce7f	0.05097818
192	0xbdf8b685	-0.12144188
193	0xbe39d25d	-0.18146653
194	0x3de6fe0b	0.112789236
195	0xbed201d3	-0.41017017
196	0x3dfe8bc2	0.124290004
197	0xbe68ad31	-0.22722317
198	0xbe63b050	-0.22235227
199	0x3b8e8ac6	0.004350039
200	0x3b6399d4	0.003472914
201	0xbbc8b759	-0.0061253724
202	0x3e8a8ead	0.27061978
203	0xbe243b3c	-0.16038221
204	0xbc40eb7c	-0.011774894
205	0xbe2d2542	-0.16908744
206	0x3ef4df77	0.4782674
207	0xbeac6201	-0.3366852
208	0x3d1fe85e	0.039039962
209	0xbcf3d976	-0.02976678
210	0x3e8323ef	0.25613353
211	0xbd690f68	-0.05689946
212	0xbf2c4e37	-0.67306846
213	0xbe2b09a1	-0.16702892
214	0xbe9a6311	-0.30153707
215	0x3e6bf4ea	0.23042646
216	0x3f0e2414	0.555238
217	0x3e24f5e0	0.16109419
218	0x3ce2df53	0.02769438
219	0xbedd117e	-0.43177408
220	0xbab03698	-0.0013444005
221	0xbe4d1356	-0.20026907
222	0xbf18d2a8	-0.59696436
223	0xbe6e849d	-0.23292775
224	0xbcf44979	-0.02982019
225	0xbf1dcf0b	-0.6164405
226	0x3e9031dd	0.28163043
227	0x3ecc3f89	0.39892223
228	0x3f4ff393	0.8123104
229	0xbe0b3fa7	-0.135985
230	0xbf25cdee	-0.6476735
231	0x3f312c7d	0.6920851
232	0xbeffbcd8	-0.49948764
233	0x3f04072d	0.5157345
234	0xbdbdfedc	-0.09277126
235	0x3e809dae	0.251203
236	0xbe7ddc0a	-0.2479097
237	0xbf28076f	-0.6563634
238	0xbe2bfc99	-0.16795577
239	0xbecfcbca	-0.40585166
240	0x3d8e2df2	0.06942357
241	0xbe485ce3	-0.19566683
242	0x3d92b99b	0.07164308
243	0xbe2132f0	-0.15742087
244	0x3ea1e3b3	0.31619033
245	0xbf5ccf58	-0.8625388
246	0xbf531e8f	-0.82468504
247	0xbea24536	-0.3169343
248	0xbf3430e2	-0.7038709
249	0x3eb0d43d	0.34536925
250	0x3c8feef6	0.01757
251	0x3d69402a	0.056945957
252	0xba91d52c	-0.0011126152
253	0xbef06c04	-0.4695741
254	0xbe8bc887	-0.27301428
255	0xbcfaf793	-0.03063563
