ml-1m_default/SASRec.epoch=40.lr=0.001.layer=2.head=1.hidden=50.maxlen=200.pth (torch, 776502 bytes, 22 tensors)

item_emb.weight f4 [3417, 50]
000000 00 00 00 00 00 00 00 00 00 00 00 00 00 00 00 00
       0.0 0.0 0.0 0.0
000010 00 00 00 00 00 00 00 00 00 00 00 00 00 00 00 00
       0.0 0.0 0.0 0.0
000020 00 00 00 00 00 00 00 00 00 00 00 00 00 00 00 00
       0.0 0.0 0.0 0.0
000030 00 00 00 00 00 00 00 00 00 00 00 00 00 00 00 00
       0.0 0.0 0.0 0.0
000040 00 00 00 00 00 00 00 00 00 00 00 00 00 00 00 00
       0.0 0.0 0.0 0.0
000050 00 00 00 00 00 00 00 00 00 00 00 00 00 00 00 00
       0.0 0.0 0.0 0.0
000060 00 00 00 00 00 00 00 00 00 00 00 00 00 00 00 00
       0.0 0.0 0.0 0.0
000070 00 00 00 00 00 00 00 00 00 00 00 00 00 00 00 00
       0.0 0.0 0.0 0.0
000080 00 00 00 00 00 00 00 00 00 00 00 00 00 00 00 00
       0.0 0.0 0.0 0.0
000090 00 00 00 00 00 00 00 00 00 00 00 00 00 00 00 00
       0.0 0.0 0.0 0.0
0000a0 00 00 00 00 00 00 00 00 00 00 00 00 00 00 00 00
       0.0 0.0 0.0 0.0
0000b0 00 00 00 00 00 00 00 00 00 00 00 00 00 00 00 00
       0.0 0.0 0.0 0.0
0000c0 00 00 00 00 00 00 00 00 03 35 06 3e 52 82 36 3e
       0.0 0.0 0.1310616 0.17823151
0000d0 80 39 a9 bd 14 6f 20 3d 3c ca 34 be ec 91 fc 3d
       -0.082629204 0.039168432 -0.17655271 0.1233252
0000e0 0d 25 f8 3d f7 15 70 bd 64 73 a7 3d 3e 7a f7 bd
       0.12116442 -0.058614697 0.08176306 -0.12083863
0000f0 18 94 cb 3d 80 b8 93 bb c8 e9 fc 3d 12 4a c9 3b
       0.09940356 -0.004508078 0.12349278 0.006142863
000100 1f ec 8c bd 24 79 40 be a7 d4 08 be 80 71 80 3c
       -0.06880974 -0.18796211 -0.1336237 0.015679121
000110 0f 93 ec bc 43 54 a8 3d 4c 43 5e 3d 8e 50 9a bd
       -0.028878717 0.08219197 0.054263398 -0.07534896
000120 4a 66 bc bc f0 e9 38 3e 2e ef e2 bd 3d 02 d7 bd
       -0.022997994 0.1805799 -0.11080776 -0.10498474
000130 c1 cf e7 bd 2e 4c 10 bd 2d 93 01 3e db 94 a1 bd
       -0.11318923 -0.0352289 0.126538 -0.0788972
000140 24 77 cd bd e8 53 43 bd f3 08 87 3c 7b 7b 51 bd
       -0.1003249 -0.04768744 0.01648376 -0.05114315
000150 ec 9c cb bb 1f 1e 27 bc 09 e1 1b bd fc 43 21 3e
       -0.006213775 -0.0102000525 -0.038056407 0.1574859
000160 28 1d 68 be 35 74 81 bd b3 19 fa 3d 76 f2 b9 bd
       -0.22667372 -0.06320993 0.12211933 -0.09079449
000170 da 05 8c bd 29 2a d9 bd 2a 8e 28 3e 93 06 73 3d
       -0.068370536 -0.106037445 0.16460481 0.05933244
000180 a3 18 da bc bb 6b 4b be bc dc 88 bd ab 40 a2 3d
       -0.026623076 -0.19865315 -0.06682727 0.07922491
000190 8a 6f 83 3d 2d 99 98 3d 39 7a 38 bd a6 ee b0 bd
       0.06417759 0.07451091 -0.045038436 -0.086392686
0001a0 87 eb 09 3c 5e a9 d4 3a c0 49 24 3d 33 a0 eb 3c
       0.0084179705 0.0016224792 0.040109396 0.028762912
0001b0 eb 80 0c 3e 94 e5 04 be 11 81 88 bd 43 22 f5 3b
       0.13721053 -0.12978202 -0.066652425 0.007480891
0001c0 d4 f3 1b 3d 06 17 99 bd c9 a3 cb 3c 6b 1e 29 be
       0.03807433 -0.074750945 0.024858372 -0.1651551
0001d0 e7 68 ae 3b 99 d6 1d bd 64 54 0d be eb b1 57 bd
       0.005322564 -0.038534734 -0.13801724 -0.05265991
0001e0 a8 8f 4f 3e 6f df 48 bd 32 2f 3b bc 21 df 88 3c
       0.20269644 -0.049041208 -0.011424826 0.016707959
0001f0 55 c1 b8 bb cc ff 23 be 76 cd 46 3c 01 02 ac bd
       -0.0056382813 -0.16015548 0.012133947 -0.0839882
000200 c6 b3 cc bd 55 25 83 39 3d 3b 1d be a1 95 84 bd
       -0.099952266 0.00025014082 -0.15354629 -0.06473852
000210 e2 54 28 bd f2 9c ea bc 4a 68 90 3d 1a a3 ea bd
       -0.041096576 -0.02863929 0.070511416 -0.114568904
000220 7e 04 37 3d a6 bc 87 bd 47 bd d4 3c ae c2 7f 3e
       0.04468202 -0.06627779 0.02596916 0.24976608
000230 d3 25 b2 3b 5c 8c 58 bc cf 77 e3 bb 49 de 0e bd
       0.005436638 -0.013217058 -0.0069417725 -0.034879956
000240 7b 4a a0 3d 37 68 fb bd 88 6d 1b be b1 71 df bc
       0.07826706 -0.12275737 -0.15178502 -0.027275892
000250 0b f7 37 3d 91 85 08 3e 91 5f 0b 3e cd b2 cc bd
       0.044913333 0.13332202 0.13610674 -0.09995041
000260 e9 be e5 bc f9 09 f3 3c c3 c6 c3 bd c6 70 37 3c
       -0.028045135 0.029667841 -0.09559395 0.011196321
000270 ac be 8a 3d 54 57 8c bd 55 eb c8 3d 3f 61 ec bd
       0.06774649 -0.06852594 0.09810511 -0.11541986
000280 64 f8 ed 3c 93 da 87 3d da cb f9 3d 5c 31 7d bd
       0.029049106 0.066334866 0.12197085 -0.06181465
000290 9c 75 71 3d 39 a6 91 bc 34 c3 bb 3c 30 77 64 3b
       0.05895005 -0.017779456 0.022920229 0.003486108
0002a0 d4 01 19 3c a1 9e 5b be 03 cc 08 3e d0 e9 72 bd
       0.009338815 -0.21447231 0.13359074 -0.059305012
0002b0 72 72 c2 3d 13 f7 82 3e 99 56 5f 3c 68 16 4a bd
       0.09494485 0.25579128 0.013631486 -0.049337775
0002c0 24 72 f6 bd 21 06 65 bc fa e5 b4 3c e5 c2 4c be
       -0.12033489 -0.013978512 0.022082318 -0.19996221
0002d0 fe f4 1a bd 5c d1 98 bd a6 bf 1d 3d 53 1e dd 3b
       -0.0378313 -0.07461807 0.03851285 0.0067479997
0002e0 db 79 dd bd 6f 1b 68 bd db 5f 6d 3c 04 40 76 ba
       -0.10814258 -0.056666788 0.014488186 -0.00093936943
0002f0 7e 79 5f be 4e 2e 0d 3d 52 ba 11 3d 6f ab 8c 3d
       -0.2182369 0.034467988 0.03557808 0.06868636
000300 c5 7b 6f 3c a6 c8 cc bd b9 4d db 3d 11 24 6a 3c
       0.014616911 -0.09999208 0.10708184 0.014290825
000310 87 7a 0f bd 87 a4 7b be 46 9a f7 bd dc 44 58 3d
       -0.03502896 -0.24574481 -0.12089972 0.052800044
000320 df 21 23 3e 1b b0 af 3d 01 cd db bc a9 7d 44 ba
       0.1593089 0.08578511 -0.026831152 -0.00074955315
000330 06 1b 8f bb e5 8a 08 3e 0c 55 d4 3d 8a ca bf bd
       -0.004367235 0.13334234 0.10367784 -0.09364803
000340 bc 5d 34 3e 94 5f b2 bd ef 84 2a 3d c9 6f 9d bd
       0.17613882 -0.08709636 0.04163068 -0.07687337
000350 5d 77 af 3c 28 3b 89 bd f4 9e db bc c2 ef 15 be
       0.021419222 -0.06700736 -0.026809193 -0.14642242
000360 99 a0 e8 bd 75 33 b4 3c 93 08 06 bd 49 1f c8 bd
       -0.113587566 0.021997193 -0.03272302 -0.09771592
000370 04 fd 99 3d 3a 4b 09 be a6 d1 f5 bd 39 44 c2 3d
       0.07518962 -0.13407603 -0.12002878 0.09485669
000380 62 d1 ee bc d0 d9 42 bd 52 b4 a7 bd e2 8b 29 3d
       -0.029152576 -0.047571003 -0.0818869 0.04139317
000390 ad 75 c8 3d 7b 4e bd bd b9 ae 07 be 94 a8 0e bd
       0.0978807 -0.092434846 -0.13250245 -0.034828737
0003a0 2c 21 d4 3d b5 14 df 3c ab 63 87 bb 95 83 38 bd
       0.103578895 0.027231554 -0.0041317544 -0.04504736
0003b0 97 27 9c 3d 96 41 cc 3d 74 7c ee bd 41 78 57 bc
       0.07624739 0.09973447 -0.11644831 -0.013151229
0003c0 c3 74 b6 3c 8c 3c ef bd de be 9c 3b f8 81 44 be
       0.022272473 -0.1168147 0.0047834953 -0.19190204
0003d0 43 0d 3c 3e 60 60 77 3d fb 37 c6 bd 65 2a 68 be
       0.18364434 0.060394645 -0.09678646 -0.22672422
0003e0 be d5 cd bc c8 a7 23 3e 0a 28 70 3d 0a 56 b7 3d
       -0.025126334 0.15981972 0.058631934 0.089519575
0003f0 ee c4 0a 3e f3 94 74 bc 06 4b 19 3c 7b 65 03 3d
       0.13551685 -0.01492809 0.009356266 0.0320792

pos_emb.weight f4 [201, 50]
000000 00 00 00 00 00 00 00 00 00 00 00 00 00 00 00 00
       0.0 0.0 0.0 0.0
000010 00 00 00 00 00 00 00 00 00 00 00 00 00 00 00 00
       0.0 0.0 0.0 0.0
000020 00 00 00 00 00 00 00 00 00 00 00 00 00 00 00 00
       0.0 0.0 0.0 0.0
000030 00 00 00 00 00 00 00 00 00 00 00 00 00 00 00 00
       0.0 0.0 0.0 0.0
000040 00 00 00 00 00 00 00 00 00 00 00 00 00 00 00 00
       0.0 0.0 0.0 0.0
000050 00 00 00 00 00 00 00 00 00 00 00 00 00 00 00 00
       0.0 0.0 0.0 0.0
000060 00 00 00 00 00 00 00 00 00 00 00 00 00 00 00 00
       0.0 0.0 0.0 0.0
000070 00 00 00 00 00 00 00 00 00 00 00 00 00 00 00 00
       0.0 0.0 0.0 0.0
000080 00 00 00 00 00 00 00 00 00 00 00 00 00 00 00 00
       0.0 0.0 0.0 0.0
000090 00 00 00 00 00 00 00 00 00 00 00 00 00 00 00 00
       0.0 0.0 0.0 0.0
0000a0 00 00 00 00 00 00 00 00 00 00 00 00 00 00 00 00
       0.0 0.0 0.0 0.0
0000b0 00 00 00 00 00 00 00 00 00 00 00 00 00 00 00 00
       0.0 0.0 0.0 0.0
0000c0 00 00 00 00 00 00 00 00 c0 1d 74 3d e3 55 d1 3b
       0.0 0.0 0.059598684 0.0063884123
0000d0 69 f5 2c bd 2c 70 20 3e 9f 45 40 bd 4a 3b 25 3e
       -0.04222623 0.1566779 -0.046941396 0.16135898
0000e0 6a b9 1e 3e 2f 94 0a be f3 84 16 3e 5e 7f 8d 3d
       0.15500417 -0.1353309 0.14699154 0.06909059
0000f0 a2 93 12 3e e9 e0 65 3e 38 74 c6 3c 05 17 d0 bc
       0.1431413 0.22449078 0.02422534 -0.025401602
000100 ab 5b 3e bb fc b6 37 3d 94 a4 d2 3d b6 db b8 bc
       -0.0029046338 0.044852242 0.10285297 -0.022565704
000110 28 61 b6 bb 70 ec 0e bd 2d 71 39 3c 9d 9a 18 3d
       -0.005565781 -0.034893453 0.011318487 0.037256826
000120 da 98 e1 bd f8 4a e5 3d 70 c8 96 be 70 19 a2 3d
       -0.11015482 0.1119594 -0.29449797 0.07915008
000130 b0 7f 88 3c 2e ec 88 bc 0a 59 cd 3d bb dd 5b bc
       0.016662449 -0.016714182 0.100267485 -0.013419564
000140 5b c1 90 3c 2f 64 b0 3d 98 e9 ee 3d 5a 3f d6 bd
       0.017670324 0.086128585 0.11665648 -0.10461302
000150 8b ee 40 3e f9 19 0e 3d 8b 4b 87 3e 92 dc 9c bd
       0.18840997 0.03469274 0.26424822 -0.07659258
000160 58 5e e7 bd af 60 14 3e 48 10 52 bc 37 ff e4 bd
       -0.112972915 0.14490007 -0.012821265 -0.11181491
000170 56 bd 03 3e b3 4b 41 3c 5f 72 40 3b 1c 5d 6d 3d
       0.12865195 0.011797833 0.0029365045 0.057950124
000180 a8 3e 99 3d 4b 1f 9d bd ca 3e fe bd 4a a4 87 3d
       0.07482654 -0.07671984 -0.1241432 0.066231325
000190 a2 ad c5 3c d7 12 22 bd 8f e9 da 3d 76 bf 9f bd
       0.024130646 -0.03956875 0.10689079 -0.0780019
0001a0 85 3f ef bc 54 b6 3c 3d b8 7e 1b 3d 76 75 79 bd
       -0.029205093 0.04607232 0.037962645 -0.060903035
0001b0 3e 7a c6 3d c0 f2 69 3e e2 79 a1 3d da 2f e1 3d
       0.096912846 0.22846508 0.078845754 0.10995455
0001c0 1f ce b6 bd 10 88 be bd 9c b6 ca 3d e7 fb c8 bc
       -0.08926033 -0.093032956 0.09898111 -0.024534179
0001d0 7e 18 ab 3d b8 14 3b bd 38 fe f2 3c 8a 5a 04 be
       0.08354281 -0.045674056 0.029662237 -0.12925163
0001e0 f1 02 ae 3d 40 69 fd bd 8e 5e bc 3c 6a 48 eb bd
       0.08496655 -0.123735905 0.022994306 -0.11488421
0001f0 7d 74 e2 bb a7 9e c7 3c db 2e 3f bd c9 b7 8b 3d
       -0.006910859 0.024367644 -0.046675544 0.068221636
000200 58 87 54 3d d8 6c 58 3c 5b ee 90 3d a7 11 15 3e
       0.051886886 0.013209544 0.07076713 0.14557515
000210 3c 88 24 3d 18 d7 8c bd d6 f9 94 bd 7e a4 36 bd
       0.040168986 -0.068769634 -0.07274215 -0.044590466
000220 a4 76 22 3e fa 9a e5 bd aa ff ee bd b6 06 fd 3c
       0.1586557 -0.112112 -0.11669858 0.03088699
000230 e6 e8 9b bd 23 ac 98 bc 04 49 19 3e c1 f9 b6 3c
       -0.07612781 -0.018636769 0.1496926 0.022335889
000240 51 ee da bc 9a 59 c4 3d bc 5e 61 3d 7d 3a a9 bd
       -0.026724966 0.09587403 0.055021986 -0.08263109
000250 5f 34 8a be b8 bb 58 3d 89 f9 97 bd 41 e3 59 3c
       -0.2699308 0.052913398 -0.07420642 0.01329881
000260 68 0e 30 3c 31 f8 7a 3d 67 77 18 bc b3 8a f4 3d
       0.010745622 0.06127185 -0.0093058115 0.11940517
000270 a7 09 0b bc 1f cb ce bd 2d fd 1b 3e a8 a3 08 3e
       -0.008486188 -0.10097336 0.15233298 0.1334368
000280 63 6e 28 3d 26 da 9c bd 9f c6 17 3e 6e 03 25 3c
       0.041120898 -0.07658796 0.14821862 0.0100716185
000290 68 40 2b be 6d 73 53 bd 1c 6e cd 3d 9b 39 83 bd
       -0.16723788 -0.05162375 0.10030767 -0.06407472
0002a0 25 c6 22 3d 58 58 05 bd de 08 5a 3d 2e 04 ba bd
       0.039739747 -0.032554954 0.053231113 -0.090828285
0002b0 25 5e 01 3d 71 9e 8c 3c 1a ab fc 39 67 34 8e bd
       0.031583924 0.017165394 0.00048192666 -0.06943589
0002c0 87 55 33 3c 7a 50 be 3d cc 9e 2d 3d 20 37 3d 3d
       0.010945684 0.092926934 0.04238777 0.04619515
0002d0 b3 4c 4a 3e 0e 2d 07 bc 44 b5 b9 3d 23 c4 89 3d
       0.19755821 -0.008250488 0.09067777 0.06726863
0002e0 42 55 4d 3d 49 67 dd bd 4f 48 ca 3d 5b 19 a7 bd
       0.050130136 -0.10810716 0.09877073 -0.08159133
0002f0 da ed 2f be 69 e6 39 3e df 1f 85 3d 6b b4 f5 bd
       -0.17180577 0.18154301 0.065002196 -0.119973026
000300 07 a1 fa 3d c0 6d 3a bd c6 18 50 bd ae 9d f4 bd
       0.12237745 -0.045514822 -0.050804876 -0.119441375
000310 11 dd b5 ba 23 d8 78 bd e3 8c 7a bd 0b ad 4e 3d
       -0.0013875087 -0.060753 -0.061169516 0.050457995
000320 3a 14 21 bc a0 03 16 be a5 16 bc 3c 63 44 92 3d
       -0.009831483 -0.1464982 0.022960017 0.0714195
000330 4e 44 c5 bd d5 5e 96 3c 4f db 4e 3d 86 8d 96 3d
       -0.09632169 0.018355766 0.050502118 0.07351212
000340 90 6c 0c 3e c1 3b fd 3d be 1c 7e 3d f6 b8 ac 3d
       0.13713288 0.12364913 0.06203913 0.08433716
000350 9e 01 ed 3d 06 38 97 3d 86 9d 0a 3d f3 0e 77 3c
       0.11572574 0.073837325 0.033841632 0.015079248
000360 5d f3 04 3e 7c c7 ba bc 97 5b 10 3d 42 83 52 bd
       0.1298346 -0.0228002 0.035243597 -0.05139471
000370 0b 89 15 3d d3 cd 05 bc 39 dc 4c 3d 32 2b 52 3d
       0.036507647 -0.008166748 0.05001471 0.051310726
000380 2f 01 b0 bd 60 83 9c bc fc 7e 8b 3d b4 be a4 3d
       -0.08593976 -0.019105613 0.0681133 0.08044186
000390 6c 94 6d bd 72 2b 0f 3e 6a f5 af 3b c2 bf b6 3d
       -0.058002874 0.13981417 0.005369832 0.08923294
0003a0 20 b9 bb 3d 95 6a 9c 3d 97 0a bb 3d 7f bc da 3c
       0.09166169 0.076375164 0.09132879 0.02670121
0003b0 29 31 3c 3e 9f 1c f7 bd fd b0 80 bd 14 1f 2a 3e
       0.18378128 -0.12066006 -0.06283758 0.16613418
0003c0 a3 c1 0b 3d 78 40 9e 3c ca 94 18 3e a3 7e cc 3a
       0.034120213 0.01931785 0.14900509 0.0015601706
0003d0 01 b7 1c bd 61 e5 ac 3d f4 20 0e 3e 22 4f 95 3d
       -0.038260464 0.08442188 0.13879758 0.07290484
0003e0 0c 3c 95 bd 7d 6e 43 3a d0 ab 8a bc cb a0 0c bd
       -0.07286844 0.00074551237 -0.01692763 -0.03433303
0003f0 f0 0e ce bd f5 1f bc 3d 18 da 40 3a 9a 80 f4 3d
       -0.10061443 0.09185783 0.0007356717 0.11938591

model.Layernorm.weight f4 [25]
000000 19 97 8d 3f ff 27 79 3f cf 82 81 3f fc 4c 79 3f
       1.1061736 0.97326654 1.0118045 0.97383094
000010 5d 14 8f 3f 71 26 8a 3f d2 be 86 3f d1 53 80 3f
       1.1178089 1.0792981 1.0526984 1.0025579
000020 fb d3 83 3f e3 d0 6d 3f 27 5e 60 3f 81 f3 74 3f
       1.0299066 0.9289686 0.87643665 0.9568406
000030 24 46 8e 3f 45 04 82 3f 3d f9 7d 3f 0f 5d 7f 3f
       1.1115155 1.0157553 0.9920843 0.9975137
000040 d3 f5 57 3f 3e 65 8f 3f 93 df 7d 3f b4 df 82 3f
       0.84359473 1.1202772 0.9916927 1.0224519
000050 66 4b 68 3f 2b 01 66 3f a3 aa 8d 3f 09 bc 78 3f
       0.9074005 0.8984553 1.1067699 0.9716192
000060 74 32 7a 3f
       0.97733235

model.Layernorm.bias f4 [25]
000000 90 63 98 bd 8f 80 8d 3d e2 71 1f bd b8 82 dd bd
       -0.07440865 0.06909286 -0.038926966 -0.10815948
000010 f8 34 63 3d e6 24 33 3d a0 3e e2 3d 17 2c 3c bd
       0.055470437 0.04373636 0.11047101 -0.045940485
000020 d1 d5 a0 3d 4a 53 59 bd 8f 7e d0 bc e1 36 f5 3d
       0.07853282 -0.053057946 -0.025450973 0.11973358
000030 0f 89 f9 3a 1c 3b 0c bd d8 a1 b2 3a 9f 5e 5e bd
       0.0019038039 -0.03423606 0.0013628555 -0.054289456
000040 03 0e be 3d 43 f3 8e bd fe bd a3 3d d0 33 8c 3d
       0.09280016 -0.06979992 0.079952225 0.0684582
000050 0e 9a 1f bd 32 d8 35 bd 2e 1c a1 bd d3 5d 8f 3b
       -0.038965277 -0.044395633 -0.07866703 0.0043751984
000060 bf 11 9f bd
       -0.07767057

model.w_q.0.weight f4 [25, 25]
000000 e4 c9 7d be e8 14 23 3d 81 ed 95 3d fd a1 8b 3d
       -0.24784046 0.03981486 0.07320691 0.06818006
000010 49 78 60 be 60 f8 9e 3d 46 2c 65 bd aa a8 68 3c
       -0.21920885 0.077622175 -0.055950426 0.014200369
000020 c7 91 3b bc a6 d9 be 3e 18 51 af be f9 91 e6 3c
       -0.01144833 0.37275428 -0.34241557 0.028145777
000030 9d 89 42 3e d2 ab 13 bf a4 ed 8e bd 6e 64 53 3e
       0.18997808 -0.5768405 -0.0697892 0.2064378
000040 53 3d 93 3c d5 9f ad bc 7a 6d 9d be 39 53 a0 be
       0.017973578 -0.021194378 -0.30747586 -0.31313494
000050 24 5b bf bc f7 05 22 bc bd e1 25 3f dc 39 25 3d
       -0.023358889 -0.009889117 0.64797574 0.040338382
000060 4c ca 1b be b8 d0 6f be 9a 51 a3 3e 4b 9f d1 3d
       -0.15213889 -0.23419464 0.31898195 0.10235461
000070 2c 0f 38 be 50 6f cb bd 4f c4 49 3e 2c a2 73 be
       -0.17974538 -0.099333405 0.19703792 -0.23792332
000080 f6 b7 8c be f4 99 df 3d 74 8c c4 be 94 47 dc be
       -0.274841 0.10918036 -0.38388407 -0.4302336
000090 8b f4 1e 3f f5 3e ea 3e 00 85 6e be 01 fc 4e 3e
       0.6209189 0.45751157 -0.23292923 0.2021332
0000a0 3a 69 0a 3e 30 b7 9a 3e 9a 75 15 3e e2 75 71 3e
       0.13516703 0.30217886 0.14595643 0.23580125
0000b0 f2 52 b9 bd d3 a9 1e 3c cc ab b2 be db 50 13 bd
       -0.09049024 0.009684044 -0.34896696 -0.03596578
0000c0 e8 fa 18 3d 2a 48 2b bd bc a1 07 bf e7 8f 38 be
       0.037348658 -0.041816868 -0.5298116 -0.18023644
0000d0 48 15 71 be 3b ab 81 bd 9a 4c 0f 3f e7 ca 97 3e
       -0.23543274 -0.06331488 0.5597626 0.2964699
0000e0 22 9c 34 3e 59 c8 85 bd 95 89 3e 3e 3a 5d c6 be
       0.17637685 -0.06532354 0.18607171 -0.38743
0000f0 8c 61 1e be b4 ff 0e be e3 ec d7 3d e5 d3 9e 3d
       -0.15466899 -0.1396473 0.105432294 0.077552594
000100 b1 19 1e 3e e3 b3 68 3e a8 38 bd 3e 10 52 0e bf
       0.15439488 0.22724871 0.36957288 -0.5559397
000110 c2 b2 d9 3e 8d db 90 3e e9 08 0a bf 25 f1 00 3e
       0.42519194 0.28292504 -0.53919846 0.1259199
000120 97 1e 6d be 67 39 f2 bd a8 87 91 be e2 e2 69 3d
       -0.231562 -0.11827355 -0.2842381 0.057101138
000130 b3 9a 9b bd 71 69 07 bf 1b 2c 26 bd 51 dd 78 3e
       -0.07597866 -0.52895266 -0.040569406 0.24303176
000140 8a 8d d3 3d 3f 79 9a be da 9f 2f be d8 77 1a be
       0.10329731 -0.30170628 -0.17150822 -0.1508478
000150 02 60 b2 bd ef 2c 3c be 74 64 7b 3e f6 4c 3c be
       -0.08709718 -0.18376516 0.24550039 -0.18388733
000160 d1 9f 8d 3e e5 58 7e 3e 1e a4 d2 be 1f af e8 3e
       0.27660993 0.24838598 -0.41140836 0.45446107
000170 5b 57 bd 3d cb 19 09 3e 2a e8 be 3e 07 8a 99 3e
       0.09245177 0.13388745 0.37286502 0.2998812
000180 48 25 f6 be c5 cf 69 3d a9 12 73 be d0 ab fd bc
       -0.48075318 0.05708291 -0.23737587 -0.030965716
000190 b2 0d 23 3e 95 f3 67 3e 06 ec 5e 3e 70 fa df be
       0.15923193 0.22651513 0.21769723 -0.43745756
0001a0 b2 6c e9 bc 26 35 89 bd d0 a7 9f 3d 10 ef a6 3e
       -0.028494213 -0.066995904 0.077956796 0.32604265
0001b0 ac 0a 0d be 3d 1b 49 be 08 95 32 3e 2f 79 ae be
       -0.13773602 -0.19639297 0.17439663 -0.3407683
0001c0 22 c2 25 3e bb 60 15 3f 9e 34 d1 be d6 5d 94 3e
       0.16187337 0.58350724 -0.40860456 0.2897784
0001d0 35 c9 4f be 2f 6f cb bd ef 65 08 bf 9f 30 36 bd
       -0.20291598 -0.09933316 -0.5328054 -0.044479962
0001e0 f2 eb 20 3f 83 fb ed 3e 1f 1c 7c be 06 95 98 3d
       0.62860024 0.4648095 -0.24620102 0.07450299
0001f0 ec 3e 40 3f db 69 74 3e 97 e2 aa be cf e6 86 3d
       0.7509601 0.23868506 -0.33376 0.06586992
000200 43 c8 9a be 7a 8f 2e bc ae 57 31 be 40 27 c1 3e
       -0.30230913 -0.010654325 -0.17318603 0.37725258
000210 d2 32 04 3e 88 13 8b 3e 6a e0 a9 3d 30 70 85 be
       0.12910011 0.2716334 0.08294757 -0.26062155
000220 dc d4 85 3c ff 0e 84 3d 05 f5 0d bf 2b b9 69 b7
       0.01633685 0.06448173 -0.55451995 -1.3930995e-05
000230 5a 6e d4 be d0 c1 78 3e 13 7e 51 3e ac 17 be 3e
       -0.41490442 0.24292684 0.2045825 0.37127435
000240 ac 0c d9 3e 35 0b aa bd c5 b4 1c be a0 3c c9 bc
       0.4239248 -0.08302919 -0.15303333 -0.024565041
000250 00 f6 de bb 38 ac 28 bc e5 bc c8 3e ed 63 dd bd
       -0.006804228 -0.010294966 0.39206615 -0.10810075
000260 db ab 08 bf 39 08 95 3d 3c f0 d7 3d ac 8d 39 bd
       -0.5338723 0.07276959 0.10543868 -0.045301124
000270 ae ce 5d 3d fb 38 7f be cd 37 eb bd 8b 81 88 3d
       0.054152183 -0.2492408 -0.114852525 0.06665333
000280 2e cf 94 3d 7b 7b 67 3e 35 3b b7 3d f5 a6 8e bd
       0.07266079 0.22605698 0.0894684 -0.06965438
000290 a1 90 00 be 1c 87 2a be 1d 24 81 be cc a8 db bd
       -0.12555172 -0.16653103 -0.25222865 -0.10725555
0002a0 4c 41 1b bf 1f 8f 0d 3d 48 7f be 3d 77 53 88 3e
       -0.6064651 0.03456032 0.09301621 0.2662618
0002b0 1a 3a 20 3d 86 5b a5 bd 68 83 86 3e 88 13 ed 3d
       0.03911791 -0.08074097 0.2627213 0.11575991
0002c0 f2 e1 e0 be c0 26 36 be 86 7f 96 3c 7a 72 19 be
       -0.43922383 -0.1778822 0.018371355 -0.14985076
0002d0 20 69 fc 3c 08 47 e4 be f6 01 97 3e c2 49 22 3e
       0.030811846 -0.44585443 0.29493684 0.15848449
0002e0 b3 6d 62 be 82 e4 23 3d 88 ea bc bb 26 45 fc bc
       -0.2211216 0.040012844 -0.005765263 -0.030794691
0002f0 ce 25 20 be aa 61 58 bd 3a dc c8 bd 47 d4 54 3e
       -0.15639421 -0.052827515 -0.0980763 0.20784102
000300 5f 7d fd 3d c9 85 9d bd 54 64 dc 3d 3f 61 de 3d
       0.12377428 -0.07691533 0.107613236 0.10858392
000310 7c fc 18 3e 8e 31 47 3e 25 0f 1d 3e 4c 9f 7f 3e
       0.14940065 0.19452497 0.15337808 0.2496311
000320 8b bf 06 be b5 20 f4 3d 01 e6 d1 3d b3 24 a3 3d
       -0.13159005 0.11920301 0.10248948 0.07965984
000330 1f 66 c1 be 43 9a 4f be ad f2 0a bf ed ec 82 3d
       -0.37773225 -0.2027369 -0.54276544 0.06392846
000340 03 fd f3 be 4e ce 16 be 00 ef 13 3e f9 80 20 bf
       -0.4765397 -0.14727136 0.1444664 -0.62696797
000350 55 2e be 3e 5d df 1a 3f c4 36 96 3d 7d 10 a2 bd
       0.37144724 0.60497075 0.073346645 -0.07913301
000360 66 50 f5 be d2 a7 a2 be 64 79 e3 bd d1 c6 38 be
       -0.47912902 -0.31768662 -0.11107138 -0.18044592
000370 5d bd 02 bf 1e dc f0 3e 34 6f bd 3e ee 6b e4 bd
       -0.51070195 0.47042936 0.36998904 -0.111533985
000380 ef 85 d9 3e c4 f9 da bd 75 02 85 3d 3b 50 01 3e
       0.42484996 -0.1069217 0.06494609 0.12628262
000390 3c 86 f3 3c f3 bc bd 3c 99 44 68 3d 73 38 3e bd
       0.029727094 0.023161387 0.056706045 -0.046440553
0003a0 b3 a1 df bd a9 f0 75 3e 55 c4 2e be 71 f6 25 bd
       -0.109195136 0.24017586 -0.17067082 -0.040518228
0003b0 4f 41 87 be 2d 4e cf 3e 42 69 d4 3e ba 9e 23 be
       -0.26417014 0.4048933 0.41486555 -0.15978518
0003c0 b7 c7 96 3d dc 9a 00 bf ef 72 22 3e 45 89 af 3e
       0.07362311 -0.50236297 0.15864156 0.34284416
0003d0 f1 c0 06 be 54 1e 16 3e fd 93 3d be 6a 7d 16 bf
       -0.13159539 0.14660007 -0.18513484 -0.58785117
0003e0 a9 6f 0c 3e ac dc ad bc 24 ec 71 be 75 4f 14 3d
       0.1371447 -0.021223389 -0.23625237 0.03620859
0003f0 ad 2d 65 3e fb 0e 27 be ca 55 a5 3e 53 5e 83 3d
       0.22380705 -0.16314308 0.32292014 0.06414475

model.w_q.1.weight f4 [25, 25]
000000 c3 b2 4c be 6e cf 2b be 0b 60 cb 3e 02 9a 2d 3e
       -0.19990067 -0.16778347 0.39721712 0.1695328
000010 42 dd 1e bf b0 b6 47 3f 9b 42 ce bc 71 67 f0 bd
       -0.6205636 0.78013134 -0.025178244 -0.1173848
000020 4f 96 00 3e 66 5d 9e 3e 65 ef 00 3e 3f e5 72 be
       0.12557338 0.30930632 0.12591322 -0.23720263
000030 fa 81 77 3d 1e 9f 7d be 4d 48 6a bd 63 f1 97 bd
       0.06042669 -0.2476773 -0.057197858 -0.07419088
000040 3d 59 51 3b 7d bc a3 be 74 8d af bd 39 1e 34 be
       0.003194406 -0.31979743 -0.08571902 -0.17589654
000050 b0 0f 0e be 15 74 9e 3e c2 93 db 3d c4 da 73 3e
       -0.13873172 0.3094794 0.10721542 0.23813921
000060 75 df f8 bd 6c 9d 5c be 46 96 8b 3e a0 c5 e3 3d
       -0.12151996 -0.21544427 0.27263087 0.11121678
000070 dc 13 ee be 9d 93 67 3e 5c a0 95 3e 4c 9b a9 3e
       -0.46499527 0.22614904 0.29223907 0.33126295
000080 b7 e4 5c 3c ac 89 6e 3e ad ea e6 bc 14 c8 bb 3d
       0.013482264 0.23294705 -0.028188074 0.09169021
000090 25 99 09 3f 46 16 08 3d 6f 67 f8 bd 59 67 50 3e
       0.53749305 0.033224367 -0.121291034 0.20351924
0000a0 6f 03 d9 3d 42 f0 83 bc ea f5 8b bd 52 2b d7 3c
       0.10596358 -0.016105775 -0.06834014 0.026265774
0000b0 0e 43 20 3e 38 a1 ff 3d 37 be 21 bf e4 c9 a4 bd
       0.1565058 0.12481922 -0.6318087 -0.0804632
0000c0 cd 39 74 be 80 9f 51 be 05 e3 57 be 1f bc 0f bd
       -0.23850174 -0.20471 -0.21082695 -0.035091516
0000d0 71 cf ac be f5 7e d6 be c5 8b d8 3e f2 14 77 3e
       -0.33752015 -0.41893736 0.42294136 0.24129084
0000e0 66 9f 9e bd d6 89 6d 3c 3c 22 c3 3e 63 6c b5 be
       -0.077452466 0.014498195 0.38112056 -0.35434255
0000f0 28 b0 14 bf 71 2f f7 3e 47 e0 2e 3e 9c 96 f5 ba
       -0.58081293 0.48278382 0.17077743 -0.0018736902
000100 a6 5e 23 3e 9d aa 5d be 39 90 37 be b7 f0 d0 be
       0.15954074 -0.21647115 -0.1792611 -0.4080865
000110 19 13 25 3f d3 25 7a 3e e4 98 53 3e 0e 6d 8b be
       0.64482266 0.24428491 0.20663792 -0.2723164
000120 28 d0 cf be eb ef 3a 3e 5f db ac be b5 57 97 be
       -0.40588498 0.18255584 -0.33761117 -0.29559103
000130 ff df 88 bd d9 fb 8c bd 77 75 c0 bd 25 47 aa 3e
       -0.06683349 -0.06883974 -0.09397405 0.33257404
000140 9b 1e 2d bd 66 fe 84 3d 84 79 77 bd 32 24 03 bb
       -0.042265516 0.06493835 -0.06041862 -0.0020010588
000150 f5 f2 b3 3d 49 8e 96 be 55 d5 e5 3e 1f 9f b1 bd
       0.08786575 -0.2940543 0.44889322 -0.08672928
000160 99 53 ad 3d 81 b2 9f be b2 5e 0b be 2d 16 23 3e
       0.084632106 -0.31190875 -0.13610342 0.15926428
000170 d6 e5 29 be 41 b7 97 3e c4 c1 6f bc 45 e9 b1 3d
       -0.16591582 0.29632 -0.0146336 0.08687071
000180 cc 35 30 be ae ac b1 3e 59 74 7a 3e 85 cc 86 be
       -0.17208022 0.34702057 0.24458446 -0.2632791
000190 00 8e 0f be a9 c7 cb 3e 2c 68 7b bd ef 0c 46 be
       -0.14019012 0.39800766 -0.061378643 -0.19340871
0001a0 77 b3 c7 3c 12 29 d5 be 4b a8 cc 3d 24 07 c7 bc
       0.024377568 -0.41632897 0.09993037 -0.024295397
0001b0 a6 47 08 3e 9e a6 7b bd 81 3c 17 3f 7e 19 d9 be
       0.13308582 -0.061438195 0.59076697 -0.42402261
0001c0 2e 2f e8 3e df aa f1 3e 7e 3d 99 3d 36 93 a3 bd
       0.45348495 0.47200677 0.07482432 -0.07987063
0001d0 fc fb 22 bc 71 d3 d9 3d ce 7a 99 bd f0 33 f5 3d
       -0.009947773 0.106360324 -0.07494126 0.11972797
0001e0 a0 e1 f5 3e d3 20 11 3e 2e 89 66 3e 65 85 d4 be
       0.480237 0.14172678 0.22513267 -0.41508022
0001f0 97 56 0a 3f e2 f7 a5 be b7 14 00 bf 66 5c 14 3d
       0.54038376 -0.32415682 -0.5003161 0.03622093
000200 fc 84 32 3e 98 c8 a8 3e 4d 28 c8 bc 72 f9 6a 3e
       0.17433542 0.3296554 -0.02443328 0.22946718
000210 88 16 f7 be 53 f2 64 3e 70 ac 83 be 28 13 e6 be
       -0.48259377 0.22358064 -0.25717497 -0.4493649
000220 2c 65 58 3e 81 cb 90 3e 1d 7e bb bc 44 1b b1 3d
       0.21132344 0.2828026 -0.022887284 0.08647779
000230 0a f2 aa bd bd 66 24 3e 44 cd bc bd cd 31 43 3e
       -0.083469465 0.16054817 -0.09218839 0.19061966
000240 2c f3 76 be ba 21 bc 3e b9 2e c9 bd 9a fa 92 3d
       -0.241162 0.3674448 -0.09823365 0.07176705
000250 fa d6 15 be 6a 1b 1f bd 15 b1 9c 3e 9b d5 b5 3e
       -0.14632788 -0.038844503 0.30603853 0.3551453
000260 7d c5 b8 bc 3a 75 b7 3d 02 ef 3b be d8 0f 99 bd
       -0.022555107 0.08957906 -0.18352893 -0.07473725
000270 38 d7 d1 3d c7 27 29 be 6d b8 4a be 34 aa dc 3e
       0.10246128 -0.1651908 -0.19796915 0.43098605
000280 41 2f 20 3e 37 ab f0 bd 8b 3a 84 be 47 6f cb bd
       0.15643026 -0.11751407 -0.25825915 -0.09933334
000290 be 9a 98 3d f0 c2 66 3e fd b3 05 bf 7a ed 95 bd
       0.0745139 0.225353 -0.52227765 -0.07320686
0002a0 ff 1b 02 bf e5 ad d4 bd de 8d 5e 3e be ed 06 be
       -0.5082397 -0.1038473 0.21733806 -0.13176629
0002b0 3b ad db bd 34 b5 98 3e 56 46 dd be 59 03 82 3d
       -0.107264005 0.29825747 -0.43217725 0.06348295
0002c0 0a ed 58 be 8e e0 77 bd 49 62 3a 3e 03 7c a4 3e
       -0.21184173 -0.060516886 0.18201555 0.32125863
0002d0 3c 9b e0 bc f9 7d 6e be 2e 20 7a 3e 1e 72 ab be
       -0.027417772 -0.23290242 0.24426338 -0.33485502
0002e0 c5 9c 05 3d 9f 5c c6 be f5 83 36 be be 13 88 be
       0.03262021 -0.3874254 -0.17823775 -0.26577562
0002f0 77 7c 07 3e c7 2c a3 bd 05 cd 0e 3f da a2 1e 3f
       0.13231073 -0.07967525 0.55781585 0.6196724
000300 ac 45 4a 3e 12 5a cb be bb 28 81 3d 64 d7 a7 3d
       0.1975314 -0.39717156 0.06306597 0.081953794
000310 6a f1 61 3e 24 9f 8b 3b df 76 a4 3e 65 b6 21 3f
       0.22064748 0.0042609144 0.3212194 0.63168937
000320 fd 1c ae 3e f6 e8 ed be 31 31 29 be e3 23 8b 3c
       0.3400649 -0.46466798 -0.16522671 0.016984886
000330 38 5e ad bd f4 60 93 3d c0 b6 08 bf 76 ac dc 3e
       -0.084652364 0.07196227 -0.53403854 0.43100327
000340 99 73 52 be 73 87 e4 bc 2f aa 7e 3e d4 69 89 be
       -0.2055191 -0.027896618 0.24869607 -0.26838553
000350 8a de 39 be 10 21 c0 3e d6 19 3e be 24 98 20 3e
       -0.18151298 0.37525225 -0.18564543 0.15683037
000360 01 2f 1b 3e 54 6f 28 bd 91 ff 35 bf 5b 26 3e be
       0.1515465 -0.041121796 -0.7109309 -0.18569319
000370 e7 0f 79 be e2 04 b0 3e fc d0 36 3f 23 11 7f be
       -0.24322473 0.34378725 0.71412635 -0.24908881
000380 2f f5 07 3f 03 0c dc 3b 87 cd 51 3e 23 1e 6a 3e
       0.53108495 0.006715299 0.20488559 0.22863059
000390 a3 71 06 bc bb 6a 4a be 94 b3 e2 3c ca e5 8b 3e
       -0.008205804 -0.19767277 0.02767352 0.27323753
0003a0 fa 56 77 bd b8 cf 46 3e 1f 76 51 be a9 5f 10 bc
       -0.06038568 0.19415176 -0.20455216 -0.00881187
0003b0 62 47 bc bc 32 2f 02 be 64 46 6a be 49 30 e0 be
       -0.022983257 -0.12713316 -0.22878414 -0.4378684
0003c0 9b 24 ff 3e 38 71 4a 3d 9c 3c 38 be 81 f5 61 be
       0.49832615 0.04942438 -0.1799187 -0.22066309
0003d0 89 39 06 3e 34 cf 53 bd 78 36 3f 3d 8e 8c 06 be
       0.13107885 -0.051711276 0.046682805 -0.13139555
0003e0 2e 8e 18 3d 39 90 e9 3e e1 b6 d7 bd 73 a8 37 bd
       0.037244968 0.45617846 -0.10532928 -0.04483838
0003f0 e1 69 2b 3e 28 49 47 bd d1 53 d9 3e 5a 0c 07 3e
       0.16739608 -0.04865375 0.4244676 0.13188305

model.w_q.2.weight f4 [25, 25]
000000 3c ab d5 bd 96 ab 3e 3d 72 95 37 bf 83 49 d7 be
       -0.10433051 0.046550356 -0.7171241 -0.42048272
000010 b0 3a 08 3f cf 1d a8 3c 8d d8 02 bf a5 30 4b bd
       0.5321455 0.020522026 -0.5111168 -0.049606938
000020 7b 6c 20 be 21 96 73 3e da 49 a0 3e 79 41 39 3e
       -0.15666382 0.23787738 0.31306344 0.18091382
000030 8c 73 db 3e c6 d4 4a be 3f b9 1e 3d 94 63 c6 be
       0.42861593 -0.19807729 0.038750883 -0.38747847
000040 d7 29 6f 3e f2 41 83 3c 4e ee 4c 3e 3b 43 92 be
       0.23355804 0.016022656 0.20012781 -0.28566918
000050 29 b2 bf bd a5 55 bf 3e c7 86 54 3e 12 5d 12 3f
       -0.09360153 0.3737003 0.20754538 0.57173264
000060 46 cd d0 bd e7 16 a3 bd 10 e0 d8 3e f7 4c 75 3e
       -0.10195403 -0.07963353 0.42358446 0.23955141
000070 57 d5 72 3e 5b 5e d0 bd 2a 3a 47 be 12 f0 fa 3d
       0.23714195 -0.10174247 -0.19455782 0.12252821
000080 15 36 e6 be 51 9c ff 3d 81 1f 1a 3e 17 e3 ef bd
       -0.44963136 0.12480987 0.1505108 -0.11713236
000090 1f 89 c6 3e 0c 3c 0a bf 41 02 9e 3e 4d 96 98 3d
       0.3877649 -0.53997874 0.30861095 0.074505426
0000a0 68 bf 45 3e 38 60 aa 3e a2 64 64 3d 83 f1 0f 3e
       0.19311297 0.33276534 0.055760033 0.14056973
0000b0 90 90 9f 3e 24 2d ce bd 43 a5 02 bf ad 75 18 be
       0.3116498 -0.10067204 -0.5103342 -0.1488864
0000c0 55 dc 88 be 61 4f a2 be 61 e1 e6 be 0b ef 8a be
       -0.267306 -0.31701186 -0.45093825 -0.271355
0000d0 3f 35 70 be f9 70 23 3c 96 ae b4 3e da fc 3c 3e
       -0.23457812 0.009975665 0.35289448 0.1845583
0000e0 d2 0b 49 3c 16 99 b8 be 4c 1c a7 3e 94 21 17 3e
       0.012270885 -0.36054295 0.32638776 0.14758903
0000f0 c7 ba 04 3e da c0 74 bd 07 07 74 bd 4b 5d 9b 3e
       0.12961875 -0.05975423 -0.059577014 0.30344614
000100 20 2a c1 3e 27 be 99 bd 0b b6 5c 3e e7 a2 91 bd
       0.3772745 -0.07506972 0.21553819 -0.07111149
000110 b2 27 98 3e da 86 79 bd e5 f6 36 be 1f d1 10 bf
       0.29717785 -0.06091962 -0.1786762 -0.56569093
000120 b3 14 00 be 03 a9 64 3e dc 51 98 be 3a 1f 89 3d
       -0.12507896 0.22330098 -0.29749954 0.06695409
000130 0a e0 d9 be ad 4f 86 3c b9 48 44 3e 11 b5 a9 3e
       -0.4255374 0.016395414 0.19168366 0.33145955
000140 f7 86 a0 bc 23 f7 97 3d ec 3a e8 3d 7c 06 bc 3e
       -0.019595606 0.074201845 0.113393635 0.36723697
000150 db c2 91 3e e4 53 3a 3e 1c c7 de bd 6e 33 40 be
       0.28468975 0.18196064 -0.10877821 -0.18769619
000160 f9 4a 75 be 46 d0 44 be 83 a9 8e 3e 83 6b 36 be
       -0.23954381 -0.19220075 0.27863702 -0.1781445
000170 00 e6 06 be a9 45 4f bd dd cc 8f bc d3 e2 0b 3d
       -0.13173676 -0.050603542 -0.017553741 0.034151863
000180 77 32 79 bd d7 d9 10 3e 98 e6 16 be c3 0c 88 bd
       -0.060839143 0.141456 -0.14736402 -0.06643059
000190 69 88 7c be f1 42 72 3e 98 77 87 be 3a fe 4d bf
       -0.24661411 0.23658349 -0.2645843 -0.80466044
0001a0 ac 73 3c 3e 0d b6 08 be e7 dc cc 3d fa 54 a2 3e
       0.184035 -0.13350697 0.10003071 0.31705457
0001b0 fd 9e 03 3e 2d 2d 26 be 91 e8 1b 3f e5 e9 e1 3e
       0.12853618 -0.1622817 0.60901743 0.4412376
0001c0 46 1b f4 3e 7c 4d bb be 8b 46 9d 3e f9 28 cb 3e
       0.47677058 -0.36582553 0.30717883 0.39679697
0001d0 05 3e f6 bc ff 15 e9 bd 93 17 b4 bc 34 0e a5 be
       -0.03005887 -0.113811485 -0.021983897 -0.322374
0001e0 ca 24 42 3e 8b 12 ab 3e 21 86 3f bd 48 2c 50 be
       0.18959346 0.33412585 -0.046758775 -0.20329392
0001f0 17 9b 7e bd 0c b1 2a 3e 31 0e f3 be 4f 42 40 be
       -0.062159624 0.166691 -0.47471765 -0.18775295
000200 25 ea 9e 3d ca 0d aa 3b f5 b1 3e 3f bd 0f 3a bf
       0.07759503 0.005189632 0.7449029 -0.72680265
000210 fe 07 c0 3e 6c 42 04 bd ee ad 54 3e 94 30 e3 bd
       0.37506098 -0.032289907 0.20769474 -0.1109325
000220 c3 24 97 bc d6 65 0e 3f 0f 93 15 3e 77 25 e1 3e
       -0.018450147 0.5562414 0.1460688 0.43973896
000230 66 07 11 bf 8d 9b 01 bf b7 0b cd 3d ad c8 90 3e
       -0.56651914 -0.50627977 0.10012 0.28278103
000240 cf 60 2d 3e 3b 60 7d 3c 18 7a e2 3e d9 9f 22 3f
       0.16931461 0.015464838 0.44233775 0.6352516
000250 7b 1d 48 3e c5 ff 5b 3e 13 a4 d6 3b 8f 6d 90 bd
       0.19542496 0.21484287 0.006550321 -0.07052147
000260 f5 e9 a9 be 56 b3 09 bf 0d 0d c2 bc 6f 59 91 3e
       -0.33186308 -0.5378927 -0.023687864 0.28388545
000270 a6 03 7e bf d5 c5 af 3e d2 e7 2e bf 44 31 22 bd
       -0.9922432 0.3433062 -0.6832248 -0.039597765
000280 94 86 95 be 7b b1 dd 3e df e0 c4 3d ce 60 a8 be
       -0.29204237 0.4329947 0.09613203 -0.32886356
000290 c4 2b 16 be d3 89 b1 3e fb a8 28 bf d2 b9 1f 3e
       -0.14665133 0.34675464 -0.65882844 0.15598229
0002a0 9a 1d fb bd fa 5e 7f be b2 0f b4 3e 50 ce 48 3f
       -0.122615054 -0.24938574 0.35168225 0.7843981
0002b0 8e 4d d5 3e ec eb 59 3e 2f f1 a8 3e b9 e7 81 3c
       0.41660732 0.21281403 0.32996508 0.015857564
0002c0 7f eb 00 3d 6f f4 7a 3e bf d8 1e bd ec 31 c8 3e
       0.031474587 0.24507307 -0.038780924 0.39100587
0002d0 a3 46 86 3e 1c 13 88 3d 67 48 fa 3d da 92 c9 3e
       0.26225767 0.0664427 0.12220841 0.3936985
0002e0 aa 4e 7a be 35 c6 02 3e 88 96 ee bd 7c 33 49 be
       -0.2444407 0.12770922 -0.11649805 -0.19648546
0002f0 a8 a7 a6 3e f1 7d 82 3e 29 4e f2 3e af 3c 0b be
       0.32549787 0.2548671 0.47325256 -0.13597368
000300 dd f5 ed 3d 4e 91 85 3d 70 82 9f be ec b8 0b 3e
       0.1161916 0.06521855 -0.31154203 0.13644761
000310 7f 72 d1 be ff 88 3d be 80 77 cd be b0 2a a1 be
       -0.40907666 -0.18509291 -0.40130234 -0.3147788
000320 58 45 12 bd 4d c6 15 3f df 0b 3d 3b 9a f9 15 3e
       -0.035710663 0.5850571 0.0028846187 0.14645997
000330 d7 43 32 be c3 c4 8b be 16 b2 0d 3f 46 86 1a 3e
       -0.17408691 -0.27298555 0.5534986 0.15090284
000340 7c f0 a0 3e 00 3e 94 be ae 62 ac 3e be c9 19 3e
       0.31433475 -0.28953552 0.33669037 0.15018365
000350 df 64 a4 be 12 b6 e9 3e 7d b9 83 bd b8 b8 1e 3e
       -0.3210821 0.4564672 -0.064318635 0.15500152
000360 03 66 ed 3e 16 04 f6 3d 50 18 32 bd b4 c9 d7 be
       0.4636689 0.12012498 -0.043480217 -0.42146075
000370 ad 73 19 3e 8f 2b 7d 3d eb f0 b1 be d1 d0 7c 3d
       0.14985533 0.06180912 -0.34754118 0.06172258
000380 08 b2 c4 3d 61 16 8d be 35 25 b0 3e 52 86 5c 3f
       0.09604269 -0.27556136 0.34403387 0.86142457
000390 02 98 89 3d c1 0d 03 bd 73 54 10 bf 22 fc 97 3f
       0.06718446 -0.03199554 -0.5637886 1.187382
0003a0 33 08 fc be fb 9b 56 3f fc 21 df 3e 53 b5 4c 3d
       -0.49225006 0.8383176 0.43580616 0.04997761
0003b0 43 a4 a1 3d e7 30 da bd a4 dc bf bc 5e c2 77 3a
       0.078926586 -0.10653859 -0.02342064 0.0009451265
0003c0 4f 93 4b be 29 c5 cc 3d 79 1e 36 3d 5f 88 00 3d
       -0.19880413 0.09998543 0.044462655 0.031380054
0003d0 c7 ad 4a be 76 3a 0f bf 77 4a 34 bf f0 1e 05 bf
       -0.19792853 -0.5594858 -0.70426124 -0.5200033
0003e0 5d 36 1e be ee 58 d9 3d 3f ba 01 3e 7f 4b 88 3e
       -0.15450425 0.10612665 0.12668703 0.266201
0003f0 cd 84 a8 3b e8 9e 81 be ed c4 e5 bc f0 77 fe 3c
       0.005142784 -0.25316548 -0.028048003 0.03106305

model.w_q.3.weight f4 [25, 25]
000000 76 7c 88 be dd f2 e9 bd 4f 74 b4 be e6 80 06 be
       -0.26657456 -0.114232756 -0.35244986 -0.13135108
000010 3f e3 5d be 55 c6 c9 be 5d 39 8f 3d 4b 84 59 be
       -0.21668719 -0.39409128 0.06993363 -0.21241872
000020 96 ca 92 3e 39 14 fe 3e 97 15 a6 3d 20 94 a2 bd
       0.28670186 0.49624804 0.08109587 -0.07938409
000030 69 ab 0b 3e 86 67 86 3a d5 40 99 be f9 b8 e2 bd
       0.13639607 0.0010254241 -0.29932275 -0.11070437
000040 e4 8b 0a be 23 1a 9c be ef 60 cd 3e 0a a3 96 bc
       -0.13529927 -0.3048869 0.40113017 -0.01838829
000050 35 32 1f bf 9d ce 72 bd b5 db 8a 3e e9 2d 83 3d
       -0.62185985 -0.059279073 0.27120748 0.06405241
000060 69 ca 99 bd 7c 65 0e be d7 cc 99 3e 02 ae 0f 3e
       -0.0750931 -0.139059 0.30039093 0.14031222
000070 8c c3 0e bf 93 fb 1e be 5d c2 46 3d 74 3c ba 3d
       -0.5576713 -0.15525655 0.048525203 0.09093562
000080 55 30 4c 3d 2b 1a 3e bd 14 a0 b6 bd 30 ba f1 3e
       0.04985078 -0.046411674 -0.08917251 0.47212362
000090 96 ce 9c 3e 50 8a 79 be e9 b7 68 3e 8f 01 cc be
       0.30626363 -0.24369168 0.22726406 -0.3984494
0000a0 43 89 db bd 9d bc e6 3e 60 f8 88 be 74 50 ff 3c
       -0.1071954 0.45065776 -0.26751995 0.031166293
0000b0 c9 17 58 3e 56 d1 98 3c 8b ed c5 be 07 99 f1 3d
       0.21102823 0.018654507 -0.38657793 0.11796766
0000c0 f6 77 18 be fa d7 89 be be a1 0e 3e ec 64 61 bd
       -0.14889511 -0.2692259 0.13928887 -0.055027887
0000d0 1a 43 e4 bd ef 3d a9 bd b4 ba f9 3e ee 45 94 3e
       -0.11145611 -0.08263766 0.48775256 0.28959602
0000e0 01 b2 9d be 5a 03 14 be d5 06 e2 3d 48 b4 a9 be
       -0.3079987 -0.14454404 0.11036459 -0.33145356
0000f0 7e 17 2f be cc 7b 61 3e 25 af 60 3e fa 9b 82 be
       -0.17098805 0.22019881 0.21941812 -0.25509626
000100 59 e6 f4 3d a8 73 18 be cd ea 2d be 2a f5 87 be
       0.11957998 -0.1488787 -0.169841 -0.26554233
000110 dd 57 ab 3e 37 68 04 3f cc cb 99 bd 29 22 a7 be
       0.33465472 0.5172152 -0.07509574 -0.3264325
000120 d2 c9 87 be bd d8 a6 be ee ec 4d be 67 ce 81 be
       -0.26521164 -0.32587233 -0.20109913 -0.25352785
000130 eb ac 7d 3d 3b 91 83 be 18 55 07 be da 44 a1 3e
       0.061932486 -0.2569674 -0.13216054 0.31497842
000140 20 0c 09 3e 3e e6 55 3e 0b 70 0d bd d5 2f 95 be
       0.13383532 0.20888612 -0.03453068 -0.29138055
000150 f2 47 8d 3d a0 9b ca 3d 42 18 73 be da 69 f4 be
       0.06898488 0.09892964 -0.23739722 -0.47737008
000160 16 3c fb bc df 51 59 be da 23 bb be 2e 5e 88 bd
       -0.0306683 -0.21222638 -0.3655079 -0.06658588
000170 e6 25 50 3e c1 59 5c 3e f4 82 fb 3d af 99 bb 3d
       0.20326957 0.21518613 0.12280837 0.09160172
000180 22 d6 64 3e 5b 7f d0 be e3 97 a0 bc 73 a0 e2 3d
       0.2234731 -0.40722165 -0.019603675 0.110657595
000190 bc 16 4c 3e 74 e6 9c 3e d4 5f 84 3e ef f4 60 3e
       0.19930547 0.30644572 0.2585436 0.21968435
0001a0 cd 90 75 bd 40 29 fb be 76 f7 6c be 78 7f a0 3d
       -0.059952546 -0.4905491 -0.23141274 0.07836813
0001b0 ff df 01 3e 88 9f 85 3e db fe a5 3e 49 d3 d6 be
       0.12683104 0.26098275 0.32421002 -0.41958073
0001c0 8d 76 21 3f ea 07 bf bd ea 3d 06 be 70 c5 51 bd
       0.6307152 -0.09327681 -0.13109556 -0.05121368
0001d0 34 58 12 be 71 5c 99 be ab d2 b6 3c 9c cc 39 3c
       -0.1429146 -0.2995334 0.022317251 0.011340287
0001e0 31 e0 bf 3e f6 81 6e 3e ac 6f b4 be c5 35 af be
       0.37475732 0.23291764 -0.3524145 -0.3422071
0001f0 6c f0 55 3e f8 68 90 be 04 18 57 be f1 ac e7 be
       0.20892495 -0.28205085 -0.21005255 -0.4524913
000200 3d c8 57 bd 08 fc 68 3e 83 3f 9d 3e 35 e3 01 be
       -0.052681196 0.22752392 0.30712518 -0.12684329
000210 a9 cb 91 3e 07 71 4b 3d 9f 5a 94 be 6d 0d d4 be
       0.28475693 0.04966834 -0.28975388 -0.41416493
000220 31 61 90 3e 3d 73 a1 3e 7e e9 29 be 5d cc b6 3e
       0.2819915 0.31533232 -0.16592976 0.35702792
000230 b3 d6 75 be f0 bc 86 be 00 9a 19 be f6 d3 c3 3e
       -0.24007683 -0.26316023 -0.15000153 0.3824765
000240 25 da 0b 3d f8 d1 22 be fc 35 63 bd 4a 09 07 3f
       0.034143586 -0.15900409 -0.055471405 0.5274855
000250 6f 7b e5 3e 3e 44 e5 be 50 1b b6 3e 9d 59 5b 3e
       0.44820735 -0.44778627 0.35567713 0.21420904
000260 e8 c1 62 be 0a 3a 27 be f4 ec a7 bd b2 5f e9 be
       -0.22144282 -0.16330734 -0.08199492 -0.45580822
000270 dc 33 09 be 82 28 27 3e d3 88 60 be 72 18 c1 3e
       -0.13398689 0.16324046 -0.21927194 0.37713963
000280 66 ab af 3e b1 7c 51 3c fb 68 2b 3d c2 6f 13 3e
       0.34310454 0.012786076 0.041848164 0.14398101
000290 45 0a 55 3d 84 1b 9c bd 99 09 00 be f5 1d f2 be
       0.052011747 -0.07622436 -0.12503661 -0.4728848
0002a0 34 d0 66 bf ef 2d 58 be f3 22 c0 bc 87 b8 27 3c
       -0.9016144 -0.21111272 -0.023454165 0.010236866
0002b0 16 ab 86 3e 77 e9 c1 3c 4a a1 7f 3d ef 49 f8 bd
       0.26302403 0.023670895 0.062409677 -0.12123477
0002c0 d3 51 d0 3d 7b 1e 26 be 98 9b 67 3e b2 47 13 be
       0.10171857 -0.16222565 0.22617948 -0.14382818
0002d0 03 0a 09 be 90 e2 0b 3e d5 6c ea be aa b7 05 be
       -0.13382725 0.13660645 -0.45786157 -0.13058344
0002e0 05 34 6e bd 9b 36 96 3e 9b 43 1d 3d aa cd 45 be
       -0.05815508 0.29338536 0.03839455 -0.19316736
0002f0 e5 8d 94 3e 5c 39 c3 3e 39 50 84 bc 32 86 b9 be
       0.29014507 0.381297 -0.016151534 -0.36235195
000300 1e 4e f7 3e c3 78 7c be 7d eb 93 3e 51 40 1a 3e
       0.48301786 -0.24655442 0.288906 0.15063597
000310 78 bc 5f 3e c7 0e 28 be a2 c1 bb 3d c2 e8 b1 3e
       0.21849239 -0.16411887 0.09167792 0.34747893
000320 03 af 85 bd 19 98 9f 3e 84 a5 4b 3e cc fe 90 be
       -0.065275215 0.3117073 0.19887358 -0.28319395
000330 d1 fb 2c 3e 68 39 83 be 9e 24 8b 3e 27 21 9c be
       0.16892935 -0.25629735 0.27176374 -0.30494043
000340 09 3b 71 bc ca fc 99 be fa f3 af 3e b0 5e 32 3d
       -0.014723548 -0.30075675 0.34365827 0.043547332
000350 56 87 d2 3d 4f 7e 17 3f 20 0d 2c bd 1f 87 ab 3e
       0.102797195 0.59177107 -0.042004704 0.33501527
000360 b5 1e 99 3e f4 08 ca be e8 be a5 be ad a4 da be
       0.2990624 -0.39459956 -0.32372212 -0.42703763
000370 91 2b f7 bd af 6b dc bd 9e a7 a1 bc f2 53 0c bd
       -0.120688565 -0.107627265 -0.019733246 -0.034259744
000380 08 2d a5 3d 39 66 79 be cb 45 b4 3d 27 3b bd 3d
       0.0806523 -0.24355401 0.088023745 0.09239798
000390 0e 89 82 3e a7 25 84 3c 2c 66 f8 3b b0 12 bb 3d
       0.2549519 0.016131235 0.007580539 0.09134424
0003a0 8b 75 92 3e f2 3f e1 3c d5 39 0f 3e a8 c9 e2 bd
       0.28605303 0.027496312 0.13986905 -0.11073619
0003b0 94 29 30 3e 1a 64 41 3e c4 e4 3e 3d 1b f8 b6 3c
       0.17203361 0.18885842 0.046604887 0.022335103
0003c0 7a f5 43 3d 52 4e 01 3e 9c a4 b9 3e 0f 30 e0 3e
       0.047841527 0.12627533 0.362584 0.43786666
0003d0 02 f8 39 bd 42 72 3d 3e a0 e5 ef be fa 02 a6 bd
       -0.045402534 0.18500617 -0.46854877 -0.081060365
0003e0 30 f4 d0 3e 12 db 32 bd be 2d 79 3e 42 00 7a 3e
       0.408113 -0.043665953 0.24333856 0.24414161
0003f0 5b 6e 19 3e 57 29 cd be 33 c6 d1 bd 6f 19 dd 3c
       0.14983504 -0.40070602 -0.102428816 0.026989667

model.w_q.4.weight f4 [25, 25]
000000 22 13 27 bf bc 24 33 3e 6f 55 05 bf e2 6e 84 be
       -0.6526357 0.17494482 -0.52083486 -0.25865847
000010 ce 7f 71 3c b8 dc 39 3e e1 d8 82 be 55 79 3d 3f
       0.014739944 0.18150604 -0.2555609 0.74013263
000020 0c d4 ca be 88 41 01 3e 7e 87 a7 3e 1e b1 04 3e
       -0.39614904 0.12622654 0.3272056 0.1295819
000030 ee c7 fe 3e dd bd b2 be e8 33 fa 3e ba 16 7e be
       0.4976191 -0.3491048 0.48867726 -0.24813357
000040 eb 31 bd bd ea b0 30 3e 40 13 f0 3d 74 f3 f5 be
       -0.09238037 0.17254987 0.11722422 -0.48037302
000050 2a 68 42 3e 45 41 b5 3e 4a 44 96 3d ea 65 30 3d
       0.18985048 0.3540136 0.07337244 0.043065943
000060 17 a4 75 3d e1 d4 9f bd 5e 3c 99 be 2d 35 6c 3e
       0.05997094 -0.07804275 -0.2992887 0.2306716
000070 58 03 04 3e 21 04 f8 3d c3 2d 9a bc 86 81 e5 3e
       0.128919 0.121101625 -0.018820649 0.4482538
000080 cb 05 84 bd 18 b3 3c bd f1 ef bd bd f1 89 70 3e
       -0.064464174 -0.046069235 -0.09274281 0.2349012
000090 3c 6b df 3e 5f 5f a8 be f3 ff 63 3d ee b1 a0 be
       0.436365 -0.32885262 0.055664014 -0.3138575
0000a0 b4 a4 0b 3e af 28 df bc 44 e7 21 3e 90 ef 3c bd
       0.13637048 -0.02724108 0.15810877 -0.046126902
0000b0 e8 72 88 3e c4 7e 69 be 4e 54 0e be 28 fe 9d be
       0.26650167 -0.22802263 -0.13899347 -0.30857968
0000c0 0a e6 bf bd 0a a1 a0 3c 7b 38 1a bd 90 49 98 be
       -0.09370048 0.01960804 -0.03765152 -0.29743624
0000d0 e1 e0 a3 bc 0d c5 22 3f cf 92 10 be ca 60 f5 3d
       -0.020004692 0.63581926 -0.14118503 0.11981352
0000e0 8b 0d 00 be 31 49 ae bd 27 b9 4a be 8b c8 29 be
       -0.12505166 -0.08510054 -0.19797193 -0.16580407
0000f0 74 68 da bd dc d7 98 3e 95 97 46 3d 31 1c 44 be
       -0.10664454 0.29852188 0.048484404 -0.19151379
000100 24 86 09 3e f5 08 85 be 6f c5 15 bc 47 ad 92 3e
       0.13430077 -0.25983396 -0.00914131 0.28647825
000110 3e 29 b4 be 41 60 8d 3d 3d 57 85 be e4 41 c8 bd
       -0.35187715 0.069031246 -0.2604312 -0.09778193
000120 1b 89 97 bb b7 69 a8 be 49 57 7c be df 08 51 be
       -0.0046244985 -0.32893154 -0.24642672 -0.2041354
000130 17 81 ff 39 04 10 8d 3c 1e 89 36 3e 99 cb 45 3e
       0.0004873357 0.01721955 0.17825744 0.19315948
000140 63 98 ce be 20 34 52 ba cc 69 df be 7d 9e 9c 3e
       -0.40350637 -0.00080186315 -0.43635404 0.30589667
000150 d2 26 7a 3d ce 33 82 3c b4 f4 03 3e 21 b1 80 3c
       0.06107218 0.015893843 0.12886316 0.015709462
000160 6b cf e2 be 52 2d b0 3e 0b 86 bc 3e dc 19 61 bd
       -0.44298872 0.34409577 0.36821017 -0.054956302
000170 79 b0 89 be 18 20 c3 3d 86 5b db 3e 05 b0 20 b8
       -0.2689245 0.09527606 0.42843264 -3.8310904e-05
000180 17 3a 54 be 4c 4d 81 be 65 ff c7 3d 3c d1 e7 bd
       -0.20725285 -0.25254285 0.097655095 -0.11319205
000190 eb 41 1f be f3 42 b7 be 5a 68 b5 bd d8 5f 89 3d
       -0.1555249 -0.35793266 -0.08857794 0.06707734
0001a0 c9 56 13 3f fe 0b ff 3e 88 9f 04 bf bf 4f a3 3d
       0.575543 0.49813837 -0.51805925 0.07974195
0001b0 a8 a0 0e be 8a 17 a7 be dc b8 09 be bf a9 ed bd
       -0.13928473 -0.32635146 -0.13449425 -0.11604642
0001c0 a0 70 14 3f 05 3e 7c be 5d 59 3c 3f 7c 9a 94 bd
       0.5798435 -0.24633034 0.7357386 -0.07256028
0001d0 d1 af 0d bf 74 53 37 bd 9f ab 91 bd 08 4a f3 3d
       -0.553464 -0.04475732 -0.07112812 0.11879355
0001e0 57 0f 51 3d 1c 6d a2 bb c4 5c 64 3e 8a c3 2e 3f
       0.05104002 -0.0049568545 0.22301012 0.6826712
0001f0 e8 33 ca 3e b5 4e 1a 3f 20 57 f6 bd 5f 4b 8c bd
       0.39492726 0.6027635 -0.120283365 -0.068503134
000200 b7 9a 03 bf 4f ac a9 3d e9 cf 0c 3f 1c dc 75 bf
       -0.5140795 0.082848184 0.55004746 -0.96038985
000210 93 8c b6 bd 77 d3 04 bf ce b3 b3 3e 8d f0 d1 be
       -0.08913531 -0.5188517 0.35098118 -0.41003838
000220 79 79 39 3e ea 31 2d 3f 92 16 de 3e 73 79 b9 3e
       0.18112744 0.6765429 0.43376595 0.3622547
000230 25 62 90 be 1a f6 ae bd 90 8e 0b bd 29 2e 02 3d
       -0.28199878 -0.08543034 -0.034071505 0.031782303
000240 cf c2 e2 bd aa 28 5a 3f 00 14 ef 3e 4c e4 a7 3e
       -0.11072313 0.852183 0.46694946 0.32791364
000250 62 e1 02 3e a2 a0 6f be e6 7e 7f be 7c f8 70 be
       0.12781289 -0.2340112 -0.24950752 -0.2353229
000260 a1 3f 03 bf aa 16 6b bf 59 0c e7 3d d9 4c f2 3e
       -0.51268965 -0.9183146 0.11281652 0.47324255
000270 fe 18 11 bf 2f 54 4c 3e f9 04 32 bf 53 3b aa be
       -0.5667876 0.19953988 -0.6953884 -0.33248386
000280 f7 bd cc be 67 7b 66 3e 15 6b eb 3e 8c 0f ee bd
       -0.39988682 0.22508012 0.45980135 -0.11624059
000290 ae f6 c2 3e d0 cf 9e bc f5 8e 0f 3e 83 6c 91 bc
       0.38078827 -0.019386202 0.14019378 -0.017751938
0002a0 78 ce 7d bd 52 fc 62 be c3 9f b4 3e 55 af eb 3e
       -0.061964482 -0.22166565 0.3527814 0.46032205
0002b0 ee 9a 28 3f 07 ce c7 3e ba 05 0c 3f 32 62 b3 be
       0.65861404 0.39024374 0.5469624 -0.35035855
0002c0 fb 3c 1b be cb b8 e6 3c c8 c4 ed 3e 61 4a dc bd
       -0.15159981 0.028164288 0.46439195 -0.10756374
0002d0 ae af a8 be 62 91 b3 3e 46 82 4e be 73 0c 09 3f
       -0.32946533 0.35071856 -0.20166883 0.5353462
0002e0 c5 00 4f be f1 15 4f be da c5 ae bc 8d 87 46 be
       -0.20215137 -0.20223214 -0.021334577 -0.19387646
0002f0 74 5c f0 bd 23 36 6f 3c 91 7e 7a be 2c 2d ac 3d
       -0.11736384 0.01460031 -0.24462344 0.08407053
000300 2c 5c 50 be 4d b3 f3 bd 8f 9e 38 3e c9 e8 d0 be
       -0.20347661 -0.11899433 0.18029235 -0.408026
000310 48 11 b6 3d ed 22 8f be d4 b0 84 be 3a 59 15 3d
       0.08890015 -0.27956334 -0.2591616 0.036462046
000320 5d c0 29 bd e5 c4 3c 3d 44 5e 81 3e 87 67 25 be
       -0.041443218 0.04608621 0.2526723 -0.16152774
000330 e8 da 80 bc 4c 73 52 be b8 54 ee 3e 98 a0 c9 be
       -0.015729383 -0.20551795 0.4654901 -0.39380336
000340 89 77 66 3d e1 d2 8f 3d 89 2e 49 3e ab 86 0d bd
       0.05626634 0.07022644 0.19646658 -0.034552258
000350 3c 85 24 bf ac db 2f be cf c5 9b be de 2c 68 3e
       -0.642658 -0.17173642 -0.30424353 0.22673365
000360 32 c4 0c 3f 47 74 e0 3d 4e c0 4b bd d2 fe d0 be
       0.5498687 0.10959678 -0.049743943 -0.40819412
000370 54 be 1d bd f5 4e 51 be 1d ed 24 bf 16 58 8f be
       -0.03851159 -0.20440276 -0.64424306 -0.27996892
000380 6f 69 cb bd 55 64 2a bf 82 8a 93 3e fb b1 ba 3e
       -0.09932219 -0.66559345 0.2881661 0.36463913
000390 05 c5 36 3f a7 d9 1b be 82 51 1e bf 81 1f 17 3f
       0.7139438 -0.15219747 -0.6184312 0.59032446
0003a0 c4 fa ea be 53 0e 04 3f e9 3b a1 3d 43 10 7a 3e
       -0.45894444 0.5158436 0.07872755 0.24420266
0003b0 6e 15 87 be b2 29 2d bf b4 a1 cc bd 7d 74 af be
       -0.26383537 -0.67641747 -0.0999178 -0.3426856
0003c0 12 3e 01 3e 8d c8 2d be 07 c4 0f 3e 75 6a 00 be
       0.12621334 -0.16971035 0.14039622 -0.1254061
0003d0 0f dd 94 3e 80 5b 5e bf 48 ab 43 bf 52 c6 9d be
       0.29074904 -0.8685837 -0.7643323 -0.3081537
0003e0 1c 07 2b bf 2f 70 37 3e a1 43 94 3d 94 c8 67 3d
       -0.66807723 0.17913888 0.07239462 0.05658777
0003f0 2f 9c de 3b 58 7d ce be ee 8c 71 be 1c 0d 93 3d
       0.006793521 -0.40330005 -0.23588917 0.07180235
