ml-1m_default/SASRec.epoch=20.lr=0.001.layer=2.head=1.hidden=50.maxlen=200.pth (torch, 776502 bytes, 22 tensors)

item_emb.weight f4 [3417, 50]
0.0 0.0 0.0 0.0 0.0 0.0 0.0 0.0
0.0 0.0 0.0 0.0 0.0 0.0 0.0 0.0
0.0 0.0 0.0 0.0 0.0 0.0 0.0 0.0
0.0 0.0 0.0 0.0 0.0 0.0 0.0 0.0
0.0 0.0 0.0 0.0 0.0 0.0 0.0 0.0
0.0 0.0 0.0 0.0 0.0 0.0 0.0 0.0
0.0 0.0 0.0884694 0.1321808 -0.030752903 0.052046064 -0.15977994 0.038872756
0.1398919 -0.06476384 0.08470436 -0.0570579 0.07291133 0.049302112 0.11324968 0.015412378
-0.06040209 -0.18801463 -0.094834775 0.047891777 -0.006209863 0.06698059 0.0712291 -0.10457351
-0.07259291 0.16838072 -0.1423432 -0.1307935 -0.16935009 -0.07977055 0.0947735 -0.03299725
-0.09589538 0.025914572 -0.012704788 -0.00593785 -0.054182045 -0.0049113845 -0.05883117 0.1466486
-0.19429287 -0.018042691 0.07461088 -0.09356663 -0.061391003 -0.115630284 0.15518032 0.076812476
-0.045138873 -0.15487704 -0.09906455 0.0598683 0.08412332 0.023414046 -0.0008211911 -0.010244626
-0.034371506 0.046008643 -0.016880171 0.017269328 0.102668025 -0.06337466 -0.07694264 0.019896703
0.024924148 -0.030326968 0.06790667 -0.14514871 -0.02360186 0.0051312773 -0.09533836 -0.046232365
0.12865965 -0.064752504 -0.009479117 0.039785862 0.014852885 -0.12262691 -0.026371453 -0.08039942
-0.048333034 -0.010391863 -0.13106656 -0.05685733 -0.037929624 -0.050609995 0.11454809 -0.08956162
-0.008114877 -0.054798897 0.024193883 0.14524344 0.03387098 0.020330202 0.040306624 -0.021910867
0.03599704 -0.11290156 -0.13063663 -0.031426862 -0.02656083 0.17141195 0.09495306 -0.10937951
-0.008141675 0.011026941 -0.05071244 -0.012621112 0.09087976 -0.08698802 0.13917534 -0.090665944
0.00014396614 0.09750362 0.1127144 -0.0754905 0.029183958 -0.058303706 -0.00084331824 0.04457389
-0.028148975 -0.20262593 0.0747757 -0.048702523 0.058428887 0.1784386 -0.026545558 -0.0677386
-0.12647255 -0.03749475 -0.029040083 -0.18749836 -0.028164595 -0.09527363 0.06916103 -0.027745286
-0.13192628 -0.05021631 7.0514856e-05 -0.02646009 -0.18518691 0.05338559 0.011084426 0.05135257
-0.023345549 -0.09439841 0.103318125 0.027693162 -0.066379674 -0.18885185 -0.09575093 0.054875925
0.12856132 0.0724475 -0.011587577 0.005305936 -0.08721868 0.08297209 0.104334965 -0.11113537
0.15685439 -0.04638805 -0.014801449 -0.0052403444 0.04866713 -0.06802543 0.005343617 -0.15850452
-0.101017326 0.0322614 -0.040288974 -0.072418146 0.05074101 -0.12663874 -0.112899005 0.08157174
-0.010045983 -0.09959689 -0.09414747 -0.00096428156 0.10200555 -0.050648253 -0.10946797 -0.007523787
0.056334138 0.030822825 0.009717318 -0.07396443 0.048194356 -0.00026139166 -0.13419653 0.013900186
0.0346456 -0.097061016 0.038255364 -0.12378817 0.14148736 0.051780723 -0.09205165 -0.18940756
-0.07744652 0.09632965 -0.0158122 0.05422324 0.096909694 -0.044275485 0.0012976293 0.027697025
00000000: 0000 0000 0000 0000 0000 0000 0000 0000
00000010: 0000 0000 0000 0000 0000 0000 0000 0000
00000020: 0000 0000 0000 0000 0000 0000 0000 0000
00000030: 0000 0000 0000 0000 0000 0000 0000 0000
00000040: 0000 0000 0000 0000 0000 0000 0000 0000
00000050: 0000 0000 0000 0000 0000 0000 0000 0000
00000060: 0000 0000 0000 0000 0000 0000 0000 0000
00000070: 0000 0000 0000 0000 0000 0000 0000 0000
00000080: 0000 0000 0000 0000 0000 0000 0000 0000
00000090: 0000 0000 0000 0000 0000 0000 0000 0000
000000a0: 0000 0000 0000 0000 0000 0000 0000 0000
000000b0: 0000 0000 0000 0000 0000 0000 0000 0000
000000c0: 0000 0000 0000 0000 722f b53d 675a 073e
000000d0: 83ed fbbc 412e 553d 5a9d 23be 0a39 1f3d
000000e0: d23f 0f3e e7a2 84bd 7b79 ad3d 8bb5 69bd
000000f0: 8952 953d 03f1 493d 73ef e73d 3384 7c3c
00000100: 2f68 77bd e886 40be bc38 c2bd 2b2a 443d
00000110: 1b7c cbbb 1f2d 893d 90e0 913d a32a d6bd
00000120: 97ab 94bd ff6b 2c3e 6ac2 11be bbee 05be
00000130: 1c6a 2dbe be5e a3bd 9c18 c23d 2028 07bd
00000140: cc64 c4bd cc4a d43c be27 50bc 4c92 c2bb
00000150: feed 5dbd aeef a0bb f4f8 70bd 0d2b 163e
00000160: b6f4 46be 44ce 93bc 97cd 983d dc9f bfbd
00000170: 2275 7bbd 92cf ecbd 97e7 1e3e dc4f 9d3d
00000180: 8ae3 38bd 1698 1ebe 5be2 cabd 7638 753d
00000190: d948 ac3d d0ce bf3c 3445 57ba 13d9 27bc
000001a0: 23c9 0cbd 8f73 3c3d 4948 8abc 6878 8d3c
000001b0: 9d43 d23d 93ca 81bd 1a94 9dbd 69fe a23c
000001c0: ba2d cc3c 4370 f8bc a712 8b3d dda1 14be
000001d0: b058 c1bc 4624 a83b c240 c3bd 265e 3dbd
000001e0: 5bbf 033e f69c 84bd 4c4e 1bbc 80f6 223d
000001f0: 8459 733c d123 fbbd f208 d8bc 73a8 a4bd
00000200: dcf8 45bd a242 2abc 5036 06be 3be3 68bd
00000210: 185c 1bbd 6d4c 4fbd 3098 ea3d 156c b7bd
00000220: 43f4 04bc cf74 60bd 4032 c63c b2ba 143e
00000230: 4cbc 0a3d 868b a63c 8f18 253d 6b7e b3bc
00000240: a271 133d ef38 e7bd 9cc5 05be 74b9 00bd
00000250: 1996 d9bc 9d86 2f3e c076 c23d 5d02 e0bd
00000260: a964 05bc 58aa 343c d9b7 4fbd c8c8 4ebc
00000270: 2b1f ba3d c626 b2bd fb83 0e3e 11af b9bd
00000280: 9ef5 1639 faaf c73d cfd6 e63d c39a 9abd
00000290: 3213 ef3c decf 6ebd 2112 5dba 1c93 363d
000002a0: ae98 e6bc 2c7d 4fbe 0124 993d 4c7c 47bd
000002b0: 2153 6f3d 9cb8 363e 1276 d9bc 89ba 8abd
000002c0: 0582 01be 1894 19bd 78e5 edbc 92ff 3fbe
000002d0: 70b9 e6bc d21e c3bd 4ca4 8d3d 154a e3bc
000002e0: af17 07be 9eaf 4dbd 60e1 9338 d5c2 d8bc
000002f0: a3a1 3dbe d9aa 5a3d 749b 353c 1357 523d
00000300: 2a3f bfbc f453 c1bd 7498 d33d c5dc e23c
00000310: 11f2 87bd 6162 41be 1019 c4bd 94c5 603d
00000320: 94a5 033e 5b5f 943d d2d9 3dbc 6bdd ad3b
00000330: b59f b2bd 45ed a93d 92ad d53d f19a e3bd
00000340: 709e 203e 6501 3ebd c781 72bc 32b7 abbb
00000350: 2f57 473d eb50 8bbd 8219 af3b 024f 22be
00000360: 2ce2 cebd 8824 043d 0d06 25bd f74f 94bd
00000370: ced5 4f3d 96ad 01be 9837 e7bd 160f a73d
00000380: e897 24bc 74f9 cbbd 64d0 c0bd d7c7 7cba
00000390: 49e8 d03d 8b74 4fbd be30 e0bd 1a8a f6bb
000003a0: a0be 663d 2680 fc3c 6335 1f3c aa7a 97bd
000003b0: 7267 453d 650b 89b9 d16a 09be 9bbd 633c
000003c0: 8be8 0d3d edc7 c6bd a8b1 1c3d a784 fdbd
000003d0: 10e2 103e 0618 543d 9385 bcbd 0ef4 41be
000003e0: 489c 9ebd 7b48 c53d 9688 81bc 3019 5e3d
000003f0: 9778 c63d 365a 35bd 3715 aa3a dfe4 e23c

pos_emb.weight f4 [201, 50]
0.0 0.0 0.0 0.0 0.0 0.0 0.0 0.0
0.0 0.0 0.0 0.0 0.0 0.0 0.0 0.0
0.0 0.0 0.0 0.0 0.0 0.0 0.0 0.0
0.0 0.0 0.0 0.0 0.0 0.0 0.0 0.0
0.0 0.0 0.0 0.0 0.0 0.0 0.0 0.0
0.0 0.0 0.0 0.0 0.0 0.0 0.0 0.0
0.0 0.0 0.05078208 -0.017677382 0.018918836 0.07725039 -0.022298373 0.10654709
0.09735451 -0.103308 0.10036736 0.092347406 0.15560319 0.20390444 -0.004820299 -0.012059669
-0.0125672445 0.06059088 0.11007372 -0.041837737 -0.0084285885 -0.030740663 0.04221106 0.05311594
-0.12474658 0.12986653 -0.26545537 0.082084425 0.0028280304 -0.03650055 0.025364729 -0.031048663
-0.021246536 0.030957758 0.106254354 -0.082620725 0.17912257 0.053315137 0.2482708 -0.07631669
-0.04743802 0.13482952 -0.032294706 -0.09876389 0.061886933 0.035477817 0.009861362 0.04670759
0.037296034 -0.04965702 -0.120125085 0.041707322 0.038919628 -0.007964754 0.15361524 -0.15338084
-0.06259396 -0.008429861 0.031161277 -0.06439295 0.044527568 0.18437168 0.15539269 0.1323459
-0.10376023 -0.08451574 0.074890055 0.030060519 0.012725806 -0.07676486 -0.003517265 -0.08135302
0.091430634 -0.1203107 0.038393725 -0.15265788 0.0199709 -0.001475616 -0.05011393 0.023980126
0.08861622 -0.008708335 0.042696003 0.10296 0.035647754 -0.07295866 -0.05150186 -0.04194192
0.13220368 -0.051971477 -0.05630198 0.007316645 -0.051496603 -0.0017749742 0.064010225 0.054585546
-0.0004212349 0.110093154 0.03027505 -0.017690092 -0.2328549 0.036043007 -0.019961594 0.021105258
-0.03262058 0.0014507674 -0.010135323 0.123125814 0.0225115 -0.09531622 0.12831089 0.1307213
0.05482071 -0.05470678 0.12050572 0.03415891 -0.13280562 0.0072179274 0.08688105 -0.0369847
0.020037202 -0.018191226 0.018406486 -0.096763045 0.009842729 0.018510435 0.03831395 -0.037350155
-0.047261827 0.08989228 -0.007363701 -0.009966548 0.16190109 -0.03134663 0.07196854 0.04543964
0.010659881 -0.096920274 0.07430395 -0.011633973 -0.11921129 0.19047436 0.08499266 -0.10557856
0.09045722 -0.0351626 -0.033713464 -0.10497104 -0.039254576 -0.026781779 -0.033354267 0.0038543404
0.008557107 -0.13973759 0.033856407 0.035470184 -0.11001417 -0.0004224479 0.038233746 0.03981819
0.10855055 0.12187147 0.056335606 0.06527897 0.09773856 0.051567607 0.048672646 0.057742026
0.15364598 -0.043885868 0.022724722 -0.06606546 0.057886943 -0.0016346524 0.04039692 0.024510711
-0.056575518 -0.03058504 0.05464735 0.09014016 -0.037097037 0.14901291 -0.010797748 0.110827856
0.09450593 0.06848569 0.07369809 0.062844045 0.17271216 -0.114085 -0.024847629 0.1765161
0.01958843 -0.0010658894 0.14979197 -0.012888809 -0.038883723 0.094387725 0.15189727 0.05606173
-0.06633915 0.0023773434 0.06522662 -0.06630898 -0.08773508 0.037339445 0.025327219 0.18181023
00000000: 0000 0000 0000 0000 0000 0000 0000 0000
00000010: 0000 0000 0000 0000 0000 0000 0000 0000
00000020: 0000 0000 0000 0000 0000 0000 0000 0000
00000030: 0000 0000 0000 0000 0000 0000 0000 0000
00000040: 0000 0000 0000 0000 0000 0000 0000 0000
00000050: 0000 0000 0000 0000 0000 0000 0000 0000
00000060: 0000 0000 0000 0000 0000 0000 0000 0000
00000070: 0000 0000 0000 0000 0000 0000 0000 0000
00000080: 0000 0000 0000 0000 0000 0000 0000 0000
00000090: 0000 0000 0000 0000 0000 0000 0000 0000
000000a0: 0000 0000 0000 0000 0000 0000 0000 0000
000000b0: 0000 0000 0000 0000 0000 0000 0000 0000
000000c0: 0000 0000 0000 0000 df00 503d 28d0 90bc
000000d0: adfb 9a3c 7435 9e3d 14ab b6bc 5c35 da3d
000000e0: cd61 c73d 2593 d3bd 678d cd3d a320 bd3d
000000f0: 7156 1f3e 53cc 503e 99f3 9dbb eb95 45bc
00000100: d8e6 4dbc 252e 783d 556e e13d 0c5e 2bbd
00000110: 1018 0abc d8d3 fbbc 81e5 2c3d 1a90 593d
00000120: 237b ffbd bbfb 043e c4e9 87be e11b a83d
00000130: 7a56 393b 9a81 15bd b1c9 cf3c c459 febc
00000140: 370d aebc 209b fd3c e29b d93d 0e35 a9bd
00000150: e86b 373e f960 5a3d b33a 7e3e ed4b 9cbd
00000160: 5f4e 42bd c010 0a3e 7447 04bd b944 cabd
00000170: 277d 7d3d 3051 113d 8d91 213c 7550 3f3d
00000180: bac3 183d 2965 4bbd 2404 f6bd 4cd5 2a3d
00000190: 306a 1f3d 997e 02bc 504d 1d3e de0f 1dbe
000001a0: 4331 80bd 661d 0abc ef45 ff3c 73e0 83bd
000001b0: 8a62 363d eecb 3c3e 431f 1f3e af85 073e
000001c0: 3e80 d4bd 9716 adbd f55f 993d 7a41 f63c
000001d0: e67f 503c e536 9dbd ea81 66bb 6a9c a6bd
000001e0: fc3f bb3d 7565 f6bd bd42 1d3d 5952 1cbe
000001f0: 039a a33c 7569 c1ba 4444 4dbd f871 c43c
00000200: 6c7c b53d 68ad 0ebc 01e2 2e3d b1dc d23d
00000210: 6103 123d 5a6b 95bd 9df3 52bd 4acb 2bbd
00000220: 6760 073e 0be0 54bd e89c 66bd 77c0 ef3b
00000230: 1aee 52bd 40a6 e8ba cb17 833d 1895 5f3d
00000240: 31d9 dcb9 8578 e13d 6203 f83c d0ea 90bc
00000250: 8471 6ebe d5a1 133d 7f86 a3bc efe4 ac3c
00000260: 289d 05bd ad27 be3a a00e 26bc 6329 fc3d
00000270: 0a6a b83c 2635 c3bd ee63 033e cedb 053e
00000280: ae8b 603d 3714 60bd b4cb f63d 37ea 0b3d
00000290: 32fe 07be 5d84 ec3b b1ee b13d 457d 17bd
000002a0: 0f25 a43c c405 95bc 33c9 963c b42b c6bd
000002b0: 6643 213c 32a3 973c 17ef 1c3d 7afc 18bd
000002c0: 9e95 41bd 7219 b83d 334b f1bb bb4a 23bc
000002d0: 66c9 253e 5365 00bd 3e64 933d ea1e 3a3d
000002e0: c8a6 2e3c 237e c6bd ab2c 983d 6b9c 3ebc
000002f0: 0c25 f4bd b60b 433e a210 ae3d 9239 d8bd
00000300: a341 b93d a906 10bd 2117 0abd 0efb d6bd
00000310: 68c9 20bd 7665 dbbc 7c9e 08bd 1a99 7c3b
00000320: 1c33 0c3c 5f17 0fbe 04ad 0a3d 2f49 113d
00000330: 1c4f e1bd ff7b ddb9 fd9a 1c3d 6618 233d
00000340: c04f de3d c097 f93d 2ac0 663d fbb0 853d
00000350: 272b c83d 8e38 533d f85c 473d e782 6c3d
00000360: 5f55 1d3e abc1 33bd 3229 ba3c 544d 87bd
00000370: dc1a 6d3d d541 d6ba 3e77 253d b0ca c83c
00000380: bbbb 67bd 7a8d fabc e6d5 5f3d 679b b83d
00000390: 10f3 17bd d796 183e 0ae9 30bc b7f9 e23d
000003a0: 538c c13d 3a42 8c3d 06ef 963d 61b4 803d
000003b0: 75db 303e 65a5 e9bd 418d cbbc a3c0 343e
000003c0: ea77 a03c 50b5 8bba 1163 193e 952b 53bc
000003d0: 8a44 1fbd 5a4e c13d f58a 1b3e fca0 653d
000003e0: d2dc 87bd 34cd 1b3b 8995 853d 01cd 87bd
000003f0: 73ae b3bd 3ff1 183d 077b cf3c 762c 3a3e

model.Layernorm.weight f4 [25]
1.0871719 0.9263279 0.94606924 0.84600425 1.0740914 0.9462563 1.1379136 0.9887199
1.1121657 1.0778158 0.9270308 0.8730327 1.1226734 1.0242761 0.97329366 1.0415696
0.8915699 1.030123 0.9388954 1.0769749 0.92935467 0.8498733 1.0158546 0.99590147
0.96382666
00000000: 7328 8b3f d323 6d3f 9831 723f bc93 583f
00000010: d47b 893f da3d 723f 27a7 913f bf1c 7d3f
00000020: 725b 8e3f def5 893f e451 6d3f 127f 5f3f
00000030: c3b3 8f3f 7b1b 833f c629 793f 2752 853f
00000040: ed3d 643f 12db 833f 735b 703f 50da 893f
00000050: 30ea 6d3f 4c91 593f 8607 823f 66f3 7e3f
00000060: 58bd 763f

model.Layernorm.bias f4 [25]
-0.04851234 0.08401387 -0.040983442 -0.13529116 0.02912429 0.051266067 0.13210975 -0.0571472
0.072015435 -0.080497704 -0.014842708 0.09937397 -0.02413228 0.016828239 -0.019317672 -0.06904958
0.07206385 -0.106431045 0.071176626 0.1384592 -0.061016854 -0.06581851 -0.07296202 0.0251899
-0.08668998
00000000: e0b4 46bd 770f ac3d 41de 27bd c489 0abe
00000010: 1096 ee3c 5efc 513d c747 073e 2f13 6abd
00000020: d47c 933d fbdb a4bd d42e 73bc 9484 cb3d
00000030: 0fb1 c5bc 60db 893c 1840 9ebc de69 8dbd
00000040: 3696 933d 85f8 d9bd 0dc5 913d 40c8 0d3e
00000050: cfec 79bd dbcb 86bd 1d6d 95bd 0d5b ce3c
00000060: 848a b1bd

model.w_q.0.weight f4 [25, 25]
-0.21736869 -0.046478055 0.011809647 0.0456354 -0.00013000336 0.021682924 -0.038042136 -0.09925139
0.086881384 0.34918284 -0.3182173 0.09984171 0.20233075 -0.4643912 -0.106718965 0.13067272
0.018231614 -0.10310759 -0.29835874 -0.29916403 0.13502789 0.027356628 0.5064343 -0.0026329383
-0.17257665 -0.17856464 0.17574981 0.09285425 -0.14037006 -0.09966434 0.134154 -0.20356382
-0.2694055 0.18644248 -0.44455004 -0.4093986 0.5996113 0.51836467 -0.15800866 0.1881586
0.15424563 0.20563456 0.008944285 0.25924182 -0.15413052 -0.02911282 -0.293681 -0.12054272
0.035123408 -0.03940258 -0.50194275 -0.12733123 -0.10127344 -0.18232825 0.43651026 0.27644295
0.25061825 0.042290345 0.25075367 -0.39780262 -0.112877846 -0.20648605 0.03355257 0.0014328663
0.17813963 0.2491016 0.45314226 -0.57516044 0.34480587 0.22099951 -0.53628576 0.12980717
-0.17696144 -0.032335952 -0.20662554 0.12548131 -0.0697875 -0.37008598 -0.03616162 0.12608914
0.02498234 -0.32619584 -0.14362758 -0.13391377 -0.10318487 -0.14635 0.10673227 -0.1522726
0.3386895 0.18431006 -0.30006403 0.28016126 0.026634768 0.1899676 0.26129878 0.1015348
-0.38669032 0.07636869 -0.29179105 -0.024311822 0.04237481 0.14639401 0.21214853 -0.37880957
0.06940935 -0.051302142 -0.042459935 0.28451225 -0.28847367 -0.17123215 0.15862846 -0.3476947
0.10522636 0.47933352 -0.306622 0.41637978 -0.16697794 -0.18044943 -0.43539676 -0.06860863
0.44772545 0.32754675 -0.20129213 -0.0925417 0.58633566 0.23425768 -0.27610853 0.06700263
-0.37926218 -0.06410672 -0.25235882 0.39731732 0.082624294 0.24956223 0.07344018 -0.13538694
0.00560299 -0.026301417 -0.5097867 -0.11571285 -0.43184194 0.21091211 0.19558784 0.2264809
0.43770432 -0.10438803 -0.08176033 -0.016693356 0.016740596 0.01048797 0.36595955 -0.11758955
-0.50994724 0.16779384 -0.0013019894 0.03895957 -0.02025061 -0.123485066 -0.1649956 0.01925434
0.024825657 0.18328895 0.08289646 -0.10600512 -0.08853309 -0.12758008 -0.28115377 0.00013916496
-0.46418157 0.046091296 -0.028495684 0.26751232 0.10005748 -0.095540285 0.26684377 0.06461249
-0.25522304 -0.16876483 0.13391417 -0.23082489 0.069351174 -0.4335261 0.30682734 0.12424698
-0.095037684 0.053835303 0.03172096 0.094042785 -0.18973425 -0.02960412 -0.04603514 0.101890154
0.09004556 -0.034738585 0.07196161 0.10312727 0.03316717 0.080661125 0.1336729 0.16098076
-0.16759086 0.34487915 0.20115852 0.1722553 -0.18603761 -0.26126295 -0.5308749 0.15511844
-0.33705482 0.08231755 0.21152459 -0.55298245 0.3029548 0.6826049 0.010803917 -0.113636285
-0.3993168 -0.33988816 -0.17661957 -0.28879058 -0.2448637 0.42603436 0.08500823 0.019954866
0.32049033 -0.16620119 0.08207815 0.09378887 -0.07172183 0.026014073 0.1169602 0.007172347
-0.19083393 0.23833944 -0.16742879 -0.06304983 -0.20759514 0.40306666 0.38328004 -0.07233282
0.013557729 -0.37314117 0.07360376 0.29517505 -0.024509545 0.22209118 -0.23339555 -0.61611426
0.10295682 -0.04499661 -0.22645806 0.063049115 0.28999355 -0.14037056 0.2066427 0.04790515
00000000: e695 5ebe c65f 3ebd 407d 413c 2fec 3a3d
00000010: 8351 08b9 63a0 b13c 12d2 1bbd 5044 cbbd
00000020: deee b13d 18c8 b23e 61ed a2be cf79 cc3d
00000030: cb2f 4f3e afc4 edbe 798f dabd 12cf 053e
00000040: 775a 953c 122a d3bd 7ac2 98be 072c 99be
00000050: c044 0a3e 021b e03c aea5 013f 608d 2cbb
00000060: efb7 30be a6d9 36be c2f7 333e 5e2a be3d
00000070: 2bbd 0fbe d11c ccbd ab5f 093e 0973 50be
00000080: 85ef 89be c7ea 3e3e 109c e3be b19c d1be
00000090: 2080 193f 8cb3 043f 06cd 21be a6ac 403e
000000a0: 91f2 1d3e de91 523e 0d8b 123c 58bb 843e
000000b0: 64d4 1dbe 027e eebc 5b5d 96be 1adf f6bd
000000c0: 90dd 0f3d 9a64 21bd 527f 00bf 1e63 02be
000000d0: 7368 cfbd 42b4 3abe 467e df3e ee89 8d3e
000000e0: 0951 803e a438 2d3d c962 803e c9ac cbbe
000000f0: 802c e7bd 1471 53be 6b6e 093d 04cf bb3a
00000100: 3c6a 363e 7d14 7f3e 4302 e83e b73d 13bf
00000110: 658a b03e b24d 623e 064a 09bf 2cec 043e
00000120: 6135 35be b472 04bd a595 53be 2c7e 003e
00000130: c0ec 8ebd e97b bdbe 351e 14bd 831d 013e
00000140: c4a7 cc3c 2403 a7be 1c13 13be b120 09be
00000150: 9752 d3bd c6dc 15be 7396 da3d 59ed 1bbe
00000160: b668 ad3e c7bb 3c3e fea1 99be 4c71 8f3e
00000170: 2831 da3c de86 423e f4c8 853e 7af1 cf3d
00000180: 46fc c5be 3067 9c3d a365 95be 9629 c7bc
00000190: 3591 2d3d 50e8 153e 773d 593e 54f3 c1be
000001a0: 7d26 8e3d 3222 52bd 78ea 2dbd 97ab 913e
000001b0: d2b2 93be 7b57 2fbe 806f 223e 0a05 b2be
000001c0: eb80 d73d 346b f53e 8ffd 9cbe bb2f d53e
000001d0: 44fc 2abe bcc7 38be 53ec debe ae82 8cbd
000001e0: 453c e53e 35b4 a73e 861f 4ebe 8186 bdbd
000001f0: 181a 163f 3fe1 6f3e 195e 8dbe ad38 893d
00000200: a72e c2be 624a 83bd 2d35 81be 2d6d cb3e
00000210: ed36 a93d 3e8d 7f3e ce67 963d e0a2 0abe
00000220: 4999 b73b 1276 d7bc 6281 02bf dcfa ecbd
00000230: 631a ddbe 58f9 573e 2e48 483e 9cea 673e
00000240: c81a e03e 64c9 d5bd f671 a7bd 81c0 88bc
00000250: 9323 893c bcd5 2b3c 0d5f bb3e cad2 f0bd
00000260: e78b 02bf 26d2 2b3e 84a7 aaba 1294 1f3d
00000270: 9be4 a5bc bde5 fcbd 9bf4 28be 47bb 9d3c
00000280: 2d5f cb3c 19b0 3b3e 9fc5 a93d 3619 d9bd
00000290: d650 b5bd 5aa4 02be 63f3 8fbe cfec 1139
000002a0: 35a9 edbe 3aca 3c3d c86f e9bc 60f7 883e
000002b0: f0ea cc3d a0aa c3bd bf9f 883e 8e53 843d
000002c0: 98ac 82be b0d0 2cbe cc20 093e 5c5d 6cbe
000002d0: fd07 8e3d 22f7 ddbe 7918 9d3e 3375 fe3d
000002e0: 1ea3 c2bd 6882 5c3d d6ed 013d 8199 c03d
000002f0: b249 42be 5784 f2bc 588f 3cbd c9ab d03d
00000300: ce69 b83d 0c4a 0ebd 9c60 933d 6434 d33d
00000310: 4cda 073d a931 a53d 8ce1 083e 24d8 243e
00000320: f09c 2bbe 0094 b03e 80fc 4d3e b263 303e
00000330: a580 3ebe 42c4 85be 6be7 07bf 5ed7 1e3e
00000340: 7392 acbe 1b96 a83d e799 583e 4290 0dbf
00000350: e41c 9b3e 32bf 2e3f ea02 313c 24ba e8bd
00000360: 4073 ccbe d205 aebe c3db 34be 5cdc 93be
00000370: 8dbd 7abe 2d21 da3e cb18 ae3d 6378 a33c
00000380: 4f17 a43e a530 2abe 9718 a83d 6114 c03d
00000390: e5e2 92bd 771b d53c d488 ef3d 0206 eb3b
000003a0: f869 43be 410f 743e 7472 2bbe 4520 81bd
000003b0: d293 54be c15e ce3e 483d c43e 3b23 94bd
000003c0: 3d21 5e3c 5c0c bfbe 91bd 963d 2f21 973e
000003d0: 3ec8 c8bc df6b 633e 3eff 6ebe aab9 1dbf
000003e0: 06db d23d 5e4e 38bd 9fe4 67be e51f 813d
000003f0: 097a 943e 4dbd 0fbe 259a 533e 3138 443d

model.w_q.1.weight f4 [25, 25]
-0.14114088 -0.2623416 0.29574984 0.13720325 -0.47402003 0.7326636 -0.0035689576 -0.17684029
0.19452053 0.30420858 0.16080774 -0.19464192 0.02802687 -0.19958454 -0.09796116 -0.15575773
-0.0074656135 -0.36480004 -0.09864484 -0.17841816 -0.031423826 0.32818267 0.020489503 0.27339682
-0.17329393 -0.15584265 0.18117891 0.060743675 -0.4382084 0.1540986 0.26141813 0.33255306
0.031151075 0.20947526 -0.06784015 0.13254793 0.48973933 0.03914898 -0.09502982 0.21470602
0.124523886 -0.0717354 -0.18817283 0.01835904 0.10416836 0.05709651 -0.5857665 -0.10185418
-0.2600994 -0.1911005 -0.23101278 0.041394643 -0.17831041 -0.59102845 0.29626223 0.20986597
-0.016106749 0.04427607 0.4460055 -0.38223422 -0.493556 0.445125 0.1687428 -0.039417934
0.18227011 -0.21441008 -0.15063412 -0.46146947 0.6308194 0.2367521 0.1771385 -0.30038115
-0.40470076 0.18722463 -0.29913574 -0.1610988 -0.08131351 0.041930314 -0.018801345 0.188511
-0.05734155 0.0003581812 -0.034955926 -0.049359817 0.06336083 -0.28892872 0.29738533 -0.058560323
0.15149193 -0.3463351 0.017209098 0.017575547 -0.07101319 0.32815585 -0.16164154 -0.084119424
-0.07315208 0.4189636 0.17579919 -0.18159938 -0.18087564 0.45825043 -0.0102575235 -0.13765642
0.055179678 -0.3280717 0.004606826 -0.075453684 -0.021669477 0.014682763 0.574711 -0.41506392
0.36459026 0.39251515 0.15397467 0.007892754 0.021576054 0.107973956 -0.087785974 0.09861858
0.319828 -0.011775652 0.21537328 -0.49622783 0.4001263 -0.31740862 -0.4799252 -0.03151948
0.10645874 0.22860964 -0.1574309 0.2193101 -0.46891046 0.25826743 -0.24767543 -0.28834963
0.18744181 0.23418468 0.045146134 -0.039305013 -0.11107049 0.13881017 -0.06812612 0.09075071
-0.25000536 0.34783182 -0.02712325 0.08704807 -0.090443835 -0.010940603 0.2691653 0.35249126
-0.0008934143 0.20537601 -0.2151945 0.028599845 0.036443975 -0.061736435 -0.27675855 0.36684993
0.07666325 -0.13005112 -0.2756147 -0.15484057 0.12819721 0.287048 -0.46984816 0.046438705
-0.40399584 -0.08050303 0.12814522 -0.13278568 -0.05629211 0.23267229 -0.34800062 -0.016280137
-0.010571387 -0.030251337 0.32952777 0.25786087 -0.0016873953 -0.20666243 0.22298342 -0.3738216
0.16981152 -0.3845808 -0.14720534 -0.14454687 0.12822758 -0.06402331 0.6224884 0.5161267
0.120219775 -0.3478386 0.028067056 0.059405595 0.14071903 -0.06416689 0.29083383 0.4939223
0.24672423 -0.21326794 0.030091826 0.034722764 0.11754795 0.078618824 -0.46642587 0.4436026
0.011817798 0.19594401 0.2765283 -0.14163469 -0.16729084 0.43177217 -0.1772631 0.1095435
0.1300792 -0.16663264 -0.7252994 -0.24171479 -0.043356936 0.19349074 0.36165228 -0.08921433
0.3601673 -0.07112471 0.18258224 0.22507146 -0.1553826 -0.21775863 0.048489615 0.3458903
-0.16330455 0.22578217 -0.20953785 0.0032220087 0.057894308 -0.12110795 -0.2687354 -0.39859542
0.3943477 0.13390495 -0.28990084 -0.24536669 0.26714942 -0.0075243246 -0.005045168 -0.1881409
0.021311926 0.38037992 -0.13823786 0.030710546 0.29109812 -0.025663825 0.40900257 0.20112112
00000000: 3c87 10be a351 86be 866c 973e 027f 0c3e
00000010: c1b2 f2be d78f 3b3f 2ce5 69bb 9f15 35be
00000020: 6430 473e 3ac1 9b3e c9aa 243e 3650 47be
00000030: 9b98 e53c e45f 4cbe dc9f c8bd f47e 1fbe
00000040: 1ba2 f4bb 12c7 babe 4e06 cabd 40b3 36be
00000050: 45b6 00bd 8f07 a83e 9ad9 a73c abfa 8b3e
00000060: f773 31be 3795 1fbe f786 393e 5cce 783d
00000070: da5c e0be 06cc 1d3e 99d8 853e 6544 aa3e
00000080: 8a30 ff3c af80 563e c7ef 8abd a5ba 073e
00000090: 1dbf fa3e ae5a 203d ff9e c2bd e5db 5b3e
000000a0: 6106 ff3d 02ea 92bd 61b0 40be b365 963c
000000b0: 3956 d53d 08de 693d cbf4 15bf ed98 d0bd
000000c0: c02b 85be d9af 43be 9d8e 6cbe 6e8d 293d
000000d0: 0197 36be a44d 17bf afaf 973e 1be7 563e
000000e0: 4df2 83bc d35a 353d d55a e43e 34b4 c3be
000000f0: 5fb3 fcbe 6de7 e33e eaca 2c3e b374 21bd
00000100: 04a5 3a3e 518e 5bbe d53f 1abe ba45 ecbe
00000110: 617d 213f 246f 723e cc63 353e 8fcb 99be
00000120: f034 cfbe d0b7 3f3e 5228 99be 15f7 24be
00000130: b387 a6bd 1fbf 2b3d 4705 9abc 0709 413e
00000140: f9de 6abd 44ca bb39 f22d 0fbd 852d 4abd
00000150: 53c3 813d 77ee 93be e442 983e f3dc 6fbd
00000160: b320 1b3e d652 b1be 18fa 8c3c 98fa 8f3c
00000170: 5d6f 91bd 0b04 a83e 5c85 25be ce46 acbd
00000180: c2d0 95bd 6682 d63e b404 343e 30f5 39be
00000190: 7737 39be cd9f ea3e 2c0f 28bc cef5 0cbe
000001a0: 1604 623d 04f9 a7be dcf4 963b 7687 9abd
000001b0: 3084 b1bc f98f 703c 4320 133f 4283 d4be
000001c0: 93ab ba3e bff7 c83e 89ab 1d3e 9c50 013c
000001d0: 44c0 b03c 7321 dd3d 22c9 b3bd 8af8 c93d
000001e0: 7fc0 a33e aaee 40bc d08a 5c3e 9311 febe
000001f0: 5bdd cc3e 6283 a2be c1b8 f5be 921a 01bd
00000200: 0a07 da3d a518 6a3e 9135 21be d492 603e
00000210: 0815 f0be a13b 843e a19e 7dbe 90a2 93be
00000220: bff0 3f3e 1cce 6f3e 27eb 383d 4bfe 20bd
00000230: ed78 e3bd 4124 0e3e b585 8bbd 82db b93d
00000240: b400 80be 0317 b23e 9431 debc 4246 b23d
00000250: 9e3a b9bd 3740 33bc 09d0 893e bc79 b43e
00000260: 0534 6aba 174e 523e f25b 5cbe 394a ea3c
00000270: 4746 153d 58df 7cbd 4cb3 8dbe c1d3 bb3e
00000280: 9f01 9d3d 1f2c 05be 5f1d 8dbe 878e 1ebe
00000290: 2146 033e f5f7 923e f08f f0be 8336 3e3d
000002a0: 8bd8 cebe c6de a4bd 8038 033e f8f8 07be
000002b0: 8e92 66bd a541 6e3e 232d b2be ec5d 85bc
000002c0: 9c33 2dbc a7d1 f7bc ddb7 a83e 5706 843e
000002d0: 972b ddba 519f 53be c455 643e 8b65 bfbe
000002e0: 12e3 2d3e c6e7 c4be ffbc 16be 1804 14be
000002f0: 174e 033e a71e 83bd 665b 1f3f e120 043f
00000300: c935 f63d e717 b2be e2ec e53c 4853 733d
00000310: a618 103e ee69 83bd 2ce8 943e 62e3 fc3e
00000320: 47a5 7c3e e962 5abe 2283 f63c 7539 0e3d
00000330: fbbc f03d e802 a13d 5fcf eebe e11f e33e
00000340: 709f 413c 8ca5 483e 1e95 8d3e af08 11be
00000350: 4a4e 2bbe 3e11 dd3e 7584 35be 5858 e03d
00000360: 7b33 053e bfa1 2abe 39ad 39bf 1584 77be
00000370: 0b97 31bd 7022 463e 7d2a b93e 01b6 b6bd
00000380: d967 b83e d5a9 91bd d7f6 3a3e 2279 663e
00000390: 9e1c 1fbe 1efc 5ebe 0c9d 463d 8918 b13e
000003a0: 4f39 27be 7133 673e 1791 56be 5628 533b
000003b0: 9522 6d3d 7207 f8bd b097 89be b314 ccbe
000003c0: f1e7 c93e 611e 093e e26d 94be 6841 7bbe
000003d0: cfc7 883e 9c8e f6bb f051 a5bb 02a8 40be
000003e0: 5996 ae3c 28c1 c23e 3a8e 0dbe af94 fb3c
000003f0: d00a 953e f13c d2bc c968 d13e b2f2 4d3e

model.w_q.2.weight f4 [25, 25]
0.03346732 0.06829378 -0.5121839 -0.29605883 0.6128381 0.06926977 -0.41012287 -0.107057326
-0.15226004 0.20944957 0.35902944 0.21457906 0.2646227 -0.24347429 0.02059641 -0.3823554
0.116946146 -0.051923063 0.15513635 -0.40436524 -0.106844656 0.35199916 0.18189305 0.52549076
-0.15320866 -0.14482167 0.5620918 0.24839701 0.02965433 -0.25668246 -0.24144445 0.10615989
-0.46392062 0.10336446 0.08711106 -0.11110971 0.26727757 -0.52286214 0.31946757 0.12703075
0.23944117 0.40814453 -0.08236002 0.12929486 0.22201854 -0.18218149 -0.44652036 -0.14853421
-0.3059531 -0.34963465 -0.4897504 -0.15801203 -0.1715042 -0.08313612 0.116152115 0.1209246
-0.11358168 -0.27912524 0.27634546 0.036781736 0.08110502 -0.12695326 -0.17894301 0.23601553
0.5125619 -0.101329096 0.07754094 -0.09075217 0.19692567 -0.021185564 -0.25557393 -0.5613981
-0.065172516 0.35544804 -0.2293676 0.09246425 -0.45083806 0.06444838 0.32837442 0.18039964
-0.05877748 0.008842282 0.012770731 0.44352365 0.28382418 0.1421926 -0.21861537 -0.17094629
-0.14763835 -0.1617582 0.1465574 -0.19640635 -0.14093365 0.10271928 0.027282132 -0.07759868
-0.06688521 0.1323866 -0.16514361 -0.1497457 -0.18136568 0.1823296 -0.085700594 -0.48502684
0.087088 -0.09548645 0.11004632 0.22656915 0.1943161 0.029247664 0.6196785 0.3491089
0.3497641 -0.2631413 0.1866843 0.38064697 -0.041262545 0.03560078 -0.050346594 -0.33985898
0.098714985 0.24103093 -0.12022213 -0.31576437 -0.18252084 0.13782503 -0.5085643 -0.15172057
0.20858446 0.16678292 0.79206896 -0.62618244 0.47764453 -0.010014983 0.07639325 -0.12836508
0.038037322 0.537407 0.036324948 0.313766 -0.5834925 -0.55158037 0.21582626 0.064829156
0.16785778 0.020312104 0.3498067 0.59233 0.18766087 0.44352338 0.022448467 -0.09253894
-0.15775076 -0.2954423 0.10577041 0.35907146 -0.6839155 0.267727 -0.50163573 -0.025075743
-0.3076118 0.43428546 -0.044866517 -0.3270739 -0.34348255 0.21522792 -0.68352264 0.27188167
0.018870682 -0.31261072 0.35718617 0.75349164 0.31061742 0.14437105 0.25810167 0.04429938
0.12444662 0.19081953 0.091039605 0.2672449 0.2056172 0.0070080287 0.054172695 0.46414223
0.0069401916 0.22630724 -0.1646724 -0.056034084 0.48590025 0.23203534 0.43876934 -0.060545955
0.046192717 0.17626959 -0.21238087 0.04059957 -0.45991218 -0.22681968 -0.4326681 -0.45944557
0.078689255 0.6706412 -0.06534496 0.15339303 -0.16177584 -0.2605838 0.54765517 0.13375105
0.31376183 -0.14511177 0.34276488 0.13299148 -0.23923439 0.514424 -0.11683009 0.14108999
0.4702235 0.03731126 -0.078008115 -0.4023888 0.12034726 0.1287255 -0.33658928 0.14342096
-0.025960095 -0.13759215 0.36636433 0.7083531 -0.09395615 -0.24445778 -0.57097876 0.9182837
-0.3730888 0.6812496 0.45216125 0.15855561 0.20400614 -0.104363255 0.050774638 0.054057933
-0.15288274 0.09580438 0.030140705 -0.041045822 -0.12981449 -0.5299657 -0.59706414 -0.38049364
-0.10299061 -0.120682254 0.14586519 0.17748743 0.03764343 -0.23695311 0.029127477 0.07301729
00000000: 0715 093d 9cdd 8b3d 7c1e 03bf 0695 97be
00000010: f5e2 1c3f 4fdd 8d3d a0fb d1be df40 dbbd
00000020: 0eea 1bbe f379 563e b5d2 b73e 9dba 5b3e
00000030: a07c 873e 5351 79be cdb9 a83c 16c4 c3be
00000040: 7681 ef3d 47ad 54bd 10dc 1e3e f608 cfbe
00000050: 5fd1 dabd 3c39 b43e 2c42 3a3e 9086 063f
00000060: bbe2 1cbe 224c 14be 40e5 0f3f c95b 7e3e
00000070: a3ed f23c e26b 83be 373d 77be 5b6a d93d
00000080: 0187 edbe bfb0 d33d 4967 b23d 7d8d e3bd
00000090: 9bd8 883e 4bda 05bf 4191 a33e 5914 023e
000000a0: 1130 753e 52f8 d03e 5fac a8bd df65 043e
000000b0: d458 633e c98d 3abe 519e e4be 5a19 18be
000000c0: e2a5 9cbe 5003 b3be 90c0 fabe e8cd 21be
000000d0: cc9e 2fbe 4543 aabd 29e1 ed3d 51a7 f73d
000000e0: 839d e8bd 81e9 8ebe 277d 8d3e 72a8 163d
000000f0: 641a a63d 0900 02be d63c 37be 0eae 713e
00000100: 4237 033f a185 cfbd c9cd 9e3d 46dc b9bd
00000110: e2a6 493e 598d adbc 96da 82be c9b7 0fbf
00000120: 2b79 85bd 49fd b53e 57df 6abe e65d bd3d
00000130: 3fd4 e6be 83fd 833d b120 a83e afba 383e
00000140: a8c0 70bd 38df 103c 543c 513c 8815 e33e
00000150: 6751 913e f09a 113e b5dc 5fbe 8b0c 2fbe
00000160: 822e 17be f1a3 25be 2513 163e bf1e 49be
00000170: e950 10be 7c5e d23d c77e df3c 0fec 9ebd
00000180: 1dfb 88bd 5a90 073e 681b 29be f056 19be
00000190: edb7 39be 9cb4 3a3e cb83 afbd 7055 f8be
000001a0: 315b b23d 668e c3bd f75f e13d be01 683e
000001b0: cdfa 463e cc98 ef3c 40a3 1e3f 67be b23e
000001c0: 4814 b33e 75ba 86be 2b2a 3f3e 29e4 c23e
000001d0: ea02 29bd 20d2 113d 3b38 4ebd ff01 aebe
000001e0: 152b ca3d d0d0 763e 0537 f6bd deab a1be
000001f0: bee6 3abe 0122 0d3e 4531 02bf a35c 1bbe
00000200: 2a97 553e 24c9 2a3e 08c5 4a3f 7e4d 20bf
00000210: d38d f43e e215 24bc 1074 9c3d 2372 03be
00000220: 06cd 1b3d 8193 093f 78c9 143d f0a5 a03e
00000230: c45f 15bf 5f34 0dbf 8f01 5d3e 26c5 843d
00000240: e9e2 2b3e 9265 a63c dd19 b33e f0a2 173f
00000250: 2c2a 403e 7f15 e33e d9e5 b73c 0e85 bdbd
00000260: 6a89 21be 3744 97be 289e d83d 37d8 b73e
00000270: 1615 2fbf 8313 893e 336b 00bf a56b cdbc
00000280: 4b7f 9dbe aa5a de3e f4c5 37bd 3b76 a7be
00000290: f2dc afbe b564 5c3e 57fb 2ebf 1334 8b3e
000002a0: b096 9a3c 830e a0be 1be1 b63e d4e4 403f
000002b0: 3f09 9f3e 01d6 133e e725 843e 4473 353d
000002c0: dfdd fe3d 3266 433e f972 ba3d 53d4 883e
000002d0: 518d 523e 9ba3 e53b 30e4 5d3d 0da4 ed3e
000002e0: 8c6a e33b 16bd 673e e29f 28be ff83 65bd
000002f0: ebc7 f83e ac9a 6d3e 60a6 e03e 09ff 77bd
00000300: 9334 3d3d 0480 343e 5f7a 59be bc4b 263d
00000310: 9c79 ebbe 6b43 68be ac86 ddbe 733c ebbe
00000320: d527 a13d 24af 2b3f 94d3 85bd 1013 1d3e
00000330: 91a8 25be 3d6b 85be 2133 0c3f 09f6 083e
00000340: 64a5 a03e 2e98 14be e17e af3e eb2e 083e
00000350: dcf9 74be 4bb1 033f 9d44 efbd e579 103e
00000360: 22c1 f03e b1d3 183d b8c2 9fbd e805 cebe
00000370: a078 f63d 9ed0 033e 6e55 acbe f2dc 123e
00000380: 44aa d4bc f5e4 0cbe 1b94 bb3e a156 353f
00000390: 156c c0bd 2453 7abe aa2b 12bf a414 6b3f
000003a0: 7f05 bfbe 6066 2e3f ae81 e73e 675c 223e
000003b0: fce6 503e 67bc d5bd 11f9 4f3d da6b 5d3d
000003c0: 4b8d 1cbe 1635 c43d a4e9 f63c aa1f 28bd
000003d0: 17ee 04be d5ab 07bf 32d9 18bf 10d0 c2be
000003e0: beec d2bd 4228 f7bd af5d 153e 44bf 353e
000003f0: ff2f 1a3d d6a3 72be bf9c ee3c 178a 953d

model.w_q.3.weight f4 [25, 25]
-0.14170244 -0.19966714 -0.35789862 -0.0028277733 0.022112878 -0.42085147 0.07588626 -0.19989377
0.20796295 0.4251377 0.06797306 -0.0071425163 0.11524914 -0.0061169975 -0.33534253 -0.18582597
-0.21244748 -0.2212215 0.32943735 -0.06963086 -0.42717913 0.04716318 0.2792165 0.06593835
-0.12263403 -0.14898725 0.25466013 0.16515656 -0.44212005 -0.28380865 -0.002872716 0.13387136
0.017029485 -0.014132313 -0.15664649 0.45389378 0.24255598 -0.26170304 0.14012635 -0.3567096
-0.07682245 0.42775026 -0.31565568 0.04025773 0.14441991 -0.064516485 -0.3918007 0.03097562
-0.2613078 -0.38164634 0.17447726 0.06168546 -0.03399761 -0.25583655 0.395687 0.25555244
-0.2942508 -0.09654661 0.078361 -0.29710647 -0.1503641 0.10897318 0.04294499 -0.25993562
0.16167793 -0.11964425 -0.19057246 -0.17762475 0.24100982 0.39919904 -0.1718898 -0.32087326
-0.17561486 -0.28201368 -0.13558736 -0.21183059 -0.010270262 -0.12495028 -0.18866128 0.25569174
0.104070224 0.22282627 -0.010238274 -0.25978285 0.07521809 0.06563245 -0.38008973 -0.56827664
0.05359798 -0.21715458 -0.31429854 -0.13941957 0.22905354 0.32946146 0.0021080726 -0.13375935
0.21052642 -0.42551053 -0.0156170875 -0.00199689 0.15546383 0.19326979 0.18724695 0.23206063
0.053412657 -0.38281745 -0.35402954 0.21115597 -0.071585484 0.3890972 0.24989076 -0.42102394
0.54554003 -0.12961362 -0.15563822 0.0003191875 -0.10147557 -0.19847673 0.072552934 -0.033752356
0.19461223 0.17607735 -0.18768881 -0.2512901 0.03853211 -0.24742149 -0.17049861 -0.41945902
-0.106586464 0.23897749 0.29803148 -0.107195884 0.28531677 0.0011780284 -0.3138534 -0.35183412
0.24437384 0.38560697 -0.1877061 0.2441226 -0.18804038 -0.32147053 -0.19197395 0.2075339
-0.010052599 -0.16570286 0.018175181 0.62284803 0.53705853 -0.25146395 0.37149405 0.007973431
-0.23445979 -0.18128197 0.07423115 -0.19029532 -0.22320081 0.3978932 -0.3548326 0.21520919
0.13366298 0.09995458 0.1350741 -0.021150326 0.10189477 -0.17668822 -0.21366039 -0.3321015
-0.6994949 -0.22059643 0.067029364 0.121858485 0.46657753 0.2449284 0.090743184 -0.116464965
0.20247139 -0.19703029 0.32928434 -0.13511188 -0.12702806 0.015415985 -0.36525264 -0.1883751
0.15508215 0.31525007 -0.0044106725 -0.20845363 0.3514605 0.39387053 0.102064714 -0.3489839
0.49277958 -0.23171848 0.21162605 0.057472166 0.071368225 -0.22735998 0.00026137175 0.35188398
-0.03757195 0.39014843 0.2429589 0.011405854 0.2656122 -0.25973213 0.18051587 -0.18997419
-0.040926132 -0.03767576 0.32315218 0.0378945 -0.07516083 0.5934354 -0.036548276 0.34847096
0.1233323 -0.26105517 -0.42499676 -0.51483715 -0.00423638 -0.10350065 -0.11690882 -0.07022923
0.044879824 -0.27682358 0.18891737 0.105500944 0.29491568 -0.13117953 -0.10283688 0.08772611
0.21575645 0.037641313 0.19557628 -0.0061506 0.124609 0.010333824 0.13682513 0.12659143
0.07662441 0.21438554 0.35012266 0.3213097 0.051258277 0.1562155 -0.53493595 -0.17721142
0.18057027 -0.08064655 0.2740639 0.19409887 0.10653403 -0.45017087 -0.06437331 0.09795838
00000000: 721a 11be 8b75 4cbe 7d3e b7be 2a52 39bb
00000010: 1126 b53c d879 d7be 416a 9b3d f4b0 4cbe
00000020: 3df4 543e a6ab d93e 7635 8b3d c50b eabb
00000030: be07 ec3d 1871 c8bb 04b2 abbe 2a49 3ebe
00000040: d58b 59be e487 62be 03ac a83e a09a 8ebd
00000050: 39b7 dabe 2e2e 413d 77f5 8e3e b00a 873d
00000060: 8d27 fbbd 1d90 18be d062 823e cd1e 293e
00000070: 8f5d e2be 5e4f 91be 2d44 3cbb 9315 093e
00000080: 6b81 8b3c 388b 67bc f067 20be c464 e83e
00000090: 9860 783e f1fd 85be 487d 0f3e a4a2 b6be
000000a0: 1755 9dbd 1502 db3e 9f9d a1be 4ae5 243d
000000b0: d0e2 133e 3821 84bd 1a9a c8be 95c0 fd3c
000000c0: 23ca 85be 2667 c3be 2baa 323e e5a9 7c3d
000000d0: 1441 0bbd 02fd 82be 7d97 ca3e c5d7 823e
000000e0: 0aa8 96be 3bba c5bd bb7b a03d 571e 98be
000000f0: 0cf9 19be 552d df3d 16e7 2f3d 4816 85be
00000100: e68e 253e 0b08 f5bd 6d25 43be 43e3 35be
00000110: 47cb 763e d163 cc3e e103 30be 8049 a4be
00000120: 62d4 33be 1964 90be 6ad7 0abe 1eea 58be
00000130: 9a44 28bc efe5 ffbd 6c30 41be 07ea 823e
00000140: c522 d53d 922c 643e 6fbe 27bc 4202 85be
00000150: f10b 9a3d 4e6a 863d 1f9b c2be 947a 11bf
00000160: 8e89 5b3d c55d 5ebe bdeb a0be 01c4 0ebe
00000170: 038d 6a3e 2caf a83e 9727 0a3b 36f8 08be
00000180: 3d94 573e 84dc d9be d0de 7fbc 41de 02bb
00000190: e931 1f3e 84e8 453e aabd 3f3e 4da1 6d3e
000001a0: 3bc7 5a3d a600 c4be 5c43 b5be 4539 583e
000001b0: 699b 92bd c037 c73e 5de3 7f3e 7390 d7be
000001c0: 83a8 0b3f 6fb9 04be a05f 1fbe 9f58 a739
000001d0: 6cd2 cfbd 7c3d 4bbe a296 943d e93f 0abd
000001e0: 6e48 473e 9f4d 343e 7f31 40be 19a9 80be
000001f0: d9d3 1d3d 0f5c 7dbe 3097 2ebe 55c3 d6be
00000200: 014a dabd 84b6 743e 9597 983e 8489 dbbd
00000210: 0a15 923e 1368 9a3a 65b1 a0be 9a23 b4be
00000220: 233d 7a3e 476e c53e 0736 40be 46fb 793e
00000230: a88d 40be c997 a4be d294 44be c483 543e
00000240: a8b3 24bc 03ae 29be 1ee4 943c f872 1f3f
00000250: ab7c 093f e2bf 80be 7834 be3e fea2 023c
00000260: 3a16 70be fba1 39be 8006 983d c7dc 42be
00000270: c18e 64be a8b8 cb3e 9eac b5be cc5f 5c3e
00000280: f3de 083e fdb4 cc3d dd50 0a3e 7343 adbc
00000290: 35ae d03d c2ed 34be cac9 5abe 3509 aabe
000002a0: 1912 33bf 08e4 61be b146 893d f190 f93d
000002b0: 40e3 ee3e 83ce 7a3e 90d7 b93d 2f85 eebd
000002c0: a954 4f3e 4fc2 49be f597 a83e c55a 0abe
000002d0: a513 02be 5493 7c3c 6502 bbbe 67e5 40be
000002e0: dbcd 1e3e 7568 a13e 6787 90bb de74 55be
000002f0: a1f2 b33e 66a9 c93e 4e07 d13d 05ae b2be
00000300: 9b4d fc3e 9c47 6dbe 80b4 583e ef67 6b3d
00000310: 8129 923d 0ed1 68be b908 8939 232a b43e
00000320: 0ce5 19bd 89c1 c73e 38ca 783e 9edf 3a3c
00000330: 53fe 873e 9cfb 84be 27d9 383e 9888 42be
00000340: 29a2 27bd e651 1abd 3474 a53e 4337 1b3d
00000350: eced 99bd 62eb 173f a5b3 15bd c96a b23e
00000360: a595 fc3d 06a9 85be 2d99 d9be 5ecc 03bf
00000370: 55d1 8abb 26f8 d3bd e46d efbd 58d4 8fbd
00000380: e8d3 373d d2bb 8dbe 8e73 413e e110 d83d
00000390: 30ff 963e ed53 06be 249c d2bd bfa9 b33d
000003a0: 42ef 5c3e c72d 1a3d 2645 483e f98a c9bb
000003b0: 0133 ff3d 334f 293c e31b 0c3e 2fa1 013e
000003c0: 42ed 9c3d e287 5b3e 4743 b33e b482 a43e
000003d0: 33f4 513d f5f6 1f3e 90f1 08bf e976 35be
000003e0: 6ae7 383e 052a a5bd 1a52 8c3e dbc1 463e
000003f0: 832e da3d cc7c e6be 27d6 83bd 679e c83d

model.w_q.4.weight f4 [25, 25]
-0.5146907 0.17319733 -0.3176211 -0.21213007 0.016895302 0.26935378 -0.11595847 0.60609376
-0.3518723 -0.04572034 0.33336303 0.076943964 0.3612629 -0.37460557 0.3772167 -0.35015383
-0.30125967 0.17488013 0.19566117 -0.473314 0.20045924 0.27712092 0.09022503 0.029233735
-0.03247682 -0.017947277 -0.205729 0.14456093 0.11622953 -0.03826451 -0.064092115 0.29165006
-0.15058866 -0.102318056 -0.06174148 0.18507545 0.30755374 -0.24855633 0.053632375 -0.35083887
0.10269032 0.10198948 0.103677094 0.005714664 0.2840082 -0.20723687 -0.028750746 -0.30841425
-0.1156838 -0.10771715 -0.118376404 -0.28991714 0.019734284 0.5528824 -0.2681581 -0.029907158
-0.10115935 -0.14631902 -0.17847443 -0.21215478 -0.08152212 0.19518499 0.00082573487 -0.14823402
0.074205786 -0.34716007 -0.10885675 0.15888803 -0.25071514 0.1518512 -0.3325996 -0.09730497
0.0077675334 -0.24221471 -0.1691738 -0.115784034 -0.077382654 0.004612793 0.18318313 0.14832383
-0.41315582 -0.11504285 -0.46530437 0.22681977 0.13181394 -0.102809645 0.047475398 -0.005113268
-0.45101213 0.22674477 0.2648784 -0.048463505 -0.19662024 0.20242281 0.37245223 -0.043342277
-0.1698917 -0.19199145 0.12153552 -0.13291904 -0.0938676 -0.4207189 -0.0027710728 0.14075522
0.59063613 0.54145074 -0.48652467 0.075671524 -0.14515698 -0.3805782 -0.23798141 -0.1314439
0.50686204 -0.29736552 0.43429455 -0.17119965 -0.5486001 0.08879199 -0.033180837 0.016399022
0.04269886 -0.03256509 0.22732629 0.6392704 0.43716198 0.43497118 -0.25897852 0.008876175
-0.407357 0.24679323 0.6383666 -0.80658245 0.039697614 -0.47364247 0.18683442 -0.4641596
0.15148018 0.5921588 0.27064943 0.20884521 -0.28492376 -0.19134532 0.096494325 -0.11231284
-0.092593305 0.8124121 0.32536763 0.28895602 0.14280152 0.13481477 -0.09543597 -0.2867421
-0.32530355 -0.66123456 0.24446699 0.6323952 -0.34761736 0.14027336 -0.6348157 -0.41769516
-0.48325384 0.27804425 0.40164468 -0.21789199 0.10161657 -0.17278816 0.024311699 0.17636387
-0.09466995 -0.29161784 0.4494607 0.41212097 0.58744574 0.33699727 0.58674717 -0.3324954
-0.14575335 0.022281986 0.38419154 -0.18451506 -0.38488945 0.2658515 -0.18770598 0.49723393
-0.073531255 -0.15651232 -0.0864334 -0.13691513 -0.08994705 0.022751728 -0.251153 0.13186882
-0.2950158 0.013848431 0.22190191 -0.44717738 0.109326445 -0.25584918 -0.20180127 -0.04396202
-0.007874055 0.07198146 0.20083645 -0.08858806 -0.026495548 -0.17707042 0.42964274 -0.45172048
0.053376753 0.194982 0.121758714 -0.022616241 -0.51788944 -0.11456099 -0.26667008 0.13083154
0.46669486 0.042517383 -0.024368398 -0.33338696 -0.050937716 -0.13480723 -0.6028385 -0.23995477
-0.2192478 -0.59112984 0.38463593 0.24331102 0.49346507 -0.26584956 -0.6106378 0.32141057
-0.32354093 0.44228142 0.2206649 0.35582948 -0.13763835 -0.69064635 0.06830662 -0.16325063
0.19406411 -0.15250854 0.16887794 -0.048541 0.27001905 -0.87582994 -0.60457444 -0.19953462
-0.55001944 -0.21586862 0.1752808 0.008400731 0.0039783637 -0.16786176 -0.15166634 0.16122895
00000000: c5c2 03bf a45a 313e 3c9f a2be a038 59be
00000010: 0468 8a3c bde8 893e a27b edbd f628 1b3f
00000020: 9b28 b4be 4045 3bbd 8fae aa3e cc94 9d3d
00000030: 73f7 b83e 4dcc bfbe 8c22 c13e 5d47 b3be
00000040: b53e 9abe c713 333e 675b 483e 3656 f2be
00000050: 3045 4d3e cbe2 8d3e e7c7 b83d 967b ef3c
00000060: 6a06 05bd 2b06 93bc 9faa 52be c807 143e
00000070: bf09 ee3d 3fbb 1cbd ba42 83bd 2853 953e
00000080: ea33 1abe 218c d1bd a2e4 7cbd 6b84 3d3e
00000090: af77 9d3e 8d85 7ebe 9fad 5b3d 27a1 b3be
000000a0: 4d4f d23d dcdf d03d a854 d43d 1342 bb3b
000000b0: 8669 913e e735 54be af86 ebbc 79e8 9dbe
000000c0: a1eb ecbd cf9a dcbd 546f f2bd 0570 94be
000000d0: cba9 a13c b389 0d3f 054c 89be dbff f4bc
000000e0: a22c cfbd a7d4 15be 00c2 36be 1a3f 59be
000000f0: 12f5 a6bd 93de 473e 2176 583a a9ca 17be
00000100: 34f9 973d f7be b1be 4af0 debd 8bb3 223e
00000110: bc5d 80be e27e 1b3e 7f4a aabe d447 c7bd
00000120: cb86 fe3b 2207 78be e63b 2dbe 2e20 edbd
00000130: cc7a 9ebd ea26 973b 5c94 3b3e 34e2 173e
00000140: 2989 d3be 969b ebbd 603c eebe 7143 683e
00000150: 3cfa 063e dd8d d2bd 9075 423d 338d a7bb
00000160: 10eb e6be c82f 683e 249e 873e ab81 46bd
00000170: d156 49be ed47 4f3e 0fb2 be3e ac87 31bd
00000180: 17f8 2dbe 6899 44be 9de7 f83d ee1b 08be
00000190: a83d c0bd 7868 d7be e39a 35bb 2322 103e
000001a0: ee33 173f 849c 0a3f c319 f9be acf9 9a3d
000001b0: 08a4 14be 25db c2be 66b1 73be 3b99 06be
000001c0: b6c1 013f 4b40 98be db5b de3e f64e 2fbe
000001d0: 0e71 0cbf 93d8 b53d a1e8 07bd 3e57 863c
000001e0: 00e5 2e3d f962 05bd 39c8 683e 3aa7 233f
000001f0: b2d3 df3e 8bb4 de3e d598 84be 606d 113c
00000200: 1991 d0be 5db7 7c3e fe6b 233f 307c 4ebf
00000210: f799 223d 4481 f2be 8651 3f3e 54a6 edbe
00000220: 9f1d 1b3e b897 173f 9092 8a3e 85db 553e
00000230: 87e1 91be 07f0 43be d19e c53d 4604 e6bd
00000240: 8fa1 bdbd 3dfa 4f3f 9696 a63e 0bf2 933e
00000250: 903a 123e e20c 0a3e ef73 c3bd dccf 92be
00000260: 308e a6be ab46 29bf 8e55 7a3e a7e4 213f
00000270: e7fa b1be d2a3 0f3e 4883 22bf 24dc d5be
00000280: 0c6d f7be d15b 8e3e 5fa4 cd3e 141f 5fbe
00000290: 591c d03d 61ef 30be 5429 c73c bb98 343e
000002a0: 52e2 c1bd ef4e 95be b61f e63e 8501 d33e
000002b0: d862 163f e88a ac3e 1035 163f d63c aabe
000002c0: 5e40 15be b688 b63c c1b4 c43e 84f1 3cbe
000002d0: 3b10 c5be b01d 883e ff35 40be 7295 fe3e
000002e0: 8e97 96bd c444 20be ff03 b1bd 7b33 0cbe
000002f0: 2936 b8bd d561 ba3c 2097 80be 9f08 073e
00000300: 500c 97be 88e4 623c 413a 633e 6ff4 e4be
00000310: 8be6 df3d aafe 82be fea4 4ebe 8511 34bd
00000320: 2e02 01bc 046b 933d 12a8 4d3e a86d b5bd
00000330: 310d d9bc f351 35be 22fa db3e e847 e7be
00000340: 95a1 5a3d 5da9 473e a25c f93d b245 b9bc
00000350: 6794 04bf f49e eabd fb88 88be b4f8 053e
00000360: a1f2 ee3e b526 2e3d 3ca0 c7bc b2b1 aabe
00000370: 11a4 50bd e80a 0abe a053 1abf b4b6 75be
00000380: 7f82 60be 4954 17bf 00ef c43e 8626 793e
00000390: 74a7 fc3e 6f1d 88be c252 1cbf ed8f a43e
000003a0: 28a7 a5be b672 e23e fbf5 613e 482f b63e
000003b0: 11f1 0cbe 33ce 30bf 57e4 8b3d 2c2b 27be
000003c0: beb8 463e 332b 1cbe 57ee 2c3e edd2 46bd
000003d0: f03f 8a3e 6436 60bf 64c5 1abf ce52 4cbe
000003e0: 13ce 0cbf aa0c 5dbe cf7c 333e 38a3 093c
000003f0: ef5c 823b f4e3 2bbe 6c4e 1bbe 3419 253e

model.w_q.5.weight f4 [25, 25]
-0.17492795 0.18696608 0.09042593 0.026099512 -0.0004382686 -0.29613042 0.4786327 -0.29059327
0.30427372 0.42469877 0.41065773 0.20941505 0.0902577 0.18682526 0.007866474 0.12950255
0.11740919 -0.06674425 0.19821428 -0.2012267 -0.07845005 0.36043337 0.30028328 0.2867738
0.2705459 -0.020628516 0.29791403 0.23956089 -0.054648887 0.0870441 -0.05278389 0.26345405
-0.30730247 -0.05112599 -0.25855792 -0.027318157 0.12924542 -0.27364644 0.328961 0.36184144
0.36883858 0.007805545 -0.0436813 0.14203134 0.02683722 -0.020544894 0.3935582 0.10748823
-0.015897654 -0.31987843 -0.36712813 0.31077424 0.14647777 0.7759724 -0.14612141 0.09303305
-0.07504033 0.12821579 0.36151153 0.072496906 0.050009303 0.014738996 -0.04568787 0.095357634
0.29037878 -0.039068516 -0.062839195 0.062878564 -0.17265527 0.16496304 0.027345797 -0.10801166
-0.43842396 -0.074007474 -0.11753217 0.19926608 -0.15309504 0.7099797 0.071687 -0.19185203
-0.058411658 0.22452441 -0.1933796 0.4994402 0.2361847 -0.07302548 0.24532685 -0.12107616
-0.03958363 -0.13733074 0.070209384 0.10843907 0.20323387 0.16972826 0.30237088 -0.10960913
-0.14950034 -0.0817253 -0.33248922 0.2620504 0.15631469 -0.26624486 0.08084491 0.21000391
0.023802806 -0.15180346 -0.017557513 0.13763894 -0.4655228 0.16571581 -0.19534312 -0.095188744
0.26568726 -0.1360049 -0.10410635 -0.1436513 -0.116653554 -0.10476417 0.09823391 0.12176944
0.21770969 0.35690963 -0.15151033 0.10459603 0.8705539 0.12629107 -0.31175384 -0.4645604
-0.03112132 0.18317957 0.2291653 -0.17159578 0.071151696 -0.6659604 -0.044915218 0.041063264
-0.17230545 0.4191735 0.07750153 -0.1352352 0.3707887 -0.24765138 -0.23033345 0.26877
-0.0429327 0.72156984 0.011307745 0.26867282 0.2392162 0.07787207 -0.20007458 -0.26142558
-0.16277227 -0.1359341 0.027400343 0.14400034 -0.20450379 -0.0912492 -0.53105325 -0.19144821
0.015826922 0.19776279 0.6206961 -0.1351276 -0.029583171 -0.022587733 -0.036300346 0.039811704
0.25192526 -0.1673946 0.37684673 0.43841657 0.15648231 0.1333279 0.29067108 -0.24697985
0.11751687 -0.22409627 -0.15862809 0.04416619 0.040558062 0.44170907 -0.32831264 0.2756769
0.028507255 -0.69533855 -0.12038131 0.08703738 -0.109931536 -0.54843545 -0.01944139 -0.4834488
0.03557827 0.30237678 0.24651027 0.20222273 -0.35242575 -0.27021414 -0.011090383 -0.16314009
-0.20739283 0.41603538 -0.10406257 -0.071073554 -0.0771891 -0.6508565 -0.24018766 -0.23375934
-0.03567442 0.2030028 0.21593827 0.48704565 -0.46086523 0.014686631 -0.23869766 -0.017418172
0.02226367 0.28362155 0.3107439 0.203621 -0.31899112 -0.17331932 -0.4320564 -0.3383694
0.2886316 0.13406333 0.29211396 -0.064861506 -0.3011013 -0.36442134 0.1257746 0.4010114
-0.18143463 0.7293656 0.43914437 0.1011032 -0.0325758 -0.8043242 0.05684041 -0.065979436
0.33736458 0.2578319 0.6070855 -0.05784307 -0.08563742 -0.37660068 -0.7033529 -0.27543193
-0.6005271 -0.065935045 0.07535643 -0.33781722 -0.25651494 -0.26171088 -0.11956976 0.26500595
00000000: 5020 33be 0974 3f3e 3b31 b93d a5ce d53c
00000010: 6ac7 e5b9 689e 97be 580f f53e a4c8 94be
00000020: c4c9 9b3e 1e72 d93e bb41 d23e e670 563e
00000030: 07d9 b83d 1f4f 3f3e 62e2 003c 519c 043e
00000040: 3b74 f03d 36b1 88bd aff8 4a3e 5f0e 4ebe
00000050: 6baa a0bd b98a b83e bbbe 993e 04d4 923e
00000060: fe84 8a3e 22fd a8bc 3088 983e 734f 753e
00000070: 83d7 5fbd 2d44 b23d ec33 58bd 73e3 863e
00000080: c056 9dbe 7c69 51bd b461 84be 54ca dfbc
00000090: e958 043e 631b 8cbe 946d a83e 4843 b93e
000000a0: 69d8 bc3e a8c5 ff3b 2aeb 32bd aa70 113e
000000b0: bbd9 db3c c44d a8bc 7680 c93e ca22 dc3d
000000c0: cc3b 82bc 1bc7 a3be 38f8 bbbe cd1d 9f3e
000000d0: 45fe 153e 21a6 463f daa0 15be 1d88 be3d
000000e0: bfae 99bd 004b 033e 0a18 b93e 4279 943d
000000f0: 8ed6 4c3d d47b 713c 3423 3bbd dd4a c33d
00000100: 87ac 943e 4f06 20bd d6b1 80bd 7ac6 803d
00000110: 8bcc 30be 12ec 283e 4b04 e03c 3835 ddbd
00000120: 1b79 e0be 3b91 97bd b5b4 f0bd 680c 4c3e
00000130: f2c4 1cbe 3bc1 353f a2d0 923d dc74 44be
00000140: 1041 6fbd bae9 653e 4d05 46be a0b6 ff3e
00000150: 67da 713e 628e 95bd f636 7b3e c7f6 f7bd
00000160: 7222 22bd 6ea0 0cbe f0c9 8f3d 4e15 de3d
00000170: 8a1c 503e 3fcd 2d3e 5bd0 9a3e c07a e0bd
00000180: 9e16 19be 985f a7bd 073c aabe 782b 863e
00000190: f510 203e 3f51 88be 0492 a53d 440b 573e
000001a0: 1afe c23c 5e72 1bbe c6d4 8fbc 39f1 0c3e
000001b0: 0159 eebe 68b1 293e 0708 48be 51f2 c2bd
000001c0: 2908 883e de44 0bbe b635 d5bd 5419 13be
000001d0: 0fe8 eebd 998e d6bd dc2e c93d 4262 f93d
000001e0: 4aef 5e3e dcbc b63e 8625 1bbe 7236 d63d
000001f0: 9fdc 5e3f 7252 013e 339e 9fbe dcda edbe
00000200: 23f2 febc 6d93 3b3e 4faa 6a3e ceb6 2fbe
00000210: fbb7 913d 617c 2abf 05f9 37bd f431 283d
00000220: d770 30be e99d d63e 1fb9 9e3d 197b 0abe
00000230: 04d8 bd3e 5398 7dbe 88dc 6bbe 399c 893e
00000240: 33da 2fbd cdb8 383f 1f44 393c 7c8f 893e
00000250: 17f5 743e 647b 9f3d 5ae0 4cbe 93d9 85be
00000260: c6ad 26be 4f32 0bbe af76 e03c d374 133e
00000270: 7169 51be dce0 babd 1bf3 07bf 000b 44be
00000280: 76a7 813c 5482 4a3e f1e5 1e3f e45e 0abe
00000290: 6858 f2bc e909 b9bc acaf 14bd 9911 233d
000002a0: 59fc 803e 7d69 2bbe 0ef2 c03e 2378 e03e
000002b0: e63c 203e 1c87 083e d7d2 943e 49e8 7cbe
000002c0: afac f03d 7e79 65be 676f 22be 9be7 343d
000002d0: 3620 263d b127 e23e 9818 a8be 8625 8d3e
000002e0: 0c88 e93c b501 32bf 7a8a f6bd a740 b23d
000002f0: c923 e1bd 4466 0cbf 8d43 9fbc 9a86 f7be
00000300: 85ba 113d 21d1 9a3e 306d 7c3e 7a13 4f3e
00000310: 2671 b4be 8259 8abe 70b4 35bc 320e 27be
00000320: c95e 54be 9702 d53e c21e d5bd 038f 91bd
00000330: 5215 9ebd 889e 26bf c1f3 75be 9c5e 6fbe
00000340: 571f 12bd f7df 4f3e ec1e 5d3e 0c5e f93e
00000350: 87f6 ebbe 32a0 703c 296d 74be 8eb0 8ebc
00000360: 4d62 b63c d836 913e d319 9f3e 0682 503e
00000370: ce52 a3be 9f7a 31be 7f36 ddbe c13e adbe
00000380: 85c7 933e e647 093e f68f 953e 1cd6 84bd
00000390: f329 9abe 6f95 babe 0fcb 003e 5e51 cd3e
000003a0: 00ca 39be b4b7 3a3f 88d7 e03e 320f cf3d
000003b0: 346e 05bd 31e8 4dbf 7dd1 683d 3a20 87bd
000003c0: 0dbb ac3e 8b02 843e f569 1b3f dbec 6cbd
000003d0: ac62 afbd ced1 c0be f00e 34bf 6a05 8dbe
000003e0: 25bc 19bf f408 87bd 7954 9a3d 61f6 acbe
000003f0: ed55 83be f8fe 85be fee0 f4bd dcae 873e
