ml-1m_default/SASRec.epoch=1.lr=0.001.layer=2.head=1.hidden=50.maxlen=200.pth (torch, 782312 bytes, 34 tensors)

item_emb.weight f4 [3417, 50]
000000 00 00 00 00 00 00 00 00 00 00 00 00 00 00 00 00
       0.0 0.0 0.0 0.0
000010 00 00 00 00 00 00 00 00 00 00 00 00 00 00 00 00
       0.0 0.0 0.0 0.0
000020 00 00 00 00 00 00 00 00 00 00 00 00 00 00 00 00
       0.0 0.0 0.0 0.0
000030 00 00 00 00 00 00 00 00 00 00 00 00 00 00 00 00
       0.0 0.0 0.0 0.0
000040 00 00 00 00 00 00 00 00 00 00 00 00 00 00 00 00
       0.0 0.0 0.0 0.0
000050 00 00 00 00 00 00 00 00 00 00 00 00 00 00 00 00
       0.0 0.0 0.0 0.0
000060 00 00 00 00 00 00 00 00 00 00 00 00 00 00 00 00
       0.0 0.0 0.0 0.0
000070 00 00 00 00 00 00 00 00 00 00 00 00 00 00 00 00
       0.0 0.0 0.0 0.0
000080 00 00 00 00 00 00 00 00 00 00 00 00 00 00 00 00
       0.0 0.0 0.0 0.0
000090 00 00 00 00 00 00 00 00 00 00 00 00 00 00 00 00
       0.0 0.0 0.0 0.0
0000a0 00 00 00 00 00 00 00 00 00 00 00 00 00 00 00 00
       0.0 0.0 0.0 0.0
0000b0 00 00 00 00 00 00 00 00 00 00 00 00 00 00 00 00
       0.0 0.0 0.0 0.0
0000c0 00 00 00 00 00 00 00 00 15 72 10 3c 48 8e 47 bc
       0.0 0.0 0.008816262 -0.012179919
0000d0 0b a2 f7 3c 03 ba da bb f5 33 06 3b a7 70 e1 bc
       0.030228635 -0.0066750064 0.0020477746 -0.027519537
0000e0 4a bf 9c 3c 8b 04 4c 3c b8 b8 19 3d e5 0b 41 3d
       0.019134182 0.012452255 0.037529677 0.047130484
0000f0 0f 52 66 bc dc e0 27 bd 3f 08 46 bd 41 e0 15 bd
       -0.01405765 -0.040985927 -0.048347708 -0.03659082
000100 1a d8 d8 3c 02 62 27 3d 76 7a 63 bd 43 c8 cb bc
       0.026470233 0.040864952 -0.05553671 -0.024875766
000110 4d 06 b8 3b 69 a8 80 39 26 c5 4a 3d be 03 02 bd
       0.0056159855 0.00024539538 0.04950442 -0.03174185
000120 61 ed e5 bc 97 cd ab 3c 42 2b 76 bb 4e 49 32 bd
       -0.028067293 0.020972056 -0.0037562405 -0.04352694
000130 41 8a 3a 3c 94 8e 16 3c ef 31 22 3c 77 09 14 bd
       0.011385501 0.009189267 0.0098996 -0.03614184
000140 93 79 15 3b b0 80 83 ba 03 b8 ec 3b a4 72 ba 3b
       0.002280806 -0.0010032859 0.0072240843 0.0056899358
000150 4e 8a 0e bd 1a 9b 6b bd ac f1 3a bd 18 80 5c bc
       -0.034799866 -0.057520963 -0.045640633 -0.013458274
000160 8e 05 a4 3b 41 fc 06 3d d9 f0 30 3d 33 c2 aa bb
       0.005005545 0.03295541 0.04319844 -0.0052111386
000170 e1 22 06 3a 22 13 9c 3c 15 e2 52 bc ee 38 ba 3c
       0.00051168917 0.019052092 -0.012871285 0.022732224
000180 dc c9 df 3c 3a fe 20 3d a9 88 dd bc 49 4c 1d bb
       0.027317934 0.03930495 -0.027042704 -0.0024001768
000190 07 5d 6d 3c 09 87 73 bc 73 8f 81 bb 92 7f d7 bc
       0.0144875115 -0.014863738 -0.003953868 -0.026305947
0001a0 cf a3 d0 bb 6f 87 d6 bc 41 9b 8d bc 96 ea d1 bc
       -0.0063671838 -0.026187627 -0.017285945 -0.025624555
0001b0 dc 1a b6 bb f5 73 83 3c fe 96 2f bc 73 4f 1b bc
       -0.005557401 0.016046504 -0.010717152 -0.009479391
0001c0 cd 7a 81 bc f8 38 81 bb 35 46 db 3c 3c 72 92 3c
       -0.015805626 -0.003943559 0.026766876 0.017876737
0001d0 23 48 4c bb a6 86 2b 3c c5 4d 5f 3c fe 62 c4 bc
       -0.0031170927 0.010469114 0.013629382 -0.023972984
0001e0 f1 74 2c 3d 3a 0a 8a 3b ae de 82 3c 80 12 7e bb
       0.04210371 0.004212645 0.015975323 -0.003876835
0001f0 9c 14 55 3c 9e 61 86 bc fa e4 39 3c 9c 27 09 bd
       0.013005402 -0.01640397 0.011346096 -0.03348504
000200 41 41 8a 3c 39 62 bf bb d3 87 98 ba 94 ce 9b 3c
       0.016876819 -0.0058405665 -0.0011637158 0.019019403
000210 0b c6 0c bc 13 68 af 3b 86 0f 93 3c 92 4e 85 3b
       -0.008592139 0.005352983 0.017951738 0.004068204
000220 8a 22 a1 3c 21 e9 91 bc 1a c5 da 3c cc a8 c6 3b
       0.01966979 -0.01781136 0.026705313 0.0060626026
000230 01 ff 53 bc d2 f6 75 3c 91 7d 6f bc e1 49 41 3b
       -0.012939216 0.01501246 -0.01461734 0.0029493498
000240 ef cf 61 3c 08 57 e9 3b 89 55 fc bb aa b7 d0 bc
       0.013782485 0.0071209706 -0.0077006263 -0.025478203
000250 4b 88 4e 3c ed 3b ca bc 70 3a 16 3d 9d 5c 01 39
       0.012605737 -0.024686778 0.036676824 0.000123369
000260 c5 93 95 bb 58 1e b8 bc ac 3b c7 bc 12 6e d8 3c
       -0.0045647346 -0.022475407 -0.024320446 0.026419673
000270 9e ca 2e bd 17 e3 c3 ba 24 4e c3 bc a9 59 fc bc
       -0.0426737 -0.0014944997 -0.023840971 -0.030804472
000280 9c 2c a3 3c 9b 5d 06 bb 8d cb 83 3c d3 f1 ff 3c
       0.019918732 -0.002050257 0.016088272 0.03124324
000290 0e 4e 2b 3d 24 96 0f 3c b9 6a 21 3b aa 02 c6 bc
       0.041822486 0.008763824 0.0024630262 -0.024171192
0002a0 07 a3 8c 3c ba 56 0d 3c 55 8c 5a 3a 27 cf 0b bc
       0.017167581 0.008626634 0.0008336951 -0.008533276
0002b0 43 61 c3 bc 3f c0 2a 3c 48 08 0d 3d 91 33 3c 3d
       -0.023850089 0.010421812 0.034431726 0.045947615
0002c0 30 05 ad bc 8d e4 64 3c 08 5f 46 3c 80 91 99 bc
       -0.021120638 0.013970506 0.012107618 -0.018746138
0002d0 7c 61 90 bc 81 cd ba bc ef 42 b6 bc 6c 8e 08 3d
       -0.01762461 -0.02280307 -0.022248713 0.03333895
0002e0 7c 04 af bc d7 f7 92 3c 34 b0 44 3c 3b 8e 49 3c
       -0.021364443 0.017940445 0.012004901 0.012301977
0002f0 5d 61 c2 3c 1b 40 16 3c aa c9 31 3c 5c d7 81 3c
       0.023728067 0.009170557 0.010851303 0.015849762
000300 b7 ae 94 3c 2f 71 71 3b 8f 1a 19 bd b1 37 ff bc
       0.018149717 0.0036841144 -0.037378844 -0.031154485
000310 e7 f1 32 bd 5b 69 89 bc 60 cf 9f bc d7 db 16 bd
       -0.043687727 -0.01677387 -0.019508064 -0.03683075
000320 04 6d f4 3c 82 80 01 3c 4b 90 a3 3c 83 1f 00 bd
       0.029837139 0.007904174 0.019966265 -0.031280052
000330 c5 06 21 3c c1 8a 96 3b ce 3a c0 3c 21 1e a5 bb
       0.009828274 0.0045941775 0.02346554 -0.005038992
000340 e4 9b 4c 3d 0b fb 04 bd c6 9d c5 3b 84 c9 20 bc
       0.049953356 -0.032465976 0.006030771 -0.00981367
000350 f5 b3 03 bd 88 fb 0a 3d e4 75 7f ba 02 39 a8 3a
       -0.032154042 0.033931285 -0.0009745045 0.0012834372
000360 b2 c7 0a 3d 90 4f af 3c bb 45 33 3c 3a 81 1e 3d
       0.03388185 0.021400243 0.010941918 0.03869746
000370 ce fb 63 3c 16 b9 a5 3b 63 ac 63 bb e0 eb 03 3c
       0.013915015 0.0050574644 -0.0034740202 0.008051842
000380 79 99 34 bc 44 a6 8f bc 9d c5 98 bc 6b 40 9d bc
       -0.011022919 -0.017535336 -0.018648917 -0.019195756
000390 63 14 31 bc da 17 7e bc de 03 9f bc 4e cb c7 bc
       -0.010808083 -0.015508616 -0.019411024 -0.024388935
0003a0 ff 21 b7 3b df 5d 56 3b ee 45 6e 3c f8 9c 78 bc
       0.0055887694 0.003270976 0.01454304 -0.015174143
0003b0 6d f8 af bc fd b0 5a 3d 0f 7e a9 bc d5 35 6d 3c
       -0.021480763 0.053391445 -0.020689992 0.014478167
0003c0 7a 53 a5 bb 70 1b dc 3c 73 30 a8 bc aa e7 8b 3b
       -0.0050453516 0.026868552 -0.020530915 0.00426956
0003d0 38 6c 72 3b b2 fd d5 bc 9e 0a cd bc 71 a0 12 3c
       0.0036990773 -0.026121948 -0.025029477 0.008949385
0003e0 9c 06 e5 3c 54 3a bb 3b 64 22 cb bc e2 8e 3b 3c
       0.027957253 0.0057137404 -0.024796672 0.01144764
0003f0 2e e3 07 bd 99 d3 58 ba 31 6a 8c bc d5 56 e2 3c
       -0.03317564 -0.00082712766 -0.01714048 0.027629295

pos_emb.weight f4 [201, 50]
000000 00 00 00 00 00 00 00 00 00 00 00 00 00 00 00 00
       0.0 0.0 0.0 0.0
000010 00 00 00 00 00 00 00 00 00 00 00 00 00 00 00 00
       0.0 0.0 0.0 0.0
000020 00 00 00 00 00 00 00 00 00 00 00 00 00 00 00 00
       0.0 0.0 0.0 0.0
000030 00 00 00 00 00 00 00 00 00 00 00 00 00 00 00 00
       0.0 0.0 0.0 0.0
000040 00 00 00 00 00 00 00 00 00 00 00 00 00 00 00 00
       0.0 0.0 0.0 0.0
000050 00 00 00 00 00 00 00 00 00 00 00 00 00 00 00 00
       0.0 0.0 0.0 0.0
000060 00 00 00 00 00 00 00 00 00 00 00 00 00 00 00 00
       0.0 0.0 0.0 0.0
000070 00 00 00 00 00 00 00 00 00 00 00 00 00 00 00 00
       0.0 0.0 0.0 0.0
000080 00 00 00 00 00 00 00 00 00 00 00 00 00 00 00 00
       0.0 0.0 0.0 0.0
000090 00 00 00 00 00 00 00 00 00 00 00 00 00 00 00 00
       0.0 0.0 0.0 0.0
0000a0 00 00 00 00 00 00 00 00 00 00 00 00 00 00 00 00
       0.0 0.0 0.0 0.0
0000b0 00 00 00 00 00 00 00 00 00 00 00 00 00 00 00 00
       0.0 0.0 0.0 0.0
0000c0 00 00 00 00 00 00 00 00 6b 97 bc bd 47 b0 22 bb
       0.0 0.0 -0.09208568 -0.0024824308
0000d0 0a 66 84 bc 92 38 26 3d 5a c5 8a 3d 7a 8f 8e 3d
       -0.016161937 0.040581293 0.06775923 0.0696096
0000e0 4c bb 4b bc df 3c 86 bd 1d 06 d6 3c 1e 2f 7e bd
       -0.012434792 -0.06554579 0.026125962 -0.062056653
0000f0 60 56 00 be d2 57 76 bd 9e eb 47 bd 8e 17 21 3d
       -0.1253295 -0.060142346 -0.048808686 0.039329104
000100 c0 3d a8 3d 68 67 a8 bd 64 ce 18 3d 86 f5 0a bd
       0.08214903 -0.08222848 0.037306204 -0.033925556
000110 d7 c9 69 bd fe d5 ba bd 4e 6e 27 bd ad bb c1 3c
       -0.057077255 -0.09122847 -0.04087668 0.023649061
000120 3f e7 30 3d 12 dd 28 be 2a 88 b1 bd 84 33 8e bc
       0.043189283 -0.16490582 -0.08668549 -0.017358549
000130 89 27 8f 3c 14 a2 3d bd 82 cf 7b bd af 47 f6 3d
       0.017474907 -0.046297148 -0.06147719 0.12025391
000140 b3 06 07 3e bd 09 b5 3d 1b b3 ca bd cd 61 1e bd
       0.1318615 0.08839748 -0.09897443 -0.03866749
000150 a4 10 cc bd ae ee 49 bd fa bf fa 3c ae 89 30 3c
       -0.099641114 -0.04929989 0.03060912 0.010775013
000160 d5 11 74 3d f0 11 c0 bd 6f 2a a4 3c dd f1 09 bc
       0.05958732 -0.09378421 0.020039765 -0.008419481
000170 fa ed c5 3d 2e b6 a9 bc f8 6e 21 bd b4 81 6e 3e
       0.09664531 -0.020716753 -0.03941247 0.23291665
000180 60 80 5d bd 13 1a 1e 3d 79 6e ae bc 7b 9e 76 bd
       -0.054077506 0.038599085 -0.021292912 -0.060209733
000190 67 f7 89 bd 49 21 b1 bd c0 df fa bd dd 6e 97 3d
       -0.067366414 -0.08648927 -0.12249708 0.07394192
0001a0 12 98 66 3d 14 53 f5 bd a8 b3 94 3d d3 e8 db bd
       0.05629737 -0.119787365 0.07260829 -0.10737767
0001b0 c2 aa db 3b 44 84 b8 3c eb ff 5a 3e 03 6a 24 be
       0.0067037055 0.022524007 0.21386687 -0.16056065
0001c0 c3 f2 64 3d db 49 ca 3d 11 32 27 bd 30 ef 12 be
       0.055895578 0.09877368 -0.04081923 -0.14349055
0001d0 53 84 27 bd 5f 6f 8f bb 87 2c 57 bd 1f c5 e4 3d
       -0.04089768 -0.00437729 -0.0525327 0.1117041
0001e0 6c c2 37 be 74 62 04 bc 10 7f 8e 3c 45 59 f2 bd
       -0.1794526 -0.008080114 0.017394572 -0.11833433
0001f0 6e 64 09 3e 81 f5 5c bd 22 00 05 3e 9f c7 08 be
       0.13417217 -0.05394507 0.12988332 -0.133574
000200 fb f1 3a be f9 c4 b3 bd 9d e2 1c bc 6c 0c 04 3e
       -0.1825637 -0.08777804 -0.009575513 0.12895364
000210 33 d7 8c 3b 69 ca 85 3c 10 79 98 3b 08 2b c8 3c
       0.0042981147 0.016331868 0.0046531036 0.024434581
000220 4f e0 a1 3c ec 8f db bc 19 a7 df bd 0b c1 d8 3c
       0.019760279 -0.026802026 -0.10920543 0.026459238
000230 fd 60 16 3e e5 9c 90 3d f7 7d 09 3c 3d da 4f 3e
       0.14685436 0.07061175 0.008391849 0.20298095
000240 3e 61 82 bc 16 59 0f be 23 86 a4 bd d3 bb 17 bd
       -0.01591551 -0.13998827 -0.08033397 -0.037044358
000250 d6 51 8e 3c fe 66 01 bd 0c e4 af bc 90 76 83 bd
       0.017373007 -0.03159236 -0.021471046 -0.064190984
000260 81 5a 3c be 14 6a a7 3d 35 97 eb 3d 03 75 3a 3d
       -0.183939 0.0817453 0.1150345 0.045521747
000270 0e d2 89 bc 98 59 9e bc 0b 43 59 bd ea 18 43 3c
       -0.016823795 -0.019329831 -0.053042453 0.011907795
000280 c1 d4 1e bd 17 b1 41 3c 23 6c 56 bd b8 f3 17 be
       -0.038777117 0.011822007 -0.05234922 -0.14839065
000290 45 07 86 bd 75 b4 d9 bd f9 37 54 bd 23 75 5a 3d
       -0.06544355 -0.106301226 -0.051811192 0.053334367
0002a0 e9 d1 a2 bd fe 27 dc 3c 73 8a ec 3d ae ab ba 3d
       -0.079501934 0.026874539 0.115498446 0.091147766
0002b0 0f 4c 60 3d 2b dc 61 bd 46 bf 84 bd f5 14 b8 bd
       0.054760035 -0.05514161 -0.06481795 -0.08988372
0002c0 45 32 c0 bc 0d 25 4a bd f0 05 65 bd d1 8f 90 bd
       -0.02346147 -0.04935174 -0.055913866 -0.07058681
0002d0 eb b9 27 bd 99 b1 1d be c9 96 c7 bc b4 38 c6 3c
       -0.04094879 -0.1539978 -0.024363892 0.02419696
0002e0 59 d7 9e 3c dc 35 e0 3b 46 cd bb bc 36 86 b9 bb
       0.019389795 0.006842358 -0.02292503 -0.005661751
0002f0 8e d7 4b bd c8 59 e5 3c 88 b1 d0 3d 46 50 41 bd
       -0.049766116 0.027996913 0.101901114 -0.047195695
000300 2f 2b 2b 3e de 38 62 bd 27 95 24 bd 7d 8f 2f be
       0.16715692 -0.055230014 -0.040181305 -0.1714458
000310 bf c8 28 bb cf a5 2f 3d bf ab bd 3d 8c ad 70 3c
       -0.002575442 0.042882737 0.092612736 0.014689814
000320 87 55 cf 3d 99 d6 a6 bd ca 1f 68 3d 8b a6 11 bc
       0.10123735 -0.081464 0.05667094 -0.008889805
000330 55 f9 d1 bc 48 8a e3 3c 67 5c 3a 3b 52 56 28 bd
       -0.025631586 0.027775899 0.0028436424 -0.041097946
000340 0a 13 9f bd 75 83 b3 bd 52 3a 71 3d 7f 0b e4 3c
       -0.07767303 -0.08765308 0.05889351 0.027837513
000350 f0 47 92 3e 94 68 12 3d 7a 15 cf 3d c2 15 9f 3d
       0.2857051 0.035744265 0.10111518 0.07767822
000360 2d de 17 3d 1a 6f 23 3b 4e 92 9f bc 8b 8b b8 3d
       0.037077118 0.0024938048 -0.019478943 0.09010991
000370 cc c2 fc bd 99 31 12 be 9f d6 6d 3d 06 19 eb bc
       -0.12341842 -0.14276733 0.058066007 -0.028698456
000380 a5 c8 4a bb 2a 27 b1 3d 4b 2b 48 bd c3 f9 99 3d
       -0.0030942347 0.08650048 -0.048869412 0.075183414
000390 f9 a2 b9 bd da f8 ff bc 7b 78 c7 3c ae 1c f1 3d
       -0.09064288 -0.031246591 0.024349442 0.11773048
0003a0 8e 25 fe 3b d2 c9 48 bd 8f d0 c4 bc 14 f8 d3 bd
       0.0077559417 -0.049020596 -0.02402523 -0.103500515
0003b0 0d e6 69 bd f7 59 9f bc 03 cd 86 3d e3 2c 0d 3d
       -0.05710416 -0.019452078 0.06582072 0.034466635
0003c0 bb 8a f9 3b 71 f9 01 bd 36 42 f0 3d 0d ba ab bd
       0.007615415 -0.031732026 0.11731379 -0.08385096
0003d0 c4 c2 f2 bd f5 24 bb 3d 3d eb e7 3d 0b 48 30 bd
       -0.11853555 0.09137908 0.11324165 -0.043037456
0003e0 04 c3 26 be 61 88 09 3d db e0 18 bd b9 c7 56 3e
       -0.1628533 0.033577327 -0.037323814 0.20974626
0003f0 63 b3 5a bb 6a e2 5b bd b1 d2 1f bb c0 e1 bd 3c
       -0.0033371083 -0.053682722 -0.0024387056 0.023178935

model.Layernorm.weight f4 [25]
000000 a6 5e 80 3f 19 0f 80 3f 72 45 7f 3f 95 42 7f 3f
       1.0028884 1.0004607 0.9971534 0.9971097
000010 cf 5e 80 3f 78 41 80 3f ac 8f 7f 3f 5d 0d 80 3f
       1.0028933 1.001998 0.998286 1.0004078
000020 94 4c 80 3f e9 02 80 3f f9 4a 80 3f c2 a1 7f 3f
       1.002337 1.0000888 1.002288 0.998562
000030 0c 52 7f 3f c2 2a 80 3f 99 42 80 3f 63 35 80 3f
       0.9973457 1.0013049 1.0020324 1.0016292
000040 52 94 7f 3f 7e 62 7f 3f 5c 1d 80 3f f3 00 80 3f
       0.99835694 0.9975966 1.000896 1.000029
000050 dc a0 7f 3f 80 63 7f 3f 6a 54 7f 3f 09 26 80 3f
       0.99854827 0.997612 0.9973818 1.0011607
000060 e9 aa 7f 3f
       0.99870163

model.Layernorm.bias f4 [25]
000000 7e 99 3e bb 23 48 95 39 0d 00 39 3b a2 60 0f bb
       -0.0029083188 0.0002847324 0.002822879 -0.0021877666
000010 60 5f 34 bb 93 f5 33 bb f6 6d 11 39 e0 26 29 bb
       -0.0027522668 -0.0027459606 0.00013869241 -0.0025810525
000020 e9 81 3a bb 01 50 27 bb fa ee c2 39 04 bf 91 39
       -0.002845878 -0.0025529864 0.00037180615 0.00027798873
000030 4a 2c 04 38 65 67 cc 3a 0a 3b 81 b9 41 00 2b 3b
       3.15125e-05 0.0015594779 -0.00024648785 0.002609268
000040 5a 73 87 3a f3 f4 c6 ba 91 83 ee 3a 03 68 36 3b
       0.001033406 -0.0015179202 0.0018197169 0.0027832992
000050 a2 53 3f 3b dd 87 38 3b 69 c1 00 b9 d8 3a 8e ba
       0.0029194136 0.0028157153 -0.00012279082 -0.0010851277
000060 0e 0f 3a 3b
       0.002839032

model.w_q.0.weight f4 [25, 25]
000000 1d 9b ac 3e 34 7d 11 3d 14 4e e0 bd ac 2a a0 3e
       0.33712092 0.035519794 -0.10952392 0.31282556
000010 63 b4 17 3f 86 67 0a be 8e b4 e0 3e 93 60 40 be
       0.59259623 -0.13516054 0.43887752 -0.1878684
000020 32 9c 01 3e 58 14 69 3d 5b 47 9f 3c e0 88 9f 3d
       0.1265724 0.056904167 0.019443205 0.07789779
000030 ec d3 2b 3d 46 07 af 3c 93 89 46 3e 6a 0d 2c 3e
       0.04195015 0.021365773 0.19388418 0.16801992
000040 4a a8 33 bd db af 32 3e cb c6 af 3b 28 73 d7 3d
       -0.043861665 0.17449896 0.005364274 0.10520011
000050 f1 fd 0c 3e fa 05 62 3e d9 22 55 3e 13 ec 3a be
       0.13768746 0.22072592 0.20814075 -0.18254118
000060 b3 cc bd 3c 04 dc 00 3f 9f 01 49 3d a4 a6 94 3e
       0.023168897 0.5033572 0.04907381 0.29033387
000070 99 05 b4 3e 38 43 8b be 6e 0b 08 3e 36 ef 1f bd
       0.3516052 -0.2719972 0.1328561 -0.03904649
000080 b0 dd 08 3e f3 ab 28 be 30 9d 1f be bd a1 e3 bd
       0.13365817 -0.16471843 -0.15587306 -0.111148335
000090 9d 25 bd 3b 5e e8 63 3d 16 fb 8c 3e 6d 6c b7 3c
       0.005772306 0.055641524 0.27535313 0.022390569
0000a0 10 26 9e 3e 05 36 d3 3d 06 51 d1 bd 08 6c af 3e
       0.30888414 0.10313038 -0.10220532 0.3426211
0000b0 d0 47 91 3d a4 56 b2 3d 58 c9 85 be f8 ef 04 3e
       0.07093775 0.08707932 -0.26130176 0.12982166
0000c0 dc c4 94 3e 0d 7f 36 bc d0 50 56 bd 45 c0 13 be
       0.29056442 -0.01113869 -0.052323163 -0.14428814
0000d0 60 95 a7 3e 25 00 fd 3e 17 a9 ce bc 28 50 0d 3d
       0.32731152 0.49414173 -0.025227113 0.03450027
0000e0 b1 67 9f 3d 4d 2e b4 bd 16 b8 a3 3e 39 8b 5a 3d
       0.077834494 -0.08797894 0.31976384 0.05335543
0000f0 62 1a f5 3c 89 cf 47 3c 41 3b df 3d c0 f1 e6 bc
       0.029919807 0.012195476 0.10899974 -0.028191447
000100 99 0c 36 be f0 08 13 bc 9a d9 a0 3d 50 da 18 be
       -0.17778243 -0.008974299 0.07854004 -0.1492703
000110 7d eb 93 be fa 2f 29 be af ec 47 3d e2 b2 31 be
       -0.288906 -0.16522208 0.048809703 -0.17353395
000120 af 51 a8 be 9d a0 6f be 51 4b b2 3b 28 2e 2d be
       -0.3287482 -0.23401113 0.0054411073 -0.16912138
000130 f9 98 db 3d c1 e4 cf 3d 80 14 0a 3f e0 4f 35 3e
       0.107225366 0.10151053 0.5393753 0.17706251
000140 29 10 4f 3c 71 4b f4 3e 13 9c a9 be b3 21 18 be
       0.01263813 0.47713807 -0.33126888 -0.14856605
000150 78 9b 0a 3e 16 f6 56 bd 43 7d 00 bf 36 97 46 3d
       0.13535869 -0.05248078 -0.50191134 0.04848405
000160 44 e4 09 3e f7 b2 25 be 84 03 e3 3c d1 7a 57 bd
       0.13465983 -0.16181551 0.027711637 -0.05260736
000170 44 19 01 3b 4a ae 9d bd 88 fc 8c 3e 33 15 42 bd
       0.0019698897 -0.076992586 0.27536416 -0.0473835
000180 c4 d7 df 3d 99 c8 8f be b6 c3 6b 3c 53 29 2f 3f
       0.10929826 -0.2808273 0.014389923 0.6842243
000190 cb 26 aa 3c 72 b4 ae be a2 88 6f be e4 a3 c1 bd
       0.020770451 -0.34122044 -0.23391965 -0.09455088
0001a0 a8 41 8a bc 1a 5a 4a 3e c9 ff a7 bd 99 3f 65 bc
       -0.01687701 0.19760934 -0.08203084 -0.013992214
0001b0 d2 bd ae bd ba 4b 31 bc da 62 15 3e 88 c1 c9 3b
       -0.08532299 -0.010821277 0.1458849 0.006157104
0001c0 50 de e4 3d cf 2c 0e be 64 9d bc 3e b3 24 27 be
       0.11175215 -0.1388428 0.3683883 -0.16322593
0001d0 5b 13 9a bd 4a 6a 8c 3e 7c 97 8e 3c 8b 4d b8 3e
       -0.07523223 0.27424842 0.017406218 0.3599666
0001e0 c2 f1 32 3a 65 5c 69 3e 3f 11 22 3d 69 34 a6 be
       0.0006826186 0.22789152 0.03956723 -0.3246186
0001f0 b6 87 77 be 36 76 0e be 49 7a 95 be 09 bf 94 bd
       -0.24172863 -0.13912281 -0.2919486 -0.072629996
000200 30 55 a1 bc f9 d7 5b be 60 55 95 3d 9c 76 78 be
       -0.01969394 -0.21469106 0.072916746 -0.24263996
000210 b6 50 8a be 61 9b e6 3e ed b4 0c 3f cf 55 52 3e
       -0.27014703 0.4504042 0.5496357 0.20540546
000220 a6 f3 10 3d 85 af 21 bd eb 0e 2b 3e 0e 48 e0 3d
       0.03538861 -0.03947403 0.1670491 0.10951243
000230 94 00 05 be 60 ec 04 bf 5e 90 85 bd 9e 6d 4b 3e
       -0.12988502 -0.5192318 -0.065216765 0.19866034
000240 f6 b7 39 be fa 64 20 3e 15 3b fd be e2 b1 87 3d
       -0.18136582 0.1566352 -0.4945914 0.06625725
000250 d6 59 7c bd 7a ea 09 bc 38 0b 9f 3d a9 47 61 bd
       -0.06160911 -0.00841772 0.07765812 -0.05499998
000260 da 37 9a bd 02 a3 8c 3e 1b c3 d0 39 73 78 97 3e
       -0.07530184 0.27468115 0.00039818216 0.29584083
000270 03 e0 be bd a5 9d e5 bc 51 d6 dd 3c e4 2f 16 3e
       -0.093200706 -0.028029272 0.027079733 0.14666706
000280 32 e3 fc be 40 64 50 3d 66 f0 1b 3e 31 cd a3 bc
       -0.49392086 0.050876856 0.15228423 -0.019995304
000290 1c ec 5d 3d 83 8d 62 3e 2b 0b 93 3d b6 d1 52 be
       0.05418025 0.22124295 0.071798645 -0.20587811
0002a0 28 ce 64 3d a8 9e be be 57 9c 9d bc ff 78 d1 3e
       0.05586067 -0.3723042 -0.019239588 0.40912625
0002b0 97 2c cb 3e 0b ec 98 bd 1c ec 7b 3d 3f 94 53 be
       0.39682457 -0.074668966 0.06150447 -0.2066202
0002c0 fd ea 22 be 87 6c 3b 3d bd 46 84 3c 48 68 da 3d
       -0.15909953 0.045757797 0.016147012 0.10664421
0002d0 39 ad f1 3c ff 40 c7 3d 7a 64 cd 3d 72 7f a7 3e
       0.029501544 0.09729194 0.1002893 0.3271442
0002e0 ff c4 94 be 35 ac a7 bd da 0f 9c 3e d9 3e bc 3d
       -0.29056546 -0.08187143 0.30480844 0.09191675
0002f0 52 af 94 3e 99 7a 8f bc aa d7 26 bd 38 dd aa bd
       0.2904001 -0.017514514 -0.040733017 -0.083429754
000300 b4 61 1a be ab 8f 47 be b0 6b 55 3c e0 59 b0 be
       -0.15076333 -0.19488399 0.013026163 -0.3444357
000310 8d e2 68 bd 8a 6b 20 3e d6 c6 e7 bd ce a5 b9 3d
       -0.05685668 0.15666023 -0.11317222 0.09064828
000320 bb 10 52 be c0 f9 e6 3e 9d da 40 3e a3 8b d1 3d
       -0.20514195 0.4511242 0.18833394 0.10231712
000330 24 bb f9 bc 7b c6 4f 3e 18 6c 1b 3e 9b 0d d0 3c
       -0.030484743 0.20290558 0.15177953 0.025397113
000340 3e 73 80 3e 06 c5 af 3e a4 c9 0a 3e 9b 4d a6 3e
       0.25087923 0.34330004 0.13553482 0.32481083
000350 3b 4c 24 3e 3b ef 90 3e 1c bf 90 be bf 5e 7e 3e
       0.16044705 0.28307518 -0.28270805 0.2484083
000360 9d 49 80 3d db 0a 40 3c bb ec cb 3e 91 e9 b3 3d
       0.062640406 0.011721338 0.3982905 0.08784784
000370 dd c3 3d be 69 5a e3 bd a2 cf 83 3e 21 1c b2 bc
       -0.18531747 -0.11101229 0.2574435 -0.021741929
000380 8d 2f db be 62 10 d9 3d e2 88 0c 3e 93 a7 8d 3e
       -0.42809716 0.10598828 0.13724092 0.2766691
000390 a0 98 cb bd 0f 45 ba bc b6 e2 4d be 18 b4 ae be
       -0.0994122 -0.022738008 -0.20106015 -0.34121776
0003a0 75 d6 63 3e 8e 77 93 3e 05 01 f4 3d f6 66 c8 3e
       0.22249778 0.2880215 0.11914257 0.39141053
0003b0 f7 1b 66 bd ed ae 2b 3e d3 01 67 bc 4f 73 3a bd
       -0.056179013 0.16765948 -0.014099556 -0.045520123
0003c0 31 7e 5a bd 03 c5 53 3d 05 c0 bc 3e 91 fe b6 bc
       -0.053343 0.051701557 0.3686525 -0.022338184
0003d0 2e 1d 12 bd 83 1a a3 3d 4b bf 82 be e5 df 91 bd
       -0.03567236 0.07964041 -0.2553657 -0.071227826
0003e0 68 bf 2e be 92 79 9b bd 01 61 1d be 12 28 1a bd
       -0.17065203 -0.07591547 -0.15369035 -0.03763587
0003f0 4c 42 98 3e b7 ce 1b 3e 87 45 f7 3d 1d 35 b4 bc
       0.2973808 0.15215574 0.12073808 -0.021997983

model.w_q.0.bias f4 [25]
000000 7b d5 f0 bd c9 84 73 3d 36 46 24 be a4 2b 99 bd
       -0.11759468 0.059452806 -0.16042408 -0.07479027
000010 be 79 c5 b9 d1 1b 41 3d 94 1c 2f bd 20 7e 12 3d
       -0.00037665473 0.04714567 -0.042751864 0.035764813
000020 01 7c 0f 3e 7b b0 1b be 1f 66 2e be f4 8c 0e 3e
       0.14012147 -0.1520404 -0.17031144 0.13920957
000030 9e d7 8a 3c 54 c4 08 3e ab 8b 3d 3e 91 ae 8c bd
       0.016948517 0.13356143 0.1851031 -0.068692334
000040 de b7 db bd 57 80 2e 3b 4c 40 f6 3d 16 e1 f2 bd
       -0.10728429 0.002662679 0.120239824 -0.11859338
000050 5b 4b 34 be f9 f7 05 3d f5 79 f6 3d 02 7c cc 3c
       -0.17606871 0.03270719 0.1203498 0.024961475
000060 25 24 cb 3c
       0.024797508

model.w_q.1.weight f4 [25, 25]
000000 6a f4 d6 bd f5 b2 59 3d 87 3e e5 bd 60 a6 34 3d
       -0.10495837 0.053149182 -0.11193567 0.04410398
000010 5d 13 58 be 9c e4 ee 3d f3 c8 84 be 6a 43 8e be
       -0.21101137 0.116646975 -0.25934562 -0.27785808
000020 11 fe 17 be 12 23 07 bd aa 11 49 bd 2d 36 95 3c
       -0.14843012 -0.03299243 -0.04908911 0.01821431
000030 7a ee 6f 3e 9f 8f e9 be 22 f1 ba 3d 25 12 37 be
       0.23430815 -0.45617387 0.09128024 -0.17878015
000040 b5 56 c1 be 12 58 0a bd 03 ce 8d be 2d 58 04 3e
       -0.37761465 -0.033775397 -0.27696237 0.12924261
000050 4e cc 04 be f1 80 39 3d ab 49 bb bd 27 47 6c bb
       -0.12968561 0.045288984 -0.091449104 -0.0036053152
000060 9a f6 bb bd e5 29 90 3e ce 85 9c 3d eb 52 03 3d
       -0.09177895 0.28156963 0.07642709 0.0320615
000070 09 55 73 bd 6f 85 38 3e 6b 78 76 be 71 83 fe 3d
       -0.059407268 0.18019651 -0.24069373 0.12427414
000080 ff ba 9a bd a3 67 ca 3d 03 98 01 3f e1 f8 71 3e
       -0.07555198 0.098830484 0.50622576 0.23630096
000090 e1 3e 70 be 2d 4d 80 3e 3e cb f7 3d 4c 17 3d be
       -0.23461486 0.2505888 0.12099312 -0.18465918
0000a0 3f 4c 1d be 41 df d0 3e 0b 9a 0f 3e 00 17 71 be
       -0.15361117 0.4079533 0.14023606 -0.2354393
0000b0 d4 e0 e6 3d 37 0e 06 bd aa 79 01 be 85 6f c2 3d
       0.11273351 -0.0327284 -0.12644067 0.09493927
0000c0 98 83 ed be ca 1a 6b be f8 b0 fa 3d d5 9c 94 3e
       -0.4638946 -0.22959438 0.12240785 0.29025903
0000d0 e8 4b 10 bc 94 91 04 3e e5 ba 8e 3e 49 eb 2e 3d
       -0.00880716 0.12946159 0.27876964 0.042704854
0000e0 1d 6e 39 3d 34 9a 33 3d 33 4b ba 3e e3 91 45 3d
       0.045271028 0.04384823 0.36385497 0.04823483
0000f0 fd 8f bf be c9 f8 3c 3e c8 2e af 3e e7 1d 30 be
       -0.37414542 0.18454279 0.3421538 -0.17198907
000100 3f dc cc 3d 65 5c c9 be 57 65 ee bc ae ce be be
       0.10002946 -0.39328304 -0.029101057 -0.3726706
000110 46 d5 70 be 8a 30 11 3e 7d 2f 27 3d f8 40 04 3d
       -0.23518857 0.14178672 0.040816773 0.03228852
000120 d2 46 92 3e c4 91 5d 3d 1b 9c e4 bd fe 04 a5 bd
       0.28569657 0.05409409 -0.11162587 -0.08057593
000130 f8 7b da be 60 14 54 be 52 04 8b be 7a 6b 1e be
       -0.42672706 -0.20710897 -0.27151734 -0.15470687
000140 62 83 6a bd 2d fb a6 3e dc 26 61 3e b3 9b 7d 3e
       -0.057254203 0.32613507 0.2198748 0.24766426
000150 b9 6f 0d be 9b ec 10 be bc 50 b0 bd 3c e8 56 be
       -0.1381215 -0.14152758 -0.08609149 -0.20987028
000160 ad 3d 51 3d b5 7d 07 3d 45 bc 0f 3d c7 af 9e bd
       0.05108421 0.033078868 0.035091657 -0.077483706
000170 db 8a 54 be 93 d7 68 3c 8b 23 e8 bb c6 e3 93 bd
       -0.20756094 0.014211553 -0.007084315 -0.07221179
000180 51 fa 61 be c2 98 8a 3e c5 29 5d be 83 85 d4 3e
       -0.22068144 0.2706967 -0.21597965 0.4150811
000190 b3 88 41 3e 75 8b 78 be 4e 19 35 3d 6d e9 9d 3d
       0.18899803 -0.24271949 0.044213586 0.07710538
0001a0 b1 10 b3 3e 76 c7 a5 be a3 26 8e be a7 6c 1b be
       0.34973672 -0.3237874 -0.27763852 -0.15178166
0001b0 39 68 00 3e fa cc 4c 3e 9e 12 aa bc cc 46 03 be
       0.12539758 0.20000067 -0.02076083 -0.12819976
0001c0 85 7f 0a 3d fb ed 93 3e ae 2c 47 bd 4f c2 bf ba
       0.03381302 0.28892502 -0.048626594 -0.0014630052
0001d0 cb 0a 7c 3e 3a 9c 25 3e 35 68 11 bd 22 48 1d 3e
       0.24613492 0.16172877 -0.03549977 0.15359548
0001e0 e6 ae c7 bd f5 d6 97 bd 14 2a 50 be 17 af fd 3c
       -0.09750156 -0.07414047 -0.20328552 0.030967278
0001f0 ee 21 9f be b3 be 89 be eb 67 6d 3d 95 c5 81 be
       -0.31080574 -0.26903304 0.057960432 -0.25346056
000200 62 c6 e7 3d ee 8a cf bc 3a d7 4f bd e7 02 97 3d
       0.113171354 -0.025334802 -0.050742365 0.073736005
000210 02 7a 10 3f 24 c0 a5 3e 79 56 c5 3e 1d 17 98 be
       0.5643617 0.32373154 0.38542536 -0.29705134
000220 7c b2 b3 be ae fe 09 3e 27 30 16 bc b7 0d d9 3c
       -0.3509711 0.13476059 -0.009166754 0.026495798
000230 99 8c 57 3e dc dc 33 be 5f 18 5c 3d 76 7c 83 be
       0.21049727 -0.1756472 0.05373418 -0.25680894
000240 85 33 1d bf d8 31 a9 3d ff d1 22 3e 0b d3 24 bd
       -0.6140674 0.0826146 0.1590042 -0.04024033
000250 91 09 09 be df 9e 13 be 04 37 60 3e c1 9d 74 bd
       -0.13382556 -0.14416073 0.21895987 -0.05972076
000260 4b 1e 7a 3c e7 2c 1a 3e eb fd 92 be 9a 8b 77 be
       0.0152660115 0.15056191 -0.2870935 -0.24174348
000270 fa 3b 6d be 4b de 80 be bf c9 33 be ac c0 91 be
       -0.2316741 -0.25169596 -0.17557429 -0.2846731
000280 d9 9d a4 3e 14 dd 3b bd 30 40 9c 3d 84 99 4b 3e
       0.32151678 -0.045865133 0.0762943 0.1988278
000290 05 70 ed 3d d2 e2 c5 be 54 6b ba bd 42 08 bd be
       0.11593632 -0.38649613 -0.091025025 -0.36920363
0002a0 c8 4d eb 3d ca cd 7c 3d 1a d1 60 3e 1c 2b ea 3d
       0.11489445 0.061719693 0.21954766 0.11434004
0002b0 04 6c 6f be 06 48 34 be 3f 32 e6 3d 2e bc 68 be
       -0.23381048 -0.176056 0.112400524 -0.22728035
0002c0 93 0e 4a bd 3f e9 5e 3e 41 9e a6 3d db cc 9b be
       -0.049330305 0.21768664 0.08135653 -0.3042973
0002d0 18 96 8c 3e 4f ad 07 3e 06 6c 7a be c7 44 55 3e
       0.27458262 0.13249706 -0.2445527 0.20827018
0002e0 7f 89 13 3e 7f 11 e8 bd 15 20 b8 be 74 16 85 3e
       0.1440792 -0.11331462 -0.35961977 0.25993693
0002f0 32 76 65 3d 3d 51 4a 3e 7c de ac bc c2 51 ab bd
       0.056020923 0.19757552 -0.021102183 -0.083652034
000300 09 f5 53 3d 9b d6 98 be 70 87 ee bd ec 3e 66 3e
       0.051747356 -0.2985123 -0.116469264 0.2248494
000310 49 96 08 bd a6 5a e9 bc dc e4 53 3e 5b e1 ed bc
       -0.033346448 -0.028485607 0.20692772 -0.029038122
000320 da 8d af be 1a 34 45 3e bf 92 4c 3e ae 13 35 3e
       -0.34287912 0.19258156 0.19977854 0.17683288
000330 79 dd 01 be 27 bb ba bd 46 8e 24 3e 91 95 89 3d
       -0.12682141 -0.09117728 0.16069898 0.06717981
000340 0e 23 a4 ba b7 09 de 3c 46 f2 76 3e ea b5 31 3d
       -0.0012522654 0.027104242 0.24115857 0.043386377
000350 ad 5d a5 bd 2a 7d a1 3d a0 cf 8e 3e 4f 9c 8b be
       -0.08074508 0.07885201 0.2789278 -0.27267691
000360 9a 15 93 3c 5c c1 09 be b3 bd 61 3e cb cb 83 be
       0.017954636 -0.13452667 0.22045021 -0.2574142
000370 7e 2b 8e 3e 10 64 dd be cd b9 d1 bd 41 d8 38 be
       0.27767557 -0.43240404 -0.10240517 -0.18051244
000380 c1 ee ec 3c 50 a1 36 3e 28 3d 94 bd e4 fa 1e 3b
       0.02892244 0.17834973 -0.07238227 0.002425843
000390 ba ed e3 3d e1 06 99 3e 8e 57 0a 3f 51 1e bb bd
       0.11129327 0.2988806 0.5403985 -0.09136642
0003a0 99 96 c0 be 2a 8b 86 be 0a 06 cf bd ba d5 0f be
       -0.37614897 -0.2627805 -0.10108574 -0.14046374
0003b0 3e 58 e5 3d fa e5 95 3e 34 2c 49 3d 51 de d7 3d
       0.111984715 0.2927702 0.04911442 0.1054045
0003c0 81 78 93 3d 33 83 90 bd 79 dc fd 3d c5 72 f3 3d
       0.07200719 -0.07056274 0.123955674 0.11887125
0003d0 52 9c a5 3e 9b 1d 46 3e 82 78 fc bd 77 ff 04 be
       0.32345825 0.19347231 -0.123276725 -0.12988077
0003e0 74 80 6e 3e 2d aa 68 3d fe b2 35 be 03 89 de bd
       0.23291188 0.056802917 -0.17744061 -0.10865977
0003f0 22 2b c8 3e 0e 98 0a 3d ec 80 a7 bd d7 dd ae 3e
       0.39095408 0.033836417 -0.08178887 0.34153625

model.w_q.1.bias f4 [25]
000000 f0 49 19 3e cb 04 3e be f1 d1 94 3d 33 31 25 bc
       0.14969611 -0.18556516 0.07266606 -0.010082531
000010 2e 14 b4 3d 4e d2 dc 3c 2d 6a 47 3e b8 8b 67 bd
       0.087929115 0.02695575 0.19474097 -0.05652973
000020 3e 47 96 3c ab 1b 5a 3b ad 2c 29 be 78 97 46 3e
       0.018344518 0.0033280652 -0.16520949 0.19393718
000030 78 f0 11 be 23 ee 47 3e 5a f4 49 bd 5b 06 f6 3d
       -0.14251888 0.19524436 -0.049305297 0.12012931
000040 0d fa fb 3d 61 65 26 be f4 8c 3c be 77 95 e7 bd
       0.12303553 -0.1624961 -0.18413144 -0.11307805
000050 36 4d c5 bd de d9 b4 3d e6 5b 82 3d 22 c7 09 3e
       -0.096338674 0.08830617 0.063651845 0.1345487
000060 41 fa 2b 3e
       0.16794683

model.w_q.2.weight f4 [25, 25]
000000 3e 8d 55 3e ef b2 e5 3b 07 41 15 3e 3b 3e 06 3e
       0.20854661 0.007009856 0.14575587 0.13109677
000010 27 a6 01 3e 21 96 05 be 9f 32 2a 3e 6c 62 3b 3e
       0.12661038 -0.13045551 0.16620873 0.18299264
000020 7d 59 a1 3e e6 65 e1 3e 68 fb 67 3e 29 65 9b bd
       0.31513587 0.44023055 0.22654498 -0.07587654
000030 70 b0 6a be 27 d3 0d 3e 2b 99 bd bc 9e e7 31 bd
       -0.22918868 0.1385008 -0.023144325 -0.043433778
000040 1e a6 48 bd b9 ab 92 3d dc a9 b8 be 46 ff fe 3d
       -0.048986547 0.0716166 -0.36067092 0.12451033
000050 71 ca fc 3e 42 7c a2 be 72 df f4 bd 06 9a 45 be
       0.493732 -0.31735426 -0.11956681 -0.19297037
000060 15 78 08 3e f5 b5 6d 3e c3 59 75 3e be 3e 99 3e
       0.13327058 0.23213942 0.23960023 0.2993068
000070 5a f3 02 3c 2c 59 e3 bd 7b da 91 3b 67 05 1f bd
       0.00799259 -0.111009926 0.0044510937 -0.03882351
000080 6d 77 b3 be f8 17 19 3e 89 f7 33 bd 40 46 c5 3e
       -0.35052052 0.1495055 -0.04393724 0.3853016
000090 2a e9 83 be 5d f9 bf bc 13 37 d0 be 59 c9 c0 be
       -0.25763828 -0.023434335 -0.40667018 -0.37653616
0000a0 5b 75 cf 3d ca 23 e4 3e 7b 24 86 3e b4 65 03 3e
       0.10129806 0.44558555 0.26199707 0.12831765
0000b0 ed 57 66 be cc 1e b2 3b 4f e2 14 3d b4 9b 6c 3e
       -0.22494479 0.0054358 0.036348637 0.23106271
0000c0 3b 4d 5a 3d fc 40 6d be c6 a5 93 3e 67 df 7d 3e
       0.05329631 -0.23169321 0.28837413 0.24792252
0000d0 e2 1c cb bd 81 b7 22 bd cd 7e 08 bd 8d 5f ec bd
       -0.09917618 -0.039725784 -0.03332405 -0.11541662
0000e0 8b 95 73 3e 4c 0c 5b be 05 54 3f 3e c2 b0 73 3e
       0.23787515 -0.2139141 0.18684395 0.23797897
0000f0 31 69 25 be b8 17 61 3a 3b 25 1c 3f 00 fc 36 3c
       -0.16153409 0.0008586603 0.6099431 0.01116848
000100 56 54 dd bd 8a 64 64 3e d4 6e 68 bd 40 2b 53 3c
       -0.108071014 0.22303978 -0.05674632 0.01288873
000110 c4 f4 8f 3e ce 4c 73 bc 65 8e b5 bd eb 76 e3 3e
       0.2811643 -0.014849855 -0.0886505 0.44426665
000120 4f 42 4b bd bf e6 84 3e 12 68 2c 3f 12 52 33 3e
       -0.049623784 0.25957295 0.673463 0.17511776
000130 24 f2 cb be 39 d3 ad bc f7 bf 98 3e 1e b4 fd be
       -0.39833176 -0.021218883 0.29833958 -0.4955148
000140 e1 d9 9e 3e 4f 2b 86 bd 4e 41 13 3d 10 47 21 3c
       0.31025603 -0.06551229 0.03595095 0.009843603
000150 6b c9 0b be 3d 7d c0 3e 14 08 dc 3c a2 46 75 be
       -0.13651054 0.3759555 0.02685932 -0.23952726
000160 48 aa f5 3d 8e 61 5c ba 59 cc ff 3c 24 ac 2d be
       0.11995369 -0.0008406871 0.03122537 -0.16960198
000170 a3 a4 57 be b7 61 0f 3b 45 ac e4 bd 97 43 69 bd
       -0.21058898 0.002187831 -0.1116567 -0.056949224
000180 bc 33 10 3e d8 a3 82 3e fe de 77 3e bc b8 4e bc
       0.14082235 0.25515628 0.24206159 -0.012617286
000190 6d 07 ba bd d1 3d 89 3e f9 9c a5 be 2e de 58 be
       -0.090834476 0.26804975 -0.32346323 -0.21178505
0001a0 17 a9 92 3d 74 d1 cd bb bf 95 9a 3d bc 82 53 be
       0.071611576 -0.0062810723 0.07548093 -0.2065534
0001b0 c2 13 d8 be 25 b7 9b 3e d3 69 f4 bd 4e 87 c4 bc
       -0.42202574 0.30413166 -0.11934247 -0.0239903
0001c0 f4 1e b7 3e 58 d3 94 3d 45 17 72 be 33 ea c2 bb
       0.35765803 0.07266873 -0.23641689 -0.005948329
0001d0 2c 1b 89 be b8 57 93 be 96 c9 e6 3e a8 46 2f be
       -0.26778543 -0.28777862 0.45075673 -0.17116797
0001e0 cc 3c d9 be bf 5c 21 3e 5e 72 97 3e ae 5a 00 3e
       -0.42429197 0.15758036 0.29579443 0.12534592
0001f0 b8 b7 02 3e f7 d8 72 3d 9f 7e 94 3e d4 6b d6 3c
       0.12765396 0.059288945 0.29002854 0.026174463
000200 3f 4f b0 3d 9d 0c a8 3d 8c 49 85 bd 18 97 d5 bd
       0.08608865 0.08205531 -0.065081686 -0.104292095
000210 04 5d ce bd 02 e3 83 3e 9d ab 8a 3a e9 66 69 be
       -0.10076335 0.2575913 0.0010579709 -0.22793163
000220 ae 8f 45 3e 51 94 30 3e 89 f0 0c bd 73 3f 10 bd
       0.1929309 0.17244078 -0.03440908 -0.03521676
000230 9a c5 f3 bc 80 71 54 be d9 ee 37 3e b8 fa ae be
       -0.02975731 -0.20746422 0.17962207 -0.34175658
000240 42 5d 7c be d9 95 89 3d ee b9 e4 3d 96 3a 48 3e
       -0.2464495 0.06718034 0.11168276 0.19553599
000250 2a 19 89 3d 2f 95 01 3f ea e1 2a bc 26 91 e0 3d
       0.06694253 0.5061826 -0.010429839 0.10965185
000260 65 f4 30 be 1c 46 51 3e 20 66 52 3e 0e f8 38 3d
       -0.17280729 0.20436901 0.2054677 0.04515844
000270 36 c6 48 3d 12 b0 52 3d 2e bf cf bd cf 2c 1a 3e
       0.049017154 0.051437445 -0.101438865 0.15056156
000280 cd cf e5 3d ad 6b aa 3d dd 7a 4c 3d 44 5a 88 3e
       0.112212755 0.08321319 0.04992186 0.26631367
000290 c9 c3 85 3d 86 d1 bd be 2c ff b5 3d bd 60 96 be
       0.06531484 -0.37073916 0.08886561 -0.2937068
0002a0 83 40 0d 3d bb 19 27 be 01 80 0b be fe 30 97 be
       0.03448535 -0.16318409 -0.13623048 -0.29529566
0002b0 3d 66 ea 3e 42 ec 00 3d 28 ff 94 3d 3b 19 30 be
       0.45781127 0.031475313 0.0727523 -0.17197125
0002c0 63 32 93 be 2e b9 f9 bd f6 c5 fd bd 89 30 00 3e
       -0.2874938 -0.12193523 -0.12391274 0.12518515
0002d0 3a 78 ab be e3 22 d7 3d 22 b6 b9 3e 64 b6 83 3d
       -0.33490163 0.10504701 0.3627177 0.064312726
0002e0 ca 10 20 be b4 2e 9d 3d 9f f5 2b 3e b3 96 ce 3d
       -0.15631405 0.076749235 0.16792916 0.10087337
0002f0 06 f3 c5 be 0f 32 b9 be ad fa 05 3f 74 bb db 3d
       -0.38661975 -0.36171004 0.52335626 0.10729113
000300 1d 91 9d 3e 68 88 d4 be 3b a9 46 3e cc 11 7c be
       0.30774775 -0.4151032 0.19400494 -0.24616164
000310 08 a2 b8 3c b7 83 65 be 4a 98 8f 3e 24 28 e0 be
       0.0225382 -0.22413526 0.28045875 -0.43780625
000320 cf 1e 91 bb 86 b1 84 be 7b 60 a9 3d 1e 55 bb 3e
       -0.0044287215 -0.2591669 0.08270355 0.36588377
000330 cf 6a bf 3d a4 ff 3f 3e 37 0e 83 be 82 6d 38 3e
       0.09346544 0.18749863 -0.25596783 0.18010524
000340 ce 97 ba bd 42 fc eb 3d 95 88 42 bd c4 75 ac 3e
       -0.09110986 0.11522724 -0.047493536 0.33683598
000350 bf 22 75 bd 36 12 76 3e 32 57 1e 3e de 9a c0 3d
       -0.05984759 0.24030384 0.1546295 0.094045386
000360 e0 e1 85 bd 10 85 ea bd c0 c1 4b 3e d1 78 c1 bc
       -0.06537223 -0.11451161 0.19898129 -0.02361718
000370 4e f6 7b be 90 96 9b be 40 b4 88 3e 43 5b 5e bd
       -0.24605677 -0.30388308 0.2670002 -0.054286253
000380 f4 dc c5 bd 2b 03 41 bd e7 02 8b be 41 31 78 3e
       -0.09661284 -0.04712216 -0.27150652 0.24237539
000390 00 1e 3b bc 39 a4 d1 3d 67 04 2b be 10 b3 4f bc
       -0.011420727 0.10236401 -0.16700898 -0.012676969
0003a0 72 0b d6 bd e4 5d dc 3d 65 67 d2 bd 11 d2 a6 3d
       -0.10451402 0.10760096 -0.10273627 0.08145536
0003b0 13 55 f9 3d 54 54 d4 bd 47 7b 23 be 2a 3f 84 bd
       0.1217443 -0.10367647 -0.15964995 -0.0645736
0003c0 10 49 b3 bd 84 c3 59 bc 34 b3 26 3e e3 ed 83 be
       -0.0875417 -0.013291243 0.16279298 -0.2576743
0003d0 89 d4 00 be 84 34 2d 3d 50 f0 f9 3d ed 3a b8 3e
       -0.12581076 0.04228641 0.12204039 0.35982457
0003e0 e7 23 61 be 40 1b 9e 3e 09 e2 07 be 53 48 24 bd
       -0.21986352 0.30880165 -0.1326982 -0.040108036
0003f0 13 f5 3e be a3 52 b8 be 11 57 05 3e 50 14 cc 3e
       -0.18648176 -0.36000547 0.13021494 0.39859247

model.w_q.2.bias f4 [25]
000000 47 2a 4b 3e 43 f4 8d 3d 2f d0 41 bd 79 38 9e 3d
       0.19840346 0.06931355 -0.04731768 0.07725615
000010 95 b8 2d be c8 f4 7b bd 8a ab bc 3d 41 4b 28 3d
       -0.16964944 -0.06151274 0.09212406 0.041087393
000020 02 0f b3 3b 23 86 35 be 7e 4d 7c bd 25 ff 28 3e
       0.0054644356 -0.1772695 -0.06159734 0.1650358
000030 00 24 0c 3e 3e 3f 82 3d 93 e8 10 3d c5 28 b3 3d
       0.13685608 0.06359719 0.03537805 0.087480105
000040 a1 9d 3f 3e 6f 31 05 be 8e f4 44 3e 2e e5 25 3d
       0.18712474 -0.13007139 0.19233915 0.040501766
000050 2a 66 82 bc 7f 65 9f 3a 5b c0 06 be 19 a0 0c bd
       -0.015917856 0.0012160985 -0.13159315 -0.03433237
000060 87 44 1c 3e
       0.15260516

model.w_q.3.weight f4 [25, 25]
000000 05 06 8f 3e a9 c1 ba bc 15 f4 d3 3d 83 3f 6f bd
       0.2793428 -0.022797422 0.10349289 -0.05841018
000010 ba 61 03 3e 9c 73 90 bc 40 34 9e be 99 91 45 be
       0.12830248 -0.017633252 -0.3089924 -0.19293822
000020 d2 b5 b3 3b a1 10 9c bd e3 06 3e 3e 6e 59 17 be
       0.005484321 -0.07620359 0.18557315 -0.14780208
000030 69 91 0d be 4a cb 37 3b 2c b7 41 be 3d 0f c2 3d
       -0.13825001 0.0028044754 -0.18917531 0.09475563
000040 0e 94 84 3d 15 ce ba 3e db 96 00 bc 08 c4 98 3d
       0.06473552 0.36485353 -0.007848467 0.07459265
000050 d7 19 9a 3e ce 36 9a 3d d9 73 f5 bd 93 b1 7a 3e
       0.3009784 0.075299844 -0.11984987 0.24481802
000060 12 64 7f bd cd 09 91 3d 56 64 a9 3e a4 8b 1a 3e
       -0.062351294 0.070819475 0.33084363 0.15092331
000070 29 62 b5 be e3 ea 34 3e 34 99 ec be d1 5e c0 bd
       -0.35426453 0.17667727 -0.46210635 -0.09393085
000080 15 3b 06 3f d1 13 6a 3e aa 8e 82 3e b5 f3 8f 3d
       0.524339 0.22859122 0.2549947 0.07028905
000090 48 e3 88 be 16 75 22 3d a4 c7 ac 3d 5d 48 eb bd
       -0.26735902 0.039662443 0.08436516 -0.114884116
0000a0 44 19 3d be 18 f5 11 be 13 97 6f be 3f db 00 be
       -0.1846667 -0.14253652 -0.23397474 -0.12583636
0000b0 9b 06 6c be 54 05 b4 ba 8a 9c 5e be 0f 2e 87 bd
       -0.23049395 -0.0013734498 -0.21739402 -0.06600582
0000c0 19 67 1e bd e5 13 66 be 1b de f1 bc fd b6 4c be
       -0.03867254 -0.22468527 -0.029524853 -0.1999168
0000d0 3a 75 9a 3e 36 aa ae bd c6 c0 a7 3c f5 fa 5a 3e
       0.30167562 -0.08528559 0.020477664 0.21384795
0000e0 8f 27 e6 3d 84 74 50 be 8f c1 24 be c9 9f d9 bd
       0.11238014 -0.20356947 -0.16089462 -0.1062618
0000f0 79 5d 83 be e7 86 a8 be 49 c2 ea 3d 56 bd f2 bd
       -0.2565725 -0.32915422 0.11462838 -0.11852519
000100 1c 3c a9 bd 9c ec a6 3e f5 57 b4 3e f4 a0 6d 3e
       -0.08263418 0.32602394 0.35223356 0.2320593
000110 73 d3 19 3e 2e 80 e7 3d 30 94 27 bf 08 ee 96 be
       0.15022068 0.11303745 -0.6546049 -0.29478478
000120 49 91 88 be 4d 77 ba be 04 c5 90 3d d8 55 9e bd
       -0.26673344 -0.36419144 0.07068828 -0.07731217
000130 e8 fc 9c bd ff c5 a9 be 56 c4 ec 3a b8 81 12 3e
       -0.076654255 -0.33158872 0.0018063884 0.14307296
000140 e7 0a 16 3e a1 75 4d bd ba 3e 18 3e b2 a7 1e 3e
       0.14652596 -0.050161008 0.14867678 0.15493658
000150 aa 72 38 bd 50 57 ba 3e 73 23 83 be 15 69 bc 3c
       -0.045031227 0.3639474 -0.25612983 0.022999326
000160 52 64 66 bd 11 0e d9 bd 61 db 23 3e 3e 29 87 bc
       -0.056248017 -0.10598386 0.16001655 -0.016499158
000170 52 9d 7b be 33 e1 92 3d 5f f1 4a bd b3 cd 9e 3d
       -0.24571732 0.071718596 -0.049546596 0.07754078
000180 34 d7 d7 be 91 cf 00 3e f2 8b 9d 3e 24 64 92 bd
       -0.42156374 0.1257918 0.30770832 -0.071480066
000190 c7 d9 dc be 3a 75 c5 be 3b 1b 0e be ca c5 70 3e
       -0.431349 -0.38566 -0.13877575 0.2351295
0001a0 0c 0c 6f 3e 93 29 8a be 78 38 1b 3e 85 bb 9b bd
       0.2334444 -0.26984844 0.1515826 -0.07604126
0001b0 22 a1 02 3d bc f0 84 3d d5 2a ae bd ba 7e 94 3d
       0.03189195 0.06491229 -0.08504263 0.07250734
0001c0 92 bc 50 be 55 5b 9a 3d 1e f9 18 3e 3a 6c 96 be
       -0.20384434 0.075369515 0.1493878 -0.29379445
0001d0 15 aa 9b be 74 ce 9b 3e 93 68 75 3e 60 d3 2d be
       -0.304032 0.3043095 0.23965673 -0.16975164
0001e0 e5 55 b9 bd 81 5a 26 be 1b 01 a7 3e d4 16 58 3d
       -0.09049586 -0.16245462 0.3261803 0.052756146
0001f0 80 26 86 3e 90 30 ae bd 42 80 b2 3e f0 8b ee 3d
       0.26201248 -0.08505356 0.34863478 0.11647785
000200 16 9f e5 be 22 b2 81 bd 4e 4d 77 3d d7 8f 47 be
       -0.44847935 -0.06332804 0.060376458 -0.19488464
000210 f5 06 3d 3e 75 8a a6 bd e3 ce 0e 3e ec ba b4 3e
       0.18459685 -0.08131877 0.13946109 0.3529886
000220 04 48 c2 3e 37 98 1f be e4 56 ff 3c c4 91 15 be
       0.3794557 -0.15585409 0.031169362 -0.14606386
000230 5e ef 34 bc fd 10 2c bc 5b 9f 54 be 39 b7 96 be
       -0.011043398 -0.010502097 -0.20763914 -0.29436663
000240 5e fa 02 3c 1a af 89 3e 8d 7b 9c bd 81 cf 13 be
       0.0079942625 0.26891404 -0.07640753 -0.14434625
000250 d3 07 28 3c 20 70 22 be a4 a2 36 be 2c 2f 88 3d
       0.010255772 -0.15863085 -0.1783548 0.06649622
000260 57 db e4 3c 98 d3 cb 3d 33 3d 83 3c df c0 b0 bd
       0.02793662 0.09952468 0.016020393 -0.08630537
000270 9b 6f 26 3d dc 5a f0 3d a8 2e 79 bc 8e e0 a0 3d
       0.04063378 0.1173608 -0.015208878 0.078553304
000280 83 28 12 be cb 12 5c be 68 1c ea 3e 63 45 22 be
       -0.14273266 -0.21491544 0.45724797 -0.15846781
000290 bc e5 3f bb 4e 1c 00 be db 20 cb bc 3e 73 9a 3e
       -0.002928122 -0.12510797 -0.02479594 0.30166048
0002a0 37 91 c6 3d 68 a9 63 3e 51 cb f6 3d f8 73 ae 3c
       0.09695666 0.22232592 0.12050498 0.021295533
0002b0 1b ad 06 be 09 ed 07 3e 4b a7 1e be 92 94 5d be
       -0.13151972 0.13274015 -0.15493505 -0.21638706
0002c0 3b ea 14 be 16 fb 9b be a9 c7 d8 3d 5b 79 60 bb
       -0.14542477 -0.30465 0.10584957 -0.003425202
0002d0 ae 65 54 3e f5 34 2a 3e 8d df 90 3d 29 c5 31 3e
       0.20741913 0.16621764 0.07073889 0.17360367
0002e0 48 e1 a3 bd 7f 6a 00 3e 52 ad f0 3c 7f 2c c9 3e
       -0.08001953 0.12540625 0.02937952 0.3929176
0002f0 31 70 50 bd 60 eb bf be ee 91 17 3d 5e 80 09 bf
       -0.050888244 -0.37484264 0.037004404 -0.537115
000300 17 da 23 be 39 5d 99 3e 52 17 72 be 28 82 39 3e
       -0.16001163 0.29953936 -0.23641708 0.18116057
000310 34 d2 04 be 11 43 fc bd 0d 52 b5 be 9a 1f 32 3d
       -0.12970811 -0.123174794 -0.35414162 0.04348717
000320 37 c9 23 be bf 93 8b bd a8 c0 00 be f6 69 23 3d
       -0.15994726 -0.0681529 -0.12573493 0.039895974
000330 58 6d 60 3e 69 98 37 be 25 63 7d 3b 17 82 eb 3d
       0.21916711 -0.17929234 0.003866383 0.11499422
000340 48 39 99 3e c6 3e 00 be 46 6a ca bc 92 17 b6 be
       0.29926515 -0.12523946 -0.024708878 -0.35564858
000350 19 e6 82 be 15 d2 38 be 27 96 cc 3d 3c c7 7d bd
       -0.25566176 -0.1804889 0.09989577 -0.061957583
000360 87 ea 28 3e c7 0e 58 be 70 45 30 3e 47 a5 8f 3d
       0.16495715 -0.21099387 0.17213988 0.07013946
000370 8a 94 d8 be 19 d6 6c be c8 10 d1 bc d6 8b 35 3b
       -0.42300826 -0.23128547 -0.025520697 0.0027701757
000380 3c 03 0d be 6e 09 a2 3e ba ff 6c bd 80 98 7b bd
       -0.13770765 0.3164782 -0.057861067 -0.061424732
000390 9e 35 97 3e 1a fd 79 be 87 6b d8 bd 13 93 f8 bd
       0.29533094 -0.24412957 -0.10567384 -0.12137427
0003a0 33 cf 9c 3e 40 75 93 be 36 dc 9d be 87 e7 9e be
       0.3062683 -0.28800392 -0.3083207 -0.31036016
0003b0 93 f9 32 be dd 56 ba 3e 2f 8a d3 3d 9c 4c 91 3e
       -0.17478018 0.36394396 0.10329091 0.2837876
0003c0 04 93 83 be 7e ed cb be bb d9 d5 be 80 5c 3f 3e
       -0.25698102 -0.3982963 -0.41767678 0.1868763
0003d0 7c 8d cb 3c 6c 0f 12 3e 5d 49 07 3e 0c c8 57 3d
       0.024847738 0.14263695 0.1321158 0.052681014
0003e0 53 b7 80 3e cb a4 4e bd e0 91 92 3e 68 fb 8d 3e
       0.25139865 -0.050450128 0.2862692 0.2773087
0003f0 dc ee d2 3a 2e 87 ad 3d 42 b3 49 be 1e c7 d0 3d
       0.0016092914 0.08473049 -0.19697288 0.101942286

model.w_q.3.bias f4 [25]
000000 36 20 d9 3d 38 0e f1 3d a5 22 04 be bb b8 e9 3d
       0.10601847 0.1177029 -0.12903841 0.11412188
000010 8e 90 45 be a2 23 b3 3c 12 e9 7f bd 9c d0 98 3d
       -0.19293424 0.021867577 -0.062478133 0.07461664
000020 77 4c 89 bc 55 d1 1e 3e 3b fa d0 3d 08 88 90 3d
       -0.016760094 0.15509541 0.10203978 0.07057196
000030 bc e8 16 be 80 0c 39 3e 5b 7d 2c 3e af 55 2a bd
       -0.14737219 0.18071175 0.16844694 -0.04158562
000040 7c 4a 89 3d 66 20 78 3b 73 53 bc 3d cd 56 fd bd
       0.0670366 0.0037861108 0.09195604 -0.123700716
000050 07 8d 39 be 08 fa 19 be 43 a1 02 3e 32 12 ee bd
       -0.18120204 -0.15036786 0.12756829 -0.11624564
000060 7e 57 ed bd
       -0.115889534
