ml-1m_default/SASRec.epoch=1000.lr=0.001.layer=2.head=1.hidden=50.maxlen=200.pth (torch, 776554 bytes, 22 tensors)

item_emb.weight f4 [3417, 50]
00000000: 0000 0000 0000 0000 0000 0000 0000 0000
00000010: 0000 0000 0000 0000 0000 0000 0000 0000
00000020: 0000 0000 0000 0000 0000 0000 0000 0000
00000030: 0000 0000 0000 0000 0000 0000 0000 0000
00000040: 0000 0000 0000 0000 0000 0000 0000 0000
00000050: 0000 0000 0000 0000 0000 0000 0000 0000
00000060: 0000 0000 0000 0000 0000 0000 0000 0000
00000070: 0000 0000 0000 0000 0000 0000 0000 0000
00000080: 0000 0000 0000 0000 0000 0000 0000 0000
00000090: 0000 0000 0000 0000 0000 0000 0000 0000
000000a0: 0000 0000 0000 0000 0000 0000 0000 0000
000000b0: 0000 0000 0000 0000 0000 0000 0000 0000
000000c0: 0000 0000 0000 0000 b568 443e 3d5c 443e
000000d0: 379b 02be bd68 ce3d 6d72 e6bc cad8 873d
000000e0: 2f06 1a3e 0d40 b1be 6cc9 2f3e 81c8 8cbe
000000f0: 13f2 963d 9008 29be d490 ed3d 2c11 e9bd
00000100: 3e60 19be 48d2 1bbe f551 38be 3cf0 213e
00000110: 02e8 cfbc ac4e 313e 6ecc 513d b9bc 803b
00000120: 4242 86bd 0be6 77bd 51e6 d13c db44 56bd
00000130: 780f 92bc b32d cbbd bdd7 d03e 1fbf b2be
00000140: f21f a4be 388a babd 9c2e 13be 4c3a d9bd
00000150: 53fa a6be caa5 bebd 00b2 223b ac00 5c3e
00000160: d975 90bd 6c92 a3bd 2f23 ba3e 3f10 25be
00000170: 3612 32be 53a6 efbb 56d8 013f 6141 343e
00000180: 4396 b4bd 6022 c0be 8f8b 69be 4233 923e
00000190: 0c1e 003e 4ed5 a53b 8663 493c f6b0 72be
000001a0: 368c cc3d 1b52 703d 7732 31bd 9211 d5bd
000001b0: 7db6 623d daac 1fbe b839 883c 8771 06bd
000001c0: d1c8 dbbd 58a0 67be 9766 ccbd 6839 bbbd
000001d0: c765 d43d 3b90 803c 79a0 21be c423 a4ba
000001e0: 28f7 7f3e fc3c e53d 90fe bbbd 8350 b5bd
000001f0: 013e 293d 8144 9dbe aa1e 4e3d 4a8b b83c
00000200: 1204 08be 0aa7 4bbe fcf1 82be cf0d 95be
00000210: 2d1e 4bbc 0599 073e 010c 15bc 657b e7bd
00000220: ff74 b93d 46fc 14bd becc aa3d ac10 c23e
00000230: 387d 843d c69c ebbd efc9 98bc 7961 2dbe
00000240: 7591 653e 302f 6fbe daf2 88be 8ef0 d1bd
00000250: a8a4 5e3d 9146 5e3e 436d 3a3e 39ff c5bd
00000260: 7dd5 c6bd d8ac 053e 716e a3bd dd86 bdbc
00000270: b760 c03d c812 9abd 230d 843e c70a 51be
00000280: 3468 43bc e7bb 15be cd7c 933d 5282 d73d
00000290: de28 b03e ea9f 42bd c71e 913c 0679 b73d
000002a0: f49e bb3d a2cf 9dbd eeba c03d 2017 9cbe
000002b0: 2242 7f3e 1f96 883e e303 573c ff58 93be
000002c0: 2617 57bc 7771 54be c4f8 733e 36ed bfbe
000002d0: cafe 41be 933e 47bd 991c 4dbd 3a31 33bd
000002e0: a6b9 8dbd 1599 01bd e7be aabd 630b 7e3e
000002f0: adc7 53be e9cb a63d 141e 0b3c 3b4c 8f3e
00000300: 8f42 403e 1885 50be 10ac 823e 846f 123e
00000310: f94f 78bd d9fd 17bf 64c9 9abe 0667 f83d
00000320: f495 713e 60ca 433e 907c d6bc 920f b73c
00000330: 2d6a b33d 73c2 d73d ccaf 983d 5cb4 7dbe
00000340: 3cca 323e 1238 80be b654 803c 40ac 12bd
00000350: f574 333e a4e1 3ebe 23d0 bcbd 8890 a73c
00000360: b189 1dbe fdd9 373e a468 923b 9163 02bc
00000370: 1981 293e f36b 53bd 919e e6bd 2d5c fbbc
00000380: 158d 14be 8f56 893d 2a8d 4fbd d836 0cbd
00000390: 27cb 723e d312 98be c109 1abe 4aee 38bd
000003a0: a96d 24bd 7af1 54bd ab76 45be ab5c 49be
000003b0: 6702 b93d b048 873e c9bc 19bb 0288 a33c
000003c0: 02fa 0a3d feba 45be c017 10be c23b 29be
000003d0: f90f e73e eefe 543d 19cd 7bbe c291 9cbe
000003e0: 0a62 11be 28d9 ec3e c6ba 36be 4b28 ed3d
000003f0: 2b53 493e ef0f 0fbe 45d5 903d d1a3 063e
0.0 0.0 0.0 0.0 0.0 0.0 0.0 0.0
0.0 0.0 0.0 0.0 0.0 0.0 0.0 0.0
0.0 0.0 0.0 0.0 0.0 0.0 0.0 0.0
0.0 0.0 0.0 0.0 0.0 0.0 0.0 0.0
0.0 0.0 0.0 0.0 0.0 0.0 0.0 0.0
0.0 0.0 0.0 0.0 0.0 0.0 0.0 0.0
0.0 0.0 0.19180568 0.19175811 -0.12754522 0.10078571 -0.028130734 0.06633146
0.15041421 -0.3461918 0.1716668 -0.27496722 0.07370391 -0.16507173 0.115998894 -0.113802284
-0.1497812 -0.15216935 -0.18000014 0.15814298 -0.025379185 0.17315167 0.05122035 0.0039287475
-0.065556064 -0.06052212 0.025622519 -0.05231176 -0.017829642 -0.09920826 0.40789595 -0.3491144
-0.32055622 -0.091083944 -0.14373249 -0.10606822 -0.32612857 -0.093089655 0.0024825335 0.21484631
-0.07053728 -0.07986912 0.36354968 -0.16119479 -0.1738976 -0.0073135286 0.5072073 0.17603065
-0.08817723 -0.37526226 -0.22807144 0.28554732 0.12511462 0.0050608283 0.012291795 -0.23700318
0.099876806 0.058672052 -0.043261018 -0.10403742 0.055349816 -0.15593281 0.016629085 -0.03282311
-0.10731662 -0.2261976 -0.09980505 -0.09141809 0.10370975 0.015693774 -0.15783872 -0.0012522866
0.24996626 0.111932725 -0.09179413 -0.08853247 0.041318897 -0.30716327 0.050322212 0.022527356
-0.13282803 -0.19887939 -0.25575244 -0.29112098 -0.012397331 0.13241966 -0.0090971 -0.113028325
0.09055518 -0.0363734 0.08339833 0.37903345 0.06469196 -0.115045115 -0.018650977 -0.16931714
0.22418769 -0.23357844 -0.2674778 -0.1025096 0.054356247 0.21706606 0.18205743 -0.096678205
-0.097086884 0.13054216 -0.079800494 -0.023135597 0.09393447 -0.075231135 0.25791273 -0.20414267
-0.011926699 -0.1462246 0.07201538 0.105229035 0.3440618 -0.047515787 0.017714871 0.0895863
0.09161177 -0.077056184 0.09410654 -0.30486393 0.24927571 0.26677033 0.013123485 -0.28778836
-0.013128078 -0.20746408 0.23825365 -0.37485665 -0.1894485 -0.04864366 -0.0500761 -0.043748118
-0.06920175 -0.03164013 -0.08337193 0.24809031 -0.20681639 0.081443615 0.008491058 0.27987847
0.1877539 -0.20363271 0.25521898 0.14300352 -0.060623143 -0.59371716 -0.30231774 0.12129025
0.23592359 0.19120169 -0.026182443 0.022346292 0.08760486 0.10535135 0.074554056 -0.24775833
0.17459959 -0.25042778 0.015665393 -0.0358088 0.17525084 -0.18640763 -0.092193864 0.02045466
-0.15384556 0.1795425 0.0044680405 -0.007958309 0.16553153 -0.05161662 -0.11260713 -0.030683601
-0.14506944 0.06705963 -0.050671734 -0.03423199 0.23710309 -0.29701862 -0.15042783 -0.045149125
-0.040143643 -0.051988102 -0.1928355 -0.19664256 0.09033661 0.26422644 -0.0023458472 0.019962315
0.033929832 -0.19309613 -0.1407156 -0.16526702 0.45129374 0.052000932 -0.24589957 -0.30579954
-0.14197555 0.46259427 -0.17844686 0.11579951 0.19660632 -0.13970922 0.07071928 0.13148428

pos_emb.weight f4 [201, 50]
00000000: 0000 0000 0000 0000 0000 0000 0000 0000
00000010: 0000 0000 0000 0000 0000 0000 0000 0000
00000020: 0000 0000 0000 0000 0000 0000 0000 0000
00000030: 0000 0000 0000 0000 0000 0000 0000 0000
00000040: 0000 0000 0000 0000 0000 0000 0000 0000
00000050: 0000 0000 0000 0000 0000 0000 0000 0000
00000060: 0000 0000 0000 0000 0000 0000 0000 0000
00000070: 0000 0000 0000 0000 0000 0000 0000 0000
00000080: 0000 0000 0000 0000 0000 0000 0000 0000
00000090: 0000 0000 0000 0000 0000 0000 0000 0000
000000a0: 0000 0000 0000 0000 0000 0000 0000 0000
000000b0: 0000 0000 0000 0000 0000 0000 0000 0000
000000c0: 0000 0000 0000 0000 834d 81be 3c92 3b3d
000000d0: e61f 1cbe de79 0d3e c925 e23c 2d5d 5a3e
000000e0: 8772 003d a692 81be c446 993e 15df a93e
000000f0: ce57 3abd 4a85 653e 6e9b 5a3e 238b 3c3d
00000100: 423d 2dbd 4146 07be accd c43d 5e68 22bd
00000110: 9727 463e e777 66be b2db 363e 87d5 77be
00000120: 5ee7 5abe 6ff6 993e 5ea4 c3be 13b7 89bd
00000130: e207 40bd a027 403e f5c3 623e 47d1 b23d
00000140: 0151 7abe 3ff6 8f3e 7aea 53bd 9555 1b3c
00000150: 7bc2 eb3d e262 42be cf73 c23e 5cb1 93be
00000160: 22f0 11bf 4ad5 983e aa8d 80bd 6d31 533e
00000170: dd1c de3e 01e0 723d 584f d93d 2a19 b83d
00000180: 1adb 783e 88ac 1fbe 7628 c9be 67d6 b73d
00000190: 1ef0 3ebd eb5f dabd 0489 ecbc 4dd1 0b3d
000001a0: 1029 353e 1e46 8f3d 9560 cf3d fca5 d9bd
000001b0: 9a6f 963e 5854 d03e cdec d83c 7727 293e
000001c0: 3382 99bc d0c8 c7bd 79c0 bb3d b5a7 f5bd
000001d0: ad0d 533d f9bc 3fbe 30e4 103e 1af2 8cbd
000001e0: 2ceb 963d ddf4 93bd 1d84 0f3d f78c 0b3e
000001f0: 542c 54be f8cd debd 3bc7 5b3d 3f32 5a3e
00000200: d086 073e 96ef 6e3e dcfa 65bc b4eb 7f3e
00000210: a23f 43be a5d4 913e f4a3 e93c 3661 03be
00000220: 99d7 983e ca8f ddbd 367c 06bf 996a 023d
00000230: 569a 77bd 6568 593c 43a9 a43e 7272 e63d
00000240: 8df3 bcbd ebdb 4f3d 54fc 473e 9b1c 5bbe
00000250: a4da 96be c8d6 773d 3720 67be aa59 15bc
00000260: ad3c b43c 33eb 433e 5d8b 403c 4182 47bd
00000270: 469e dc3d 8a8a a3be 009f a13e d60e be3e
00000280: 26b6 34bd 113f 113e 5463 323e e087 f73b
00000290: 2bea 52be e05c 7abe 6095 213e 3686 d0bd
000002a0: 643f 223e 161e c7bd 95ef 67bd a8cf 15be
000002b0: a3b3 a63c 4c77 303e 45b8 12bd 2180 58be
000002c0: 394b 673e 9206 033e 0882 f63d a2b3 483e
000002d0: 879a 903c 37ce b33e bb5a 133d 42a1 983e
000002e0: 6393 503e 8535 20be 42ed 003e 9303 a1be
000002f0: bfb3 ecbe a2d1 823e f5a7 123d a67d 723c
00000300: c529 ee3e 61da e6bb 5fd5 6dbd ad15 c43d
00000310: 1e67 713e 6f35 bebd a824 293e 8e2c 2e3d
00000320: b90d 50be fa8f b4bd 6e06 d9bd 1d7a ac3d
00000330: 7742 97bd c09f d43d b66b 2cbe 3224 273c
00000340: a432 553e 05cb 9f3e 8c19 d03c 7d22 0d3e
00000350: 0480 2a3e 7715 c8bc 3966 de3c 22b7 28be
00000360: d399 f13d 405f cbbd 8a21 a83d d803 31be
00000370: 00db 3e3d 3b6b 173d 665b 33bd 223b 693e
00000380: 85fc 6abe 5ed6 a4bc 725b 7c3e c201 953e
00000390: c659 723d 62ec cd3e eebe fdbd 9ba2 ab3e
000003a0: 0883 433d d3cc 7e3e 71f5 6e3e e416 45be
000003b0: 9a74 3a3e a375 4bbe 9944 96be b883 303e
000003c0: 48e1 8ebd 2472 1a3e e18d d93e 7761 db3d
000003d0: f839 31be e137 3d3e 8751 1a3e 5b78 82bc
000003e0: 00db 11be faba 153d 1bc0 84be d89c 7ebd
000003f0: a24d 29be 5620 da3c 017a b93d d7d3 133e
0.0 0.0 0.0 0.0 0.0 0.0 0.0 0.0
0.0 0.0 0.0 0.0 0.0 0.0 0.0 0.0
0.0 0.0 0.0 0.0 0.0 0.0 0.0 0.0
0.0 0.0 0.0 0.0 0.0 0.0 0.0 0.0
0.0 0.0 0.0 0.0 0.0 0.0 0.0 0.0
0.0 0.0 0.0 0.0 0.0 0.0 0.0 0.0
0.0 0.0 -0.2525445 0.045793757 -0.15246543 0.1381602 0.027605908 0.21324606
0.03135922 -0.25307196 0.29936802 0.3317801 -0.045493893 0.22414127 0.21348354 0.04603113
-0.042294748 -0.13210393 0.09609541 -0.039650314 0.1935104 -0.22506677 0.17857245 -0.24202548
-0.21377322 0.30070826 -0.3821134 -0.06724372 -0.046882518 0.18765116 0.22145064 0.08731323
-0.24444963 0.28117558 -0.051737286 0.009480854 0.115117036 -0.18983033 0.3797898 -0.28846252
-0.5700704 0.29850227 -0.0627702 0.20624323 0.43381396 0.059295658 0.10610837 0.08989175
0.2430233 -0.15593159 -0.39288682 0.08976441 -0.046615712 -0.10662826 -0.028873928 0.03413515
0.17691445 0.06995796 0.101258434 -0.10627362 0.2938202 0.4068935 0.026480103 0.16518961
-0.018738842 -0.09755099 0.091675706 -0.11994878 0.051526714 -0.18724431 0.14149547 -0.06882115
0.07369074 -0.07224438 0.035038102 0.13627993 -0.20720035 -0.10879129 0.053656798 0.2130823
0.1323502 0.23333582 -0.01403686 0.24992257 -0.19067243 0.28482547 0.028520562 -0.12830052
0.29851988 -0.10818441 -0.5253328 0.03183994 -0.06044992 0.0132695185 0.32160386 0.112522975
-0.09226141 0.05074684 0.1952985 -0.21397631 -0.29463685 0.060507566 -0.22570883 -0.009115616
0.022001589 0.1913269 0.011751977 -0.048708204 0.10772376 -0.31941634 0.3156662 0.37120694
-0.044119023 0.14184214 0.17420703 0.0075540394 -0.2059714 -0.24449492 0.15779638 -0.10181849
0.15844494 -0.09722535 -0.056624968 -0.14629996 0.02034933 0.17233008 -0.035820264 -0.21142627
0.22587289 0.12795475 0.1203652 0.19599774 0.01765181 0.35118267 0.0359752 0.2981053
0.20368724 -0.15645416 0.12590507 -0.3144804 -0.46230885 0.25550562 0.035804708 0.014800465
0.46516243 -0.0070450758 -0.058064815 0.09574447 0.23574492 -0.092875354 0.1651789 0.04252296
-0.20317735 -0.08816524 -0.105969295 0.08421729 -0.07385724 0.103820324 -0.16837963 0.010201501
0.20820099 0.3120958 0.025402807 0.13782687 0.16650397 -0.024424298 0.027148353 -0.1647611
0.11796918 -0.09930277 0.08209522 -0.17286623 0.046595573 0.036967497 -0.043788336 0.22776464
-0.22947891 -0.02012175 0.24644259 0.29102904 0.059167646 0.40219408 -0.123899326 0.33522496
0.047732383 0.24882822 0.23335816 -0.19247013 0.18208542 -0.19869094 -0.2934921 0.17237747
-0.06976563 0.15082604 0.42491058 0.10711949 -0.1730727 0.18478347 0.15070163 -0.01592653
-0.14243698 0.036555268 -0.25927815 -0.062161297 -0.16533521 0.026626747 0.090564735 0.14436279

model.Layernorm.weight f4 [25]
00000000: dabb 823f 5798 973f 27fd 8a3f 2e0d 813f
00000010: 767f 883f c314 a13f 5b78 593f ba28 8b3f
00000020: adaa 803f ca40 3f3f 511c 733f 5f59 853f
00000030: d1c2 843f 0e2d 763f 8675 873f 4f47 813f
00000040: c609 603f b0d1 8a3f d5e1 8a3f 9b08 8e3f
00000050: fdec 593f 0d05 823f d10b 863f a68f 903f
00000060: 2936 753f
1.0213578 1.1843365 1.0858506 1.0082147 1.0663898 1.2584461 0.8494927 1.0871804
1.0052086 0.74708235 0.9496508 1.0417899 1.0371953 0.961625 1.058274 1.0099887
0.87514913 1.0845242 1.0850168 1.1096376 0.8512724 1.0157791 1.0472356 1.1293838
0.95785767

model.Layernorm.bias f4 [25]
00000000: 0076 20bf fb98 443e 8948 863e 9886 9a3d
00000010: 6dd2 353e ab62 d73a 3b03 253f bfb6 c5bd
00000020: adf9 113f 0cc1 e73d 6092 49be 41f9 d33e
00000030: e8be 60be 55f9 0cbf 3ac6 25be 1cd0 1ebe
00000040: c572 823e ad20 a13e ae92 1e3e b26b a9be
00000050: 50d2 38bc 6a3d 54bd f082 d8be 957f a8bd
00000060: 21af 9dbe
-0.62680054 0.19198982 0.26227215 0.07545203 0.17756052 0.0016432604 0.64458054 -0.09653997
0.570216 0.11316118 -0.19684744 0.41401103 -0.21947825 -0.5506795 -0.16188899 -0.15509075
0.25478187 0.31470242 0.15485641 -0.33089978 -0.011280611 -0.05181638 -0.42287397 -0.08227459
-0.30797675

model.w_q.0.weight f4 [25, 25]
00000000: cde5 b4be 4d4f d13d f3a6 99be 793d da3d
00000010: 138e 05bf b16c a23e 81d6 d03e 95a6 233d
00000020: 44cc 343d e54e 3d3e a962 96be 04fd 263e
00000030: c3f7 973e fb69 21bf 10bd fa3d 05da 16bc
00000040: 3c33 a93e 6025 1e3e b9f6 75be 81db 03bf
00000050: e8c1 443e 9e39 13bd d522 5d3f b587 ec3e
00000060: 82d2 1fbe b845 11bf 629a 643f 5c31 1cbe
00000070: e3e6 fb3d 7564 83be 9ff5 9f3e 161c 4dbe
00000080: d928 37bf ae15 7ebe 0d72 a9be db8c 123d
00000090: df43 fa3e 7360 e23e 56dd d3be 3f55 ca3c
000000a0: 5f35 c53e e0c6 d23e c078 843d 1f20 0b3e
000000b0: ce8e a63e 6eac 01bf 3388 9fbe 02d2 4d3e
000000c0: 8f73 c23e 5590 8dbe 3a51 7bbf 5a58 27be
000000d0: a3a6 ffbd 1c27 a23e cc1f 383e 7238 e7bd
000000e0: 3a2f d03e c706 fabc 6cd5 013e 3911 a5be
000000f0: c945 7e3e af78 78be 8db8 72bd 518b 61bd
00000100: 5939 043e 9a7f 9e3e 1c70 68bd d7fb b5be
00000110: b11b 84bd 3787 8f3d 9e02 58bf 0725 8b3d
00000120: b3a9 8bba 5a11 953e ae13 01bf 35eb 1d3e
00000130: 8f02 05be 2273 a2bd 495d c5bd 9c6b f7bc
00000140: ecf7 ebbc 3001 79be 5bb5 07be 9515 d13d
00000150: d0e4 90be deef a03c 3be3 e9bd c296 5c3e
00000160: b73d 7c3e 6e6c adbe f6fb 18bf 0352 863e
00000170: 2a65 683e ee47 a23d 9d0f af3e 3d65 1d3f
00000180: 9f1f 0bbf dd58 a8be c2cc e7bd 0a22 a73e
00000190: 204d d53e 0081 1b3e 65a4 903e 8a81 ccbe
000001a0: 3569 0bbf 4ebf bbbd 7424 b33e 93e4 ed3e
000001b0: e43a 6cbe 91a2 b53c 943a 92be 4132 2ebf
000001c0: d1a3 6a3e 23af 313f 3620 6abf 4bea 12bc
000001d0: b8ff 563d f61d 94be 13da 04bf 4af0 11be
000001e0: 4dc9 353f d18b 45be da8d c2be 84b4 9cbc
000001f0: d30a bf3e a364 c23e e4a8 37bf b756 dbbe
00000200: a9f0 94be e73a 8e3c 613d ccbe d8b7 193f
00000210: ec69 6f3e 4846 0b3e 6714 1bbe aecd 16bf
00000220: ffe3 573e a2fe abbd c1ca c8be 8032 4e3e
00000230: 57ad 43be 803a 2d3e b290 6dbe ad50 8e3e
00000240: 3dd5 9ebc 0b8c d43c 26d5 86bb c233 a9be
00000250: cb02 debe 7fa0 9b3d e4f8 33be e694 a2bd
00000260: e01b dcbe 6914 323d 7608 3e3e f266 69bc
00000270: e07d 083f 4729 fabd d69f c73e 9d45 a33d
00000280: b5f2 bcbd abc8 c63e 46c1 153f 096a 053e
00000290: 1824 ce3d 5621 4ebe 2ba1 67be c790 c7be
000002a0: 59c2 69be 2de9 843c cb89 093e 609f 94bd
000002b0: e750 303e 1c4a 9c3c 66ed 083e 856b 4c3f
000002c0: 45fd 53bf 56f5 883d 5b6a 593d 655a 9b3e
000002d0: f6ad b2be fea9 11bf d0f3 113f 8b89 db3e
000002e0: abc9 2ebf e36c 5fbe 93de e5bd d601 51be
000002f0: aa72 0ebe 92aa a0be e85d 2cbe 79d5 f03e
00000300: b7ec 5fbe bf2d 65be bbeb 4ebd 9730 b33d
00000310: 68ab b33d ebf5 b53e 814b 9cbe efe3 243d
00000320: f9ff 4dbd 139f 9dbe ee35 6f3c 3a6b df3c
00000330: 58a6 5e3e 40cf 213e 651d 95be f42a f0be
00000340: 4a1d f7be 4b4e d3be eb21 55be 5df5 39bf
00000350: 5ed0 d93e 7de2 0f3e f6d8 383e 2325 79be
00000360: 5e9b c0be 61cd 06bf e23a c33d fe62 90bd
00000370: 01e3 dc3a 2dcd 2f3e 95a2 563f a9a6 94bd
00000380: 462b 193f d5e0 02be 7ddc 49be 6ca2 5f3e
00000390: 6ac9 753e 913f 18bd cbad 9f3e eb1d c6bd
000003a0: 0c14 38bd c6ee bb3e 7dc2 a5be 3a6c 6fbb
000003b0: 5861 f13d 93c9 4bbe 1fbe 743e eaa9 d6be
000003c0: fbf2 4c3e 814b 11bf 15da 36be 35d7 293e
000003d0: ee2c 923e 2e1c b3bd b969 49be d48a 5cbf
000003e0: aa36 a43e 5039 ffbd 225c 02be b1ce 713e
000003f0: 6170 fb3d 9400 803e 5c17 5d3e d08f 533e
-0.35331574 0.102202035 -0.30010185 0.10656256 -0.52169913 0.3172355 0.40788653 0.039953787
0.044140115 0.18487127 -0.29372147 0.16307455 0.29681215 -0.6305234 0.12243092 -0.009207253
0.330469 0.15443945 -0.24019898 -0.5150681 0.19214594 -0.03594362 0.86381274 0.46197286
-0.15607646 -0.5674701 0.8929807 -0.15253204 0.122998975 -0.2566258 0.31242082 -0.20030245
-0.71546704 -0.24812958 -0.33094826 0.03577886 0.48879907 0.4421421 -0.41379803 0.024698852
0.3851728 0.41167355 0.06468344 0.13586472 0.32530826 -0.5065373 -0.311586 0.20099643
0.3797879 -0.2764918 -0.98170817 -0.16342297 -0.12482955 0.31670463 0.1798088 -0.11290063
0.4066103 -0.03052081 0.1267907 -0.32239702 0.24831308 -0.24264787 -0.059258033 -0.055064503
0.12912501 0.30956727 -0.05674754 -0.355437 -0.06450594 0.07008212 -0.84378994 0.06794172
-0.0010655433 0.291148 -0.50420654 0.15421756 -0.12989257 -0.07932116 -0.09636933 -0.03020268
-0.028804742 -0.24316859 -0.13252775 0.102091946 -0.2829957 0.019645628 -0.11420294 0.21541885
0.24632917 -0.33871788 -0.5975946 0.26234445 0.22694841 0.07923876 0.341916 0.614826
-0.54345125 -0.32880297 -0.11318351 0.32643157 0.41660404 0.15185928 0.28250423 -0.3994258
-0.5445741 -0.09167348 0.3498875 0.4646345 -0.2306934 0.022172244 -0.28560317 -0.6804543
0.22914053 0.6940786 -0.914554 -0.008966993 0.052489966 -0.28929108 -0.51895255 -0.14251819
0.71010286 -0.19291617 -0.3799885 -0.019129045 0.37312946 0.37967405 -0.7174208 -0.42839596
-0.2908986 0.017362071 -0.39890578 0.6004615 0.2338025 0.13601029 -0.15144502 -0.5890759
0.21083067 -0.08398177 -0.3921719 0.20136452 -0.19109093 0.16916847 -0.23199728 0.27795926
-0.01938879 0.025945684 -0.0041147647 -0.330473 -0.43361506 0.075989716 -0.17575413 -0.079385564
-0.42990017 0.043476496 0.18557915 -0.0142457355 0.5331707 -0.12214904 0.38989133 0.07972262
-0.0922598 0.38824973 0.58498037 0.1302873 0.10065478 -0.20129904 -0.22620074 -0.38977644
-0.22828044 0.016224468 0.1343147 -0.07256961 0.17218362 0.019078307 0.1337181 0.7985156
-0.82808334 0.06687419 0.053079944 0.30342403 -0.34898347 -0.5690001 0.57012653 0.42878374
-0.6827647 -0.2181888 -0.11224093 -0.20410857 -0.13910928 -0.31380135 -0.16832697 0.47037867
-0.21867643 -0.22380732 -0.05051778 0.08749502 0.087729275 0.35539183 -0.30526355 0.040256437
-0.050292943 -0.30785426 0.01460026 0.02727281 0.21743143 0.15801716 -0.2912399 -0.4690777
-0.48264533 -0.4127067 -0.2081372 -0.7264002 0.42541784 0.14051242 0.18051514 -0.24330573
-0.37618536 -0.52657133 0.095327154 -0.07050131 0.001685232 0.17168112 0.8384183 -0.072583504
0.59831655 -0.12781079 -0.19713016 0.21839303 0.24002615 -0.037169997 0.3118728 -0.09673675
-0.044940993 0.36705607 -0.32374945 -0.0036533014 0.11786145 -0.19901113 0.2390065 -0.4192651
0.20014565 -0.56755835 -0.17856629 0.16586001 0.28549904 -0.08745609 -0.19669236 -0.86149335
0.32072955 -0.12462103 -0.12730458 0.23614003 0.12277294 0.2500044 0.21590942 0.20660329

model.w_q.1.weight f4 [25, 25]
00000000: 2b87 94be 3ace 0cbe c388 813e 61c2 c73e
00000010: 6f6d 46bf a0a0 003f e515 ba3c a0c1 f33c
00000020: 81f6 0fbd 1631 e33e 6ea0 08be 4f60 f73b
00000030: 0d8f 363e 62f6 fcbe ebc7 b2be cdde 0dbe
00000040: b377 253d 7322 7abd 64c0 2dbe c8ec dabe
00000050: a3e1 1bbe 3e55 003f 4ccf 823e a483 893d
00000060: 6f01 0abe 842f 94be 3417 993e f99f 723e
00000070: 04e0 65be 971d 443e f23e 313e 968a 733e
00000080: d934 a63c 2fb6 d43e cc27 27bd e184 fb3e
00000090: eff9 873e 41ec 0bbe c992 24bd bd59 773b
000000a0: 5a1c be3c 1e59 2d3d 1034 f7bd 918e e9bd
000000b0: e7bb 4e3e f178 d43e 3f63 05bf b221 043e
000000c0: 2488 803d cf62 dfbd 4235 39be 8b50 9e3e
000000d0: 6542 c5be b5f2 cabd a7f7 eb3e 195b 503d
000000e0: 5c98 e9be 55e9 58bd aab9 cf3d 1f98 85be
000000f0: fc0f 26bf c09c 883e b84f 223d 5714 6a3e
00000100: 61f7 893e b072 28bc f801 8fbe b9d3 6a3c
00000110: 55ec e73e 14e5 cb3d 7eb0 bc3e ddd7 ed3d
00000120: ebc4 b6be f99f d4be e6d1 823c 4f34 05bf
00000130: 0482 2bbe 6e56 9cbe e2cb e0be cc72 87be
00000140: 5be5 58be a4ee ffbd 0319 423e 237d 333d
00000150: 23e8 3b3d a775 9bbe 8c5b 573f 9e13 64bd
00000160: a43e e1bd 970e c1be b6f4 433c ff3e 483d
00000170: 15ac c2be 7e9c 783e dbe7 513d c664 d53e
00000180: 1ef1 e7bd cb4f 663e 4d2d 0fbd 6226 1b3e
00000190: 24f4 c4be 292f f23d 51ee f03d 8480 3ebe
000001a0: 4391 083e 6879 0dbf e2d2 c03d ebdd 2f3d
000001b0: 9fba 0b3e 551b e8bd 0f24 fcba 71f1 1bbe
000001c0: 703d c43e fa5b 873e c421 8a3d 209d 3b3e
000001d0: 9f43 1c3e 0bbe 953d 1ad6 48be a016 abbd
000001e0: f3b3 353f ec2f 6e3e 3dc5 0a3e 06cd 07bf
000001f0: 6de8 d23e de53 95be e596 f9bd c861 ea3e
00000200: 75f1 f03e 78db 2c3e db39 813e 289b c43e
00000210: f00b bdbe 0a57 753e c984 59bd 4524 89be
00000220: 2b1e 753e f2ea c43e 63fe 3f3d f35a 853e
00000230: 6b54 d43d 15d2 13be 6948 003f 29fa 04be
00000240: a70c 84be a940 c93e efac 22be 0e23 df3d
00000250: f794 093c d6fd 3b3e d867 2e3f e031 033f
00000260: e2d0 873e 67c3 00be 1e49 48be b670 3a3e
00000270: 48b4 83be b0cf 18be 4eec 55be c58e e83e
00000280: 8c9d 0f3e c81f 183b 733b 59be 95b6 a33d
00000290: f12b 7b3d d553 023e fc80 08bf 73ba 38bf
000002a0: 6aeb 8ebe 386d a83e ea8a 4ebe 5107 5f3d
000002b0: 1777 4fbe 8c90 983e 0fc9 38be 6ec3 e33e
000002c0: 9fb3 87be 30a2 83bd 8d7a 983d 332b 3fbd
000002d0: 1f0b a7be 4474 bebd bec6 86bd 73ea 523e
000002e0: 84ac 38bf c45e b9be 5af4 b6be 0fab d4bd
000002f0: b53f dbbd 7203 b8be f349 d63e adfe 163f
00000300: d52f 98be d7ff bbbe a9b6 dc3d 8d2d 293e
00000310: d735 503e c538 b1be 9729 df3e d87d 9f3e
00000320: d762 563f b5ba a2be 39f4 f3be f3d9 0dbe
00000330: f0e0 29be 68c7 d03e f70c fdbe 898a 823b
00000340: 3851 bebe 11d5 fabe f03c bb3e 0748 13bf
00000350: 2540 cabd b161 b23e f631 ddbe da9d 30be
00000360: 0082 613d e845 90bd 1d00 ebbd 1603 823e
00000370: 33f3 f0be 44dc a33c f288 ea3e 87d0 49be
00000380: 712b 863e d2c3 233d b770 6f3e 7e95 30bd
00000390: d802 913d 8404 b5bc 1b0a 363e 50ed 7c3e
000003a0: e7de a0be 6a40 3abd 854f b3bb fb4e 3f3e
000003b0: fc9c 19be a203 e83d 3f3b 063e 9be7 03bf
000003c0: 91ca d73e aaa8 8dbe af1a 78be 0d1e 32be
000003d0: 48a7 a7bc 3e76 66bd b9ad fd3d 41f0 7b3e
000003e0: 55d2 c23e 4ee7 ae3e 03a5 86be dad5 e4be
000003f0: 76ca 613e 0179 6cbe d220 033d 7cb0 c63d
-0.29009375 -0.13750544 0.25299653 0.39015487 -0.7751073 0.50245094 0.022715518 0.029755414
-0.035147194 0.44373387 -0.13342449 0.0075493227 0.17828007 -0.49406725 -0.3491815 -0.13854523
0.040397357 -0.06106801 -0.16967922 -0.42758775 -0.15222792 0.5013007 0.2554878 0.067145616
-0.1347711 -0.28942502 0.29900515 0.23693837 -0.22448736 0.19151913 0.17309168 0.23783335
0.020288872 0.41545245 -0.040809438 0.49124816 0.26557872 -0.13664342 -0.040179048 0.0037742697
0.023206878 0.042321317 -0.12070477 -0.114041455 0.20188867 0.4149852 -0.5210456 0.12903479
0.06275967 -0.10907518 -0.18086722 0.30920824 -0.38527218 -0.09909574 0.4608738 0.050868127
-0.45624053 -0.052956898 0.101428345 -0.26092622 -0.6486814 0.2668209 0.039626807 0.22859322
0.26946548 -0.01028125 -0.2793119 0.014332705 0.45297495 0.099558026 0.36853403 0.11613438
-0.3569711 -0.415283 0.015969228 -0.5203294 -0.16748816 -0.3053469 -0.4390555 -0.2645477
-0.21181242 -0.12496689 0.18954854 0.04382051 0.04587568 -0.303632 0.84124064 -0.05568277
-0.10998276 -0.37706444 0.011960199 0.048888203 -0.38021913 0.24278447 0.051246505 0.41678447
-0.11325286 0.22491376 -0.03495531 0.1515136 -0.38467515 0.11825401 0.11764205 -0.18603712
0.13336663 -0.55263376 0.09415223 0.042936247 0.13645409 -0.11333338 -0.001923682 -0.15228821
0.38328123 0.2643736 0.067447215 0.18321657 0.1526017 0.073116384 -0.19612923 -0.08353925
0.70977706 0.23260468 0.13551803 -0.53047216 0.41192952 -0.29165548 -0.12186984 0.45777726
0.47059217 0.16880596 0.25239453 0.38399625 -0.3692317 0.23958984 -0.05310515 -0.26785484
0.2393729 0.384605 0.04687346 0.2604595 0.10367664 -0.14435609 0.5011049 -0.12986054
-0.25790903 0.39307144 -0.15886281 0.10895358 0.008397332 0.1835855 0.68127203 0.5124798
0.26526552 -0.1257454 -0.19559142 0.18207058 -0.2572348 -0.14922976 -0.20890924 0.45421425
0.14024943 0.0023212302 -0.21214084 0.07993809 0.061321203 0.12727292 -0.53321815 -0.721595
-0.27913982 0.32895827 -0.20170179 0.054450337 -0.20260273 0.2979778 -0.18045448 0.4448504
-0.26504228 -0.06427419 0.0744525 -0.046672057 -0.32625672 -0.0929952 -0.06580876 0.20597248
-0.7213824 -0.36205113 -0.357333 -0.10384189 -0.107055105 -0.3594013 0.41853294 0.58982354
-0.29723993 -0.36718628 0.10777027 0.16521282 0.20333038 -0.34613624 0.43586418 0.311507
0.8374457 -0.3178307 -0.47647265 -0.13852672 -0.16589713 0.40777135 -0.49423954 0.0039838
-0.3717134 -0.48990682 0.3656993 -0.5753178 -0.09875516 0.34840158 -0.4320218 -0.17247716
0.05505562 -0.070445836 -0.11474631 0.2539298 -0.47060546 0.020002492 0.45807606 -0.19708453
0.26205018 0.03998167 0.23382841 -0.043111317 0.070806205 -0.02209688 0.17777292 0.24699903
-0.3142006 -0.045471586 -0.005472126 0.18682472 -0.15001291 0.11328818 0.13108538 -0.51525277
0.42146733 -0.27667743 -0.24228929 -0.17394276 -0.020465508 -0.05626511 0.123866506 0.24603368
0.38051096 0.34160846 -0.2629777 -0.44694406 0.22049889 -0.23093034 0.03201372 0.097016305

model.w_q.2.weight f4 [25, 25]
00000000: 10eb 173d 7d8c 3abe 5fcf 2ebf 1753 d7be
00000010: 51fc e63e 114b 4a3d 7d11 7dbe 024c 773d
00000020: 635f 0abd 1950 883e 13a9 dc3d 3319 483b
00000030: 94db fd3e 2c56 c8be f4de 893b f110 a0be
00000040: 0fbe 3c3e ee99 9f3e 6724 74bd 62d6 a53e
00000050: b414 d23e de3b 723e cdbd be3d 6deb 9a3e
00000060: a59d d1be f2e3 353e 2569 9b3e 0940 013f
00000070: 5d14 8dbc fbf3 f93c 8f3a 5d3d 5e2e 38be
00000080: 04b6 533c a127 6a3e 0dcc 153e effd 85bd
00000090: 29d0 ab3e 383c 8d3d f38f 8d3e 0995 e0bd
000000a0: ee28 83bd f2be ea3e d0cc 1c3e abf5 09bc
000000b0: 7380 473e de5b 81be 80c0 ffbe e37b 173e
000000c0: 6279 803d 0ba5 d9be b2eb 923c 4963 dbbe
000000d0: f781 1cbe 603d 183d 28f2 0bbd 0d2c 8a3e
000000e0: 44c5 b13e 88d3 ad3e 90b1 2a3e df4d 533e
000000f0: 4f2b 063e 0ba3 0dbe 181d bbbe d433 073f
00000100: 8bfb 383e 36a4 6a3e 46bb 603c b33f 83be
00000110: 9c50 703e de05 4cbd a796 183e 4c08 2abf
00000120: 7f72 9abe 11a7 ee3c 4a71 543d 47a6 a339
00000130: 94be 92be 8cf8 83be c254 02be 7e3e 973d
00000140: 1a53 0a3e b2f3 a4bd ac32 723e aecf 333d
00000150: 4074 103f 3013 88be 6f89 153e b3c9 8c3d
00000160: bf71 49bd bd0b f1bd d1de 003f 794d aabd
00000170: 2449 89be 47f3 12be cdc6 8ebe 4239 c83d
00000180: 7b88 d0bd f927 923e c2b1 273b ab0e 81be
00000190: 83e6 e1be b833 53be 323e 27be 018a d5be
000001a0: 943d 8c3e 4ff5 80be f8f2 71bd e39a 9d3d
000001b0: 0f17 eb3e ae87 dabe a1f2 a33e 8b1a d13d
000001c0: 9e6f 343d 2db7 90bc a6c3 3d3f 7324 323f
000001d0: 7fd2 883e 27cb 51be e13e 1c3e 731a 23bf
000001e0: e8e8 433e a32a 423e d6d8 cb3d 3009 1e3d
000001f0: 4219 93bd b9db 81be d789 c7be a7ba c43d
00000200: 0558 9c3e 9e84 e2bd 8d61 083f 58ce eebe
00000210: de2a 513e b379 e63d 84ed de3e dc68 c83d
00000220: 29d3 b3bd b006 be3e 70e4 ec3d 2cff 0c3f
00000230: be6d 01bf af08 2bbf edba 22bd a3b2 4dbe
00000240: 2e1a d23d b8af febd 03e3 353e 5569 0b3f
00000250: 6058 07be df1f 293f 1d7b 2abe 662d f7be
00000260: f1af 1abe 79fb d6be f0a7 16bf b734 a5be
00000270: c070 80bf ac37 993e c404 38bf 14c6 adbd
00000280: e693 ecbe a0ef 083f 2ab0 683e 375c 1fbe
00000290: e60b 213f 78ea 153f daae d8be e73e 083e
000002a0: be15 163d 3106 1bbf f072 9ebd 5cd6 f13e
000002b0: 5751 1b3d 3d11 be3e c189 933d 643f 063c
000002c0: 6276 efbe adf1 d23e 00c1 e4be c7bf 313d
000002d0: a335 853e 69cd 84bd fea1 883d f122 553e
000002e0: 302c e5be 0458 433d e11b 79be 7db1 25be
000002f0: 0dd1 933d 94e4 433e 809f 013f 9e6d 8dbd
00000300: 1c50 1b3e 53b1 1a3e 8a1c 05bf c654 473e
00000310: d01e 16bf 9ba1 f1bd 6ab3 16be 7451 0fbe
00000320: 369b d4bd 9276 9f3e 34a9 47bd d176 3f3e
00000330: 8339 4abe 7fb4 75be 58d8 c03e 8be2 1dbe
00000340: 2894 203f 2411 fdbd a1cb 983d 8e75 b03e
00000350: 93de d3be cc34 693e 003e 46be d279 12be
00000360: edf1 63bd 3e55 54bd e419 f0bd ad44 febe
00000370: b36d 183f 80de de3c dd26 10bf 1549 283e
00000380: c39c 3f3e 4ba2 7dbf 9eec c13e cadd db3e
00000390: c309 253d 57b7 0f3f a0e0 91bc 9f8b 463f
000003a0: a31b 92be 41ed 873f 118e 003d 0db6 63bd
000003b0: 466f 4f3e 1ed5 20be 7b4e 0b3d c0c8 25be
000003c0: 6114 25bf 3664 b53e 45cc ac3e 5cac 73be
000003d0: f44d 91be 1748 52be 6069 15bf c73a 9fbe
000003e0: 37c2 8dbe 543a 5d3e 6484 a73d f09b 203e
000003f0: 258a cd3e fb82 b2be 3aea aa3d 0a2a 27be
0.037089407 -0.18217655 -0.68285173 -0.4205558 0.45114377 0.049387995 -0.24713702 0.06037522
-0.033782374 0.2662361 0.10774436 0.0030532598 0.49581587 -0.39128244 0.0042074863 -0.31262925
0.18431877 0.31172127 -0.05960503 0.32390124 0.4103142 0.2365565 0.093135454 0.3025774
-0.40940586 0.17762735 0.30353656 0.50488335 -0.017221624 0.030511847 0.054010924 -0.17986438
0.012921814 0.2286668 0.1462862 -0.065425746 0.3355725 0.068962514 0.27648887 -0.10965926
-0.06404291 0.45848805 0.15312505 -0.008420388 0.19482593 -0.25265402 -0.49951553 0.14793353
0.06273152 -0.4250873 0.017934654 -0.42849186 -0.15283953 0.037167907 -0.034166485 0.26986733
0.34720814 0.33950448 0.16669297 0.20635174 0.13102458 -0.13831727 -0.36545634 0.5281346
0.18064706 0.22914204 0.0137165245 -0.25634536 0.2346825 -0.049810283 0.1490122 -0.6641891
-0.3016548 0.029132398 0.051865853 0.0003121367 -0.28661025 -0.25775564 -0.12727645 0.07384966
0.13508263 -0.08054294 0.23652142 0.04389923 0.56427383 -0.2657714 0.14603208 0.068744086
-0.049180742 -0.11769817 0.5033999 -0.08315558 -0.26813614 -0.14350615 -0.27886048 0.09776546
-0.101822816 0.28546122 0.002558813 -0.25206503 -0.4412118 -0.20625198 -0.1633232 -0.4170685
0.2739073 -0.25187156 -0.059069604 0.07695558 0.4591603 -0.4268164 0.3202105 0.10210141
0.04405176 -0.01766547 0.7412666 0.6958687 0.26723096 -0.20487653 0.15258361 -0.63712233
0.19131815 0.18961577 0.099534675 0.03858298 -0.07182552 -0.25362948 -0.3897235 0.096059136
0.30535904 -0.11060451 0.5327385 -0.46641803 0.20426509 0.11253681 0.43540585 0.09785625
-0.0878051 0.37114477 0.115670085 0.5507686 -0.5055808 -0.66810125 -0.039729048 -0.20087676
0.102589 -0.124358594 0.1776238 0.544576 -0.13217306 0.66064256 -0.16648526 -0.48276824
-0.15106179 -0.41988733 -0.5885 -0.3226678 -1.0034409 0.29925287 -0.7188227 -0.08485046
-0.46206588 0.5349064 0.22723451 -0.15562521 0.6290878 0.58560896 -0.423209 0.13305245
0.03664183 -0.6055632 -0.07736766 0.47233856 0.03791937 0.37122527 0.07204009 0.008193824
-0.46770006 0.4120001 -0.44678497 0.043395784 0.26017484 -0.064844914 0.066715226 0.2081411
-0.44760275 0.04769136 -0.24327041 -0.16180988 0.07217608 0.19130164 0.50634 -0.069056734
0.15167278 0.15106706 -0.5199667 0.19465932 -0.58640766 -0.11798402 -0.14716879 -0.13995916
-0.10381167 0.3114515 -0.04874535 0.18697669 -0.19748501 -0.23994635 0.37665057 -0.1541845
0.6272607 -0.12356785 0.07460714 0.34464687 -0.41380748 0.22774047 -0.19359589 -0.14304283
-0.05565064 -0.051839106 -0.11723688 -0.4966177 0.5954239 0.027205706 -0.563093 0.16434129
0.18712144 -0.99075764 0.37875837 0.4294265 0.040292513 0.5613913 -0.017807305 0.77556795
-0.2853671 1.0619279 0.031385485 -0.05559354 0.20257291 -0.15706298 0.03401039 -0.16189861
-0.6448422 0.35428017 0.33749595 -0.23796219 -0.28379786 -0.20535313 -0.58363914 -0.3109953
-0.27687237 0.21604282 0.081795484 0.15684485 0.40144458 -0.34865555 0.083454564 -0.1632463

model.w_q.3.weight f4 [25, 25]
00000000: 25fe 9fbe 3377 8dbd 383a fdbd 35ae 44bd
00000010: 7598 71be fe3f 23be 22e2 ea3d fa30 bdbe
00000020: d1bb 1c3f e595 453f 189b 753c e971 a73d
00000030: c66a 023f 4c13 57be 3ca4 dcbe 0317 e33c
00000040: 1ca3 d93d 6dee 30be dd5a a23e 2325 b83d
00000050: ba1b 68bf fec7 ecbd 5ff0 3f3e 6ff1 e6bc
00000060: 0bf6 c73e 2c14 363d 006f 343f 63e2 133e
00000070: 6cce 44bf 5f40 433d b6b2 1abe f762 f8bd
00000080: e739 d03e f4bc ca3e 6d76 0cbe 577b 003f
00000090: 6955 e53e dbba bdbe b881 913a f60d 83be
000000a0: d8ca 90be f8d0 823e 9688 f6be ae4a cbbe
000000b0: d999 0ebe 5f5d ad3e 9420 7e3c 9b0b 7f3e
000000c0: dca6 f0be 9754 db3d 9bbc f23c c450 f53e
000000d0: da3e aa3e e5c2 3cbe 7aa7 fd3e 7751 2ebd
000000e0: 47d4 34be 7e70 4abe 8b03 a83c 501b 80be
000000f0: 61ed 9b3e 5e76 2a3e 4490 1d3f 7c2f a0be
00000100: 0f02 d13e 3b58 a2bd 7f80 0ebf a7d4 e4be
00000110: d02d 1a3f 88dd 253f 834c f93b c6b4 25bf
00000120: f40c 51bd 94af dabe 38d2 bcbe 2be4 5fbe
00000130: 4642 c13d 348c ccbd 4700 923e 34fc 3dba
00000140: 1c21 893d eac1 c43e 6cf7 653d 2912 d6be
00000150: 0ef2 883c 4745 983e b741 823c a1ea 1fbf
00000160: 5f6f 063e 1065 ad3d 58d1 acbd 2380 51be
00000170: 0580 5fbc f226 dabc b5fe 803e 990c 9f3e
00000180: 2d5a 3f3e fab5 0bbf df9e 723e b540 8cbc
00000190: e985 f9bd ffab 6a3e 6612 b63e c8c0 d4bd
000001a0: 61eb b23e 8858 d5be 830d 47be e413 103d
000001b0: b877 0abd 46a3 38be 4e0d edbd a9f8 1abf
000001c0: 29e8 283f 37b1 303d c028 8fbe 4e88 f3bd
000001d0: 15ee 13bd d9d7 7ebe 2e1c 683d 7462 cabc
000001e0: 82b8 0b3f 2d64 343d da1d 01bf 9a3f 6fbe
000001f0: 381e 903e f1ed 4ebe ef4e 823e a983 5e3e
00000200: 5fc1 a93d a4f3 c23c d260 793e 7286 d13d
00000210: 0ae9 c4bd bfd8 113f ccba 7abe 25ff afbe
00000220: 81fd dc3e 0620 1a3f 7f75 27be 6634 423f
00000230: 8360 43be 66e0 06bf 4c42 b2be 7eee 273e
00000240: 310a 47bd f5a5 6bbe 68d1 153d 6075 073e
00000250: 0269 193f 7423 05bf bf99 303f 45d5 143f
00000260: 8ce9 94be a6e9 823d 4df8 84bd 9bbe 17bf
00000270: 5e8d 743e 0402 35bd 4f02 12be 664b 563e
00000280: 896b dd3e f713 cf3d 31bd bcbe 77e2 363c
00000290: 016a b43d 6bf7 1cbe 510a 34be 8978 c1be
000002a0: d81d 2ebf a3db 35be 38d0 6b3e 45a7 17be
000002b0: 6fae 8a3e 99af b6bc 12a3 01bf afd7 a7be
000002c0: e432 d6be 47f0 bbbe 41cc dc3e c3d6 a8be
000002d0: b22e 1c3a 512d 083f 5084 ecbe 1edc 1abe
000002e0: b21f f9be 5bbc c03d a677 343e 99a8 34be
000002f0: 0a5a ae3e 899d a93e fa83 883e 19bd b8be
00000300: 4bd6 6a3f 913b 55be 7721 303e 1395 9abd
00000310: 94f9 003f 7fb8 643c 2196 e23e df30 073f
00000320: 7725 083e 5c18 163f 1693 da3d 3233 20bf
00000330: 5f17 173f 7272 c0be c636 303f 9c6e bfbd
00000340: 9705 8c3e 76d2 b9be 3422 9f3e 950f 6f3e
00000350: 5812 923e 51e9 673d 5531 f0be 7785 513d
00000360: 6bb3 1c3f aef4 67be 7aa5 00be bb54 22be
00000370: b2ab 23be 2991 d4be 7f30 e3bd b8be 273e
00000380: a20b a1bd 5691 a8be e53e d93d a37a 743e
00000390: 957f d93e 972a 69bc a2ef cebd 28b1 393e
000003a0: a0d7 7a3e b3f0 413b 3cb6 30bd 4670 16bd
000003b0: af6a a1bc 4eff 843d d013 08bc 8f06 2d3e
000003c0: ff9a 1ebe 81c8 98bc df4a 833d 5b4d 80bc
000003d0: 4623 50bc 55bc 2fbe 6162 0fbf ab61 2fbe
000003e0: 81ca c63e ddcf a53e 7c3c 613e 345d ecbd
000003f0: e3d3 b93e 56a2 e5be f5ed 48be dcf9 dcbe
-0.31248584 -0.06907501 -0.1236462 -0.0480177 -0.23593314 -0.1594238 0.11468913 -0.3695143
0.61224085 0.77181846 0.0149905905 0.081760235 0.50944173 -0.21003455 -0.4309405 0.027720934
0.10626814 -0.17278452 0.31709948 0.08991458 -0.9066731 -0.11561583 0.18744038 -0.028191296
0.39054903 0.04445283 0.7048187 0.14441828 -0.76877475 0.04766881 -0.15107235 -0.12128251
0.40669176 0.39597285 -0.13717051 0.501882 0.44791725 -0.37056622 0.0011101281 -0.2559659
-0.28279757 0.25550056 -0.48151082 -0.39705414 -0.13925876 0.338603 0.015510697 0.24906771
-0.47002304 0.107094936 0.02963095 0.47913182 0.33251077 -0.18433721 0.49541837 -0.04255816
-0.17659102 -0.19769475 0.020509502 -0.25020838 0.30454543 0.16646716 0.61548257 -0.31286228
0.40821883 -0.07926985 -0.5566482 -0.4469349 0.60226154 0.64791155 0.007607998 -0.64728963
-0.051037744 -0.4271208 -0.36879134 -0.21864383 0.09436469 -0.09987679 0.28515837 -0.0007247359
0.06695768 0.38429195 0.056144163 -0.4181073 0.016716983 0.29740354 0.015900476 -0.6246739
0.13128422 0.08466542 -0.08438367 -0.20459037 -0.013641362 -0.026629899 0.25194326 0.310643
0.18686743 -0.5457455 0.23693417 -0.017120698 -0.121837445 0.22917174 0.35560912 -0.103883326
0.34945205 -0.41669106 -0.19438748 0.03517522 -0.03380558 -0.18031034 -0.11574803 -0.60535675
0.6597925 0.043137755 -0.27960777 -0.118912324 -0.036115725 -0.24887027 0.0566675 -0.02470515
0.5457841 0.044040848 -0.50436175 -0.23364106 0.28148055 -0.20207955 0.25450847 0.21729912
0.08288836 0.023797818 0.2435334 0.102307215 -0.09614761 0.56971353 -0.2448532 -0.34374347
0.43162158 0.60205114 -0.16353415 0.75861204 -0.19079785 -0.52686155 -0.34816206 0.16399571
-0.048593704 -0.23012526 0.03657666 0.13228369 0.59925854 -0.5200722 0.689846 0.58137923
-0.29084432 0.06392221 -0.06492672 -0.59275216 0.23882052 -0.044191375 -0.14258693 0.209272
0.43246105 0.1011123 -0.36863092 0.011162392 0.08809281 -0.15328757 -0.1758206 -0.37787274
-0.6801429 -0.17759566 0.23028648 -0.14809902 0.27086207 -0.022300528 -0.5063945 -0.3278174
-0.418357 -0.36706755 0.43124583 -0.3297635 0.0005957886 0.5319415 -0.46194696 -0.1512303
-0.48656994 0.09410926 0.17623767 -0.1764244 0.3405307 0.33128002 0.2666319 -0.3608177
0.91733235 -0.20823504 0.17200266 -0.07547965 0.50380826 0.013960003 0.44255164 0.52808946
0.13295542 0.5863092 0.10672586 -0.6257812 0.59020036 -0.37587315 0.6883358 -0.09347269
0.27348015 -0.3629338 0.31080782 0.23345788 0.2852962 0.056618992 -0.46912637 0.051152673
0.6121127 -0.22651932 -0.12563124 -0.15852635 -0.15983465 -0.41516998 -0.11093234 0.16381347
-0.07863547 -0.32923383 0.10607699 0.23874907 0.4248015 -0.014231346 -0.101043 0.18133986
0.24496317 0.002959293 -0.043142542 -0.036728166 -0.019704191 0.06494008 -0.008305505 0.16897033
-0.15488814 -0.018650295 0.06410765 -0.015661886 -0.012703722 -0.17161687 -0.5600949 -0.17127101
0.38826373 0.3238515 0.21995729 -0.115412146 0.3629447 -0.44850415 -0.19622023 -0.43159378

model.w_q.4.weight f4 [25, 25]
00000000: 5a47 8bbe 542e bd3d 907a 89be 7ce9 d53e
00000010: 6f93 17be 7829 84bc 242c b2be d768 003f
00000020: 5d22 2cbe 72ac f3bc 56b4 053e 791a cebd
00000030: 509b d8bd 30f0 24be 5498 d23d c2da 8abe
00000040: 2494 c63d b6d5 733c e537 8abc 210e 3ebe
00000050: 28f5 c2bd 703e 8c3d 2574 523e 37b2 0bbc
00000060: 7910 5f3d e0f0 aabe 7137 aabe f4af 1cbc
00000070: a901 6a3e a865 333e 0d71 4abd 2fc3 983e
00000080: 1b9e 6e3d 5315 9e3e a867 95be c71a b5bc
00000090: 8571 9f3e 067b 6bbe a9f5 013e 069a 953d
000000a0: 7347 2fbe cb60 8d3c 9efc 043e 421a 04be
000000b0: 13b4 b43d b4b4 3ebe 6b6f 3bbe 2d2a 11be
000000c0: 85cd 19be 5c84 f8be 969d 2e3d d15a 14be
000000d0: 6a85 9e3d a9b2 a03e 3ea0 9b3d a284 733e
000000e0: 071a 73bd 4f08 d0bd df74 2cbe cdff 66be
000000f0: 5419 b63d a809 033d 6891 28be 9ec9 90bc
00000100: e280 0c37 70c0 84be 0465 c9bd 93c2 023e
00000110: e7a8 3aba 7784 24be 824d 67be 9311 6cbe
00000120: 1053 293e d215 b4be 6e92 c5bc 0123 2ebe
00000130: fa84 46bd c72d e93d 2ff9 9a3d ba1f b23d
00000140: 7de8 d5bd 64e9 593c a056 e8be bfb2 b63e
00000150: c8d7 193e c645 133e 715d c53d 10ad 183f
00000160: 34d7 5b3c 51ae a33e 18d3 8f3e dad2 44bd
00000170: 51fb 48bd 8b9c 243d f933 d83d 38c7 e33c
00000180: b873 07be 7332 45be 144f 2c3e b0ae bb3c
00000190: 46b3 7fbe 38c1 0bbf 134b 02be efcb ae3e
000001a0: 82b6 b83e a97f e83d 4cba 9bbe 800e 09be
000001b0: 9716 4ebd fc14 2abe 1898 d13d 064e 243e
000001c0: 4513 a53e 3e70 a2bd d4e4 0d3f c255 d3be
000001d0: 19c2 3bbe 9538 04ba 1c3c 69bd f73a 35be
000001e0: ee56 09be c193 aebd 3648 afbd 3a71 fe3d
000001f0: 1a37 153d dfc2 6e3e 0688 2a3d 8b3b 1cbe
00000200: f710 23be 4b65 eabd 16ab e4bd 8bd6 08bf
00000210: 310e 65be 1e41 12be d8c9 c93e ac27 d1bd
00000220: b581 943e 05dc e53e 9cb7 9a3e c287 ce3e
00000230: aa71 be3c 1e3f 7a3e bc19 413e af04 3bbd
00000240: bfb9 c0bc aade ef3e 570c e9bc 6260 25bd
00000250: 11df a6be 4a23 f4bd c4b7 61be 94dd 04be
00000260: ae17 b6be e133 aebe 3daa 36be 9c54 313d
00000270: 9c14 27bd 552f b9be e28e 95be 17e5 843c
00000280: 3cd5 86bc 62fe a73e 5c08 e03d b9cd 123e
00000290: f00b 3b3e 99dd 2e3c 8ec1 e63e eb10 9e3e
000002a0: e037 10bf c0b6 13be 114c a73e b9b7 273e
000002b0: cfd7 013f 448b b93d 7d03 d63e 9a7e a0bd
000002c0: d298 61be 6a65 e63a ee2e 383f 343b 1a3e
000002d0: 874d 333d 38a8 813e 3f33 0e3d b198 9f3e
000002e0: 6312 ab3d c890 ba3d c2b5 013d 9dda bfbc
000002f0: 512e e7bc 2536 adbd 192a 07bf c04d 76bd
00000300: 2666 c43d 228d 8fbd d818 f9bb d294 5cbe
00000310: 3223 9fbd ce7a 15be a0ad 0e3d 541b c2bd
00000320: d96d 3d3e 6742 e9bd 9213 ad3e 7352 953d
00000330: 0143 a4be 0e38 b93c 4d03 273e 46c1 813e
00000340: ab35 5d3e 25fe a8bd 91ec f93d 8c6a 0cbe
00000350: 0d4d 53be fc71 ddbd e5a9 b43d 6652 e63d
00000360: 12b3 193e a2e1 353d 6d27 ef3e 478e bdbe
00000370: bf8c 973d b9f6 49be 5261 29be c923 4dbd
00000380: 7429 e6bd 9dda 46be 3a38 623d 4d5f 1abe
00000390: 017e ae3e b27c b6bc 1852 6fbe 93a9 8a3e
000003a0: e3e2 f7be 15da 513e 9d32 b1be 1e35 613e
000003b0: ad3f 70be 2d28 31be e0ad b0be c93c 25bf
000003c0: 4aeb 443d a757 c7be 5cba c0bd b040 f3be
000003d0: ebd3 d53d 2b3c 00bf ad02 43be d1d0 a43d
000003e0: b956 37bf 4135 953e d6f3 433e 0b55 0b3e
000003f0: d5f9 10be e6f2 a9bd 7e37 62bc 32b4 db3d
-0.27202874 0.09237352 -0.2685132 0.41779697 -0.14802335 -0.016133055 -0.34799302 0.5015997
-0.16809984 -0.029745314 0.13057074 -0.10063643 -0.105764985 -0.1610725 0.102829605 -0.27120024
0.09696224 0.014882496 -0.016872356 -0.18560077 -0.09519416 0.068478465 0.20552118 -0.008526376
0.05445907 -0.33386898 -0.33245423 -0.009563435 0.22852196 0.17519248 -0.04942422 0.29836413
0.05825625 0.30875644 -0.29180646 -0.022107495 0.31141296 -0.22996148 0.12691368 0.07304768
-0.171171 0.017258069 0.12986991 -0.12900642 0.08823409 -0.1862362 -0.18304221 -0.14176245
-0.15019806 -0.48538482 0.042630754 -0.14487769 0.077402905 0.31386307 0.07598923 0.23781064
-0.059350993 -0.10157835 -0.16841458 -0.22558518 0.0889155 0.03199163 -0.16461718 -0.017674264
8.374658e-06 -0.25928068 -0.0983372 0.12769537 -0.00071205053 -0.16066156 -0.2258816 -0.23053579
0.16535592 -0.35172898 -0.024117675 -0.1700554 -0.04846666 0.113856845 0.07567059 0.086974576
-0.10444734 0.013300274 -0.4537859 0.35683247 0.1502372 0.14382085 0.09636963 0.5963907
0.013418008 0.3196893 0.2809074 -0.048052646 -0.0490678 0.040188354 0.10556788 0.027804956
-0.13227737 -0.19257526 0.16827041 0.022910446 -0.24970731 -0.54591703 -0.12723951 0.34139964
0.36076742 0.11352474 -0.3041557 -0.13384438 -0.050314512 -0.16609567 0.10234088 0.16045389
0.32241264 -0.07931565 0.5542729 -0.41276366 -0.18335761 -0.0005043832 -0.05694209 -0.17698275
-0.13412067 -0.085242756 -0.08558695 0.1242394 0.036429502 0.23316525 0.04163363 -0.15257089
-0.1592444 -0.11445101 -0.111654446 -0.53452367 -0.22368695 -0.14282653 0.39411807 -0.10212645
0.2900521 0.44894424 0.30218208 0.4033795 0.023247559 0.2443814 0.18857473 -0.045658763
-0.02352607 0.46849567 -0.028448267 -0.04037512 -0.3259206 -0.11920793 -0.22042757 -0.1297515
-0.3556494 -0.34023955 -0.17838378 0.04329358 -0.04079114 -0.36168924 -0.29210573 0.01622252
-0.0164591 0.32811266 0.109390944 0.1433629 0.18266273 0.01067295 0.45069546 0.30872282
-0.5633526 -0.14425182 0.32675222 0.16378678 0.5071992 0.09059766 0.41799536 -0.07836647
-0.22030953 0.0017577831 0.7194661 0.15061647 0.043775108 0.25323653 0.03471684 0.31171182
0.08353116 0.09109646 0.03166748 -0.023419673 -0.028220328 -0.08457593 -0.5279861 -0.060132742
0.09589796 -0.07009341 -0.0076018386 -0.21541145 -0.07770385 -0.14597628 0.03483355 -0.09477869
0.18498935 -0.11389618 0.33803993 0.072911166 -0.3208237 0.022609737 0.16309853 0.25342768
0.21602504 -0.08251599 0.122033246 -0.1371252 -0.20634861 -0.108127564 0.08821467 0.11246185
0.15009716 0.044404633 0.46709767 -0.37022611 0.07399892 -0.19723023 -0.16541031 -0.050082956
-0.11238375 -0.19419332 0.055229403 -0.15075417 0.34080508 -0.022276256 -0.2337116 0.270825
-0.48415288 0.20493348 -0.34608927 0.21992919 -0.2346179 -0.17300482 -0.34507656 -0.64545876
0.04807595 -0.3893406 -0.09410545 -0.4751029 0.10440811 -0.5009181 -0.1904399 0.08047641
-0.71616703 0.29142192 0.19135985 0.1360666 -0.14157803 -0.08298282 -0.013807176 0.10727729

model.w_q.5.weight f4 [25, 25]
00000000: 26de 50be 3bd9 0f3f 7e3e 373e b8f9 b0bd
00000010: 6055 68be ce59 d5bd 71af 153e 85ef 4abf
00000020: df55 273e f9bf 033f 7bbc 423f 17f9 86be
00000030: ff03 cfbe 3c68 dd3c 9995 a23e 2b2c 8a3d
00000040: 8b00 f63e 9922 903e d47b a53e f076 a1bd
00000050: 211e 93be 64a1 e43e ead7 c23e 4915 71bd
00000060: 7a9d bd3e d720 0f3d 7114 d4be 3595 ce3d
00000070: 746f e73c 234e 893e de9e b53d 514c b03c
00000080: d34e f0be 6577 423d 9efb 9bbe fe87 cebd
00000090: b193 0f3f 5fdd dd3e 1fad cb3e 1648 273e
000000a0: d983 003f d904 06bf f136 f93e ef42 b7be
000000b0: d062 9dbd 2d18 113d 1baf d43e f807 34bd
000000c0: fa7c 013e 2c95 24bf 23f2 8c3d 6913 1d3f
000000d0: a23c c43e 5e96 d33e 7dfd 583d b506 0a3f
000000e0: a902 8a3d e4a0 5c3e ca24 003e 87f4 223f
000000f0: 809f 0cbd a78b ae3d c1fd f53e eb39 d2bd
00000100: 0aa2 a13e f258 acbd 0735 4dbd b56f 903e
00000110: 2bec 22be ffbb f03c 14a9 93bd 2f30 40be
00000120: cd56 ffbe bb34 0a3e bec7 2a3f a5af a5bc
00000130: 0e74 b5bd 0ec8 263f 4bbb 863e 7355 1dbf
00000140: af45 e03d 32c4 d53d 74fa 04bf 70f7 1a3f
00000150: 1d0a 63bd 2b3a cd3b 7d2c a73e feef 863e
00000160: 5b85 bc3d 0705 97bd bdf6 eebd 2d02 0f3e
00000170: 921a 58bd 87a7 c13e 00f1 bb3e f2f8 4a3c
00000180: 60aa 3abe f5af 763d 6506 4c3e a6ac 453f
00000190: b1c6 2cbc e58b aebe 1cf6 24bd 8ffc 1ebd
000001a0: 8b4f 17bf f3b3 ccbe 1fab 32be 25b8 2fbf
000001b0: 55f1 54bf 70df c53e 93d3 3d3e a9a9 14be
000001c0: fc63 cd3e 62df 50be 148c f13b 754e 36be
000001d0: 6686 2d3d f313 aabe e64d 4b3f bee7 48be
000001e0: 7afd c03c 0972 303f 6d15 26be 7207 8a3e
000001f0: c4ba 943f f57e a2bd 46dd b7be 2e89 13bf
00000200: cb03 f23e fc1a d13e 4ee9 1fbf c4ba 19be
00000210: e067 d53c 5dd6 c6be 1811 7bbe f8d6 6e3d
00000220: dd57 ad3d aa2f ee3e 220d 1a3e ca81 f2be
00000230: 7403 383f 2da5 eb3e fec7 5bbf 2e65 043f
00000240: f39d 313f 0101 e23e 3910 3bbd f4de 5a3f
00000250: dcd9 f6bc 8c34 463e c72f 3bbe e632 58be
00000260: 2619 a4bd a058 97be d6af 93be 3018 53be
00000270: 57fa 0abd 814a b9be f200 3bbe 5e40 f13d
00000280: 98cd ba3e d595 7f3e 5c5f 8b3e 82cb 39bd
00000290: ddca 963d 6ab5 2bbb cbc4 423e ef54 9fbe
000002a0: 0cfd d4bc 45de 09be 2cc7 20bf 8dcf 1f3f
000002b0: 23e3 bd3e cbb4 26be b758 b23e e833 5bbf
000002c0: 49b5 0b3f 497e 23be 5237 243c dea1 153e
000002d0: ac98 fc3e 5581 0c3f dcc7 aebe b565 df3d
000002e0: 3e05 d9be 0f67 26bf 1e7f 1a3e d6a9 e63e
000002f0: 030c 603e d06c b6be 87ba 64be 2c76 4cbf
00000300: bcc4 dc3e 5c56 253e 709f ecbe 5aa9 aa3e
00000310: 21fd 3fbe 8bf9 16bf 47a1 4b3e b959 00bd
00000320: 1ef7 96be 4dfd ae3e 9007 1cbe 2f9d d4be
00000330: bea6 163e 81f1 3bbf 7f13 44bd ffce 2cbd
00000340: 7d54 373e 3991 97be 8f24 093f b3ee 983e
00000350: 3c47 14bf 780e e2bd 22d7 9abe 7dcf 8abd
00000360: 7688 8dbe 6268 8a3e acfd 7fbc fa19 8b3e
00000370: 5738 b3be 914f 193d 34f6 afbe 2391 7ebe
00000380: 28c3 013f a5db 4e3e 085e b13e e8ab bbbe
00000390: d2ab adbe 385a 0dbf 7b0d e33e 6776 033f
000003a0: e7b8 463e 4bf7 173d b6cf 713c 7734 4c3e
000003b0: 06f3 0cbf 742d 6abf 731e ce3d 4ce7 9f3e
000003c0: 3b93 2e3f ecfc 673e f06e b03e e5b7 443f
000003d0: 645e eabd e498 28be 0abb 0bbf 1a1e 44bd
000003e0: 5367 2fbd 6a42 883e e19f 5ebe 37af 44bf
000003f0: 58a8 1bbe cb02 b7be 5dc9 36be e96c bc3d
-0.20397243 0.5619084 0.17894933 -0.0864138 -0.22688818 -0.104175195 0.14617707 -0.7927173
0.16341351 0.514648 0.7606885 -0.26361915 -0.40432736 0.027027242 0.3175476 0.067467056
0.4804729 0.28151396 0.32321036 -0.07884014 -0.28733924 0.4465438 0.38055354 -0.05885819
0.37034208 0.034943428 -0.41421846 0.10087053 0.028251387 0.26817426 0.08868192 0.021520765
-0.46935138 0.047477145 -0.30465406 -0.10084532 0.56084734 0.43332955 0.39780518 0.16336092
0.50201184 -0.52351147 0.4867473 -0.35793254 -0.076848626 0.035423446 0.41539845 -0.043952912
0.12645331 -0.6429012 0.068821214 0.6135774 0.3832751 0.4132566 0.05297612 0.53916484
0.06738789 0.2154575 0.12514034 0.6365437 -0.0343318 0.0852273 0.4804516 -0.10264953
0.31568938 -0.084154025 -0.0500994 0.28210226 -0.15910403 0.029386519 -0.072099835 -0.1876838
-0.4987091 0.13496678 0.6671103 -0.020225355 -0.08860026 0.6514901 0.26314768 -0.6145851
0.10950791 0.10437812 -0.5194466 0.6053381 -0.055429567 0.0062630377 0.3265113 0.26354975
0.09205123 -0.07374006 -0.11668155 0.13965674 -0.052759714 0.37823126 0.36707306 0.012388455
-0.18229055 0.0602264 0.19924314 0.77216566 -0.010545419 -0.34091106 -0.04027377 -0.038815077
-0.5910575 -0.3998104 -0.1744809 -0.6864036 -0.83180743 0.38647032 0.1853774 -0.14517845
0.40115345 -0.20397714 0.007371435 -0.17803366 0.0423645 -0.33218345 0.7941574 -0.19619653
0.023558367 0.68924004 -0.16219111 0.26958805 1.1619496 -0.079343714 -0.35911006 -0.57631195
0.4726852 0.408409 -0.6246537 -0.15012652 0.026050508 -0.3883542 -0.2451824 0.05831048
0.08464024 0.4652074 0.15044072 -0.47364646 0.7188027 0.46024457 -0.8585204 0.5171689
0.69381636 0.4414139 -0.045669768 0.8549645 -0.03013318 0.19355983 -0.18279944 -0.21113166
-0.08012609 -0.29559803 -0.2884509 -0.20614696 -0.03393015 -0.36189654 -0.1826208 0.11779855
0.3648498 0.249595 0.2722119 -0.045360096 0.07362912 -0.002620066 0.19020383 -0.31119487
-0.025999568 -0.13463695 -0.6280391 0.6242607 0.37087354 -0.16279905 0.3483331 -0.8562608
0.54573494 -0.15966143 0.010022955 0.14612529 0.4933523 0.54884845 -0.34136856 0.10908071
-0.42386812 -0.65001005 0.15087554 0.4505145 0.21879582 -0.35629892 -0.2233678 -0.79867816
0.43118846 0.16146225 -0.4621539 0.3333233 -0.18748905 -0.5897452 0.19885741 -0.031335566
-0.2948541 0.34177628 -0.1523726 -0.41526172 0.14712045 -0.7341538 -0.047870155 -0.042189594
0.17903323 -0.29602984 0.5357141 0.29869613 -0.57921195 -0.11037916 -0.30242258 -0.067778565
-0.27643174 0.27032763 -0.015624445 0.27168256 -0.3500392 0.037429396 -0.34367526 -0.24860053
0.5068841 0.20200975 0.34642053 -0.36654592 -0.3392015 -0.5521579 0.44346222 0.5135254
0.19406472 0.03710107 0.014758995 0.19941889 -0.55058324 -0.91475606 0.100644015 0.31231153
0.68193406 0.22655076 0.3445964 0.768431 -0.11443785 -0.16464573 -0.54582274 -0.04788027
-0.042823147 0.2661317 -0.21740676 -0.76829857 -0.15200937 -0.35744318 -0.17850251 0.092004605
